best-checkpoint.pth (torch, 67627 bytes, 6 tensors)

fc1.weight f4 [21, 256]
0	0xbddf2937	-0.10896533
1	0x3e119c76	0.14219841
2	0xbd414cf7	-0.04719254
3	0x3bbfab7c	0.0058493
4	0x3e5f5fe7	0.21813928
5	0x3e13cef6	0.14434418
6	0x3e1f0eac	0.1553294
7	0xbe047dfc	-0.12938684
8	0xbee4595a	-0.4459942
9	0xbd1a0113	-0.03759868
10	0x3ce38d6e	0.0277774
11	0xbd62b890	-0.055351794
12	0x3e117236	0.14203724
13	0xbdb98c43	-0.09059956
14	0x3e4a8c29	0.1978003
15	0xbe9b437a	-0.30324918
16	0x3e407492	0.18794468
17	0x3e11b989	0.14230932
18	0xbde00408	-0.10938269
19	0x3e7b71d3	0.24555139
20	0x3e82cb24	0.2554561
21	0xbded48d5	-0.11586157
22	0x3cad12fc	0.021127217
23	0xbdad39ab	-0.08458265
24	0xbde2904a	-0.11062677
25	0x3da9a3df	0.08283209
26	0x3e666499	0.22499312
27	0x3d31b612	0.043386526
28	0x3e2639bc	0.16232961
29	0x3e07e087	0.13269244
30	0x3e4cc009	0.1999513
31	0xbe3ded5c	-0.18547577
32	0x3e105e20	0.14098406
33	0xbe2f06d9	-0.17092456
34	0x3d2e8d92	0.04261548
35	0x3e308a80	0.17240334
36	0x3e776327	0.24158917
37	0x3e62bad5	0.22141583
38	0xbdabc594	-0.083872944
39	0xbe1fb811	-0.1559756
40	0xbe0b3e43	-0.1359797
41	0xbd60c2e4	-0.054873362
42	0x3df04467	0.11731797
43	0xbdd3ae72	-0.10336007
44	0xbd23bd47	-0.03997543
45	0x39a378e2	0.00031179847
46	0x3c486942	0.012232127
47	0x3dcc1366	0.099646375
48	0xbd961544	-0.07328275
49	0x3e042d9d	0.12908025
50	0xbcd42b1e	-0.025899466
51	0xbce11bc2	-0.027479056
52	0xbdb4d94d	-0.08830509
53	0xbb873519	-0.004126203
54	0xbe8dcfbb	-0.27697548
55	0xbd3d983d	-0.046287764
56	0xbe8bb830	-0.2728896
57	0x3e3871fc	0.18012232
58	0xbd1845fe	-0.037176125
59	0x3d4d7d93	0.050168585
60	0xbd1a3c57	-0.0376552
61	0xbda60fe7	-0.08108502
62	0x3d28c6e6	0.04120531
63	0x3ca192c0	0.019723296
64	0x3de2c8a5	0.11073426
65	0xbd9dd875	-0.077073015
66	0x3e7bf509	0.24605192
67	0x3cdfb818	0.027309462
68	0x3ea804de	0.32816213
69	0xbb9d5a85	-0.0048020505
70	0xbe41ef74	-0.18939
71	0x3e0193d7	0.12654053
72	0xbe26b32e	-0.16279289
73	0x3d325a5e	0.043543212
74	0x3cf31ec0	0.029677749
75	0x3de014e9	0.10941488
76	0xbe523890	-0.2052939
77	0xb800573b	-3.0598818e-05
78	0x3e398296	0.18116221
79	0x3d3ff585	0.046865005
80	0x3e3eb47c	0.18623537
81	0xbd91f49a	-0.07126732
82	0x3c7daeba	0.015483553
83	0x3e0226bd	0.1271009
84	0x3ca7bc43	0.020475512
85	0xbe51863d	-0.20461364
86	0x3e9e1ecd	0.30882874
87	0x3e5266d1	0.20547034
88	0xbe4c8ba6	-0.19975147
89	0x3d871a07	0.06596761
90	0x3e7d81b7	0.24756514
91	0xbd9303ee	-0.07178484
92	0xbdae0c2d	-0.08498416
93	0xbdb01833	-0.08598366
94	0xbe4d1cc3	-0.20030503
95	0x3e15c1f6	0.14624771
96	0x3e49dd24	0.19713265
97	0x3c19ac6a	0.009379486
98	0xbdd41a1b	-0.10356542
99	0x3dcff33e	0.10153817
100	0x3da49b40	0.08037424
101	0xbc5bb38a	-0.013409505
102	0xbe23e066	-0.1600357
103	0xbdb6bfad	-0.08923278
104	0xbe375e50	-0.17907071
105	0x3e479805	0.19491585
106	0xbe7a89c7	-0.2446662
107	0xbd33dcf0	-0.043911874
108	0xbe5425df	-0.20717572
109	0xbe86802a	-0.26269656
110	0xbdbbcc16	-0.09169786
111	0xbd6966cb	-0.056982797
112	0x3dd5964b	0.10429057
113	0x3d9a462b	0.07532915
114	0x3da88334	0.0822815
115	0xbda65188	-0.081210196
116	0x3e03c969	0.128698
117	0xbdbbaa1e	-0.09163307
118	0x3d4ba23f	0.049715277
119	0xbe00c244	-0.12574106
120	0xbc81d7dc	-0.01585
121	0xbe732767	-0.237455
122	0xbc6e2398	-0.014534853
123	0xbd68d9dd	-0.056848396
124	0x3e6fec03	0.23429875
125	0x3e877449	0.26455906
126	0x3d046e86	0.032331966
127	0x3d814feb	0.06314071
128	0xbe24858f	-0.16066574
129	0x3e9c9b25	0.30587116
130	0xbd9e43db	-0.07727786
131	0xbd9d5d5e	-0.07683824
132	0x3e89520b	0.26820406
133	0x3e03d57e	0.1287441
134	0x3d3ec3ed	0.046573568
135	0xbda017bd	-0.07817028
136	0xbefbc835	-0.49176183
137	0xbcbeb82c	-0.02328118
138	0x3d83a721	0.06428362
139	0xbb79683d	-0.0038056516
140	0x3ddac236	0.10681574
141	0xbd89dc0f	-0.06731426
142	0x3e4d68fe	0.20059583
143	0xbd233d3d	-0.039853323
144	0x3e3bcdb2	0.18340185
145	0x3e39e85d	0.18155046
146	0xbd9c41b2	-0.07629718
147	0x3e43567c	0.1907596
148	0x3e872481	0.26395038
149	0xbd9b4021	-0.07580591
150	0xbc360363	-0.011109206
151	0x3bd103bd	0.0063786195
152	0xbe30463f	-0.17214297
153	0x3e0502af	0.12989305
154	0x3ddff8d3	0.10936131
155	0xbd73dbc9	-0.059535775
156	0x3e05adf4	0.13054639
157	0x3d870245	0.0659223
158	0x3d7e15cc	0.062032506
159	0xbe30f521	-0.1728101
160	0x3d45ef8d	0.048324157
161	0xbe7dff89	-0.2480451
162	0x3dd7c751	0.105360635
163	0x3e3bb3d6	0.1833032
164	0x3e25c8ce	0.16189882
165	0x3e801d14	0.25022185
166	0x3d194833	0.03742237
167	0xbe560155	-0.20898946
168	0xbe1b7c04	-0.15184027
169	0xbd5a21c1	-0.053254846
170	0x3d2cb931	0.0421688
171	0xbd96eb2a	-0.07369073
172	0xbd970491	-0.07373918
173	0x3e6aa1d0	0.22913289
174	0x3dcfc69c	0.101453036
175	0x3daf1a6f	0.08549964
176	0xbd27793c	-0.040887102
177	0x3e93a657	0.28837845
178	0xbd84c636	-0.06483118
179	0xbc9daa4a	-0.01924624
180	0x3d12270f	0.03568178
181	0xbd795527	-0.060872223
182	0xbe2a7cfb	-0.16649239
183	0xbdc3ece8	-0.09566671
184	0xbe2fdaf9	-0.17173375
185	0x3e8a5605	0.27018753
186	0xbd87c376	-0.06629078
187	0xbd55a26c	-0.05215685
188	0x3d8da5c4	0.06916383
189	0xbc3e8d53	-0.011630374
190	0x3d2433ba	0.040088393
191	0xbc8008a4	-0.01562912
192	0x3dfdb281	0.123875625
193	0xbce4c736	-0.027927022
194	0x3e4ccdd1	0.20000388
195	0xbb53f345	-0.0032341045
196	0x3ea04df6	0.3130948
197	0xbdf4bdaa	-0.11950238
198	0xbe1dc1ac	-0.15405911
199	0x3e672662	0.22573236
200	0xbdff34c4	-0.12461236
201	0xbce1e6a7	-0.027575804
202	0x3d772623	0.060339104
203	0x3da07327	0.078344636
204	0xbe273dcb	-0.16332166
205	0x3d5fc7f2	0.054634042
206	0x3e23b8c3	0.1598845
207	0x3ca7eb97	0.02049808
208	0x3de6fa89	0.112782545
209	0xbd839479	-0.06424803
210	0x3d72a565	0.059239764
211	0x3e5a351b	0.2130932
212	0xbd8ee9d2	-0.069781914
213	0xbe168947	-0.14700805
214	0x3ea97272	0.33095127
215	0x3e200e49	0.1563045
216	0x3e419984	0.18906218
217	0x3d396dd4	0.045270756
218	0x3e92c962	0.28669268
219	0xbc9f16ed	-0.019420112
220	0xbd769f2f	-0.060210403
221	0x3ca34f82	0.019935373
222	0xbe48d6dd	-0.19613214
223	0x3d7d602e	0.061859302
224	0x3e138ab4	0.1440838
225	0x3da5213b	0.08062979
226	0xbd4ecefb	-0.05049036
227	0x3e32ab0c	0.17448062
228	0x3c0aaf4e	0.008464647
229	0xbd919fca	-0.071105555
230	0xbe6366c9	-0.22207178
231	0xbdaf935a	-0.08573027
232	0xbe38ea81	-0.18058206
233	0x3e661782	0.22469905
234	0xbe7664f8	-0.24061954
235	0xbda5f6d9	-0.08103723
236	0xbe5fb606	-0.2184678
237	0xbe8bd1a9	-0.27308396
238	0xbd3f66c0	-0.04672885
239	0x3c2f2c47	0.010691709
240	0x3dc29f62	0.09503056
241	0x3dd541d7	0.104129486
242	0x3e111ef5	0.14171965
243	0xbdb549b7	-0.088519506
244	0x3d2289f8	0.03968236
245	0xbd67d641	-0.056600813
246	0xbd44ebd6	-0.048076473
247	0xbe6a32ed	-0.22870989
248	0x3c6e0ed1	0.0145299
249	0xbe9d5fd3	-0.3073717
250	0x3c99bc0b	0.018766424
251	0xbd2ee467	-0.04269829
252	0x3e57ef62	0.21087411
253	0x3e40ad15	0.18816026
254	0x3cf85c77	0.030317528
255	0x3c886e71	0.016654225

fc1.bias f4 [21]
0	0xbe7435da	-0.23848668
1	0xbe37ef57	-0.17962395
2	0xbe46ee71	-0.19426896
3	0xbe8e4114	-0.27784026
4	0xbe8849db	-0.26618847
5	0xbea78c9a	-0.32724458
6	0xbea48cf9	-0.32138804
7	0xbe749b60	-0.23887396
8	0xbe66fac2	-0.22556594
9	0xbe745d0d	-0.23863621
10	0xbdcea865	-0.100907125
11	0xbe4474e6	-0.19185218
12	0xbe990305	-0.29885116
13	0xbe9d70b0	-0.30750036
14	0xbdff6df8	-0.12472147
15	0xbe8b8a8f	-0.2725415
16	0xbe85b3ef	-0.2611384
17	0xbe7ecfc1	-0.2488394
18	0xbe56a7ed	-0.20962496
19	0xbe898e2c	-0.2686628
20	0xbeac3322	-0.3363276

exp_avg f4 [21, 256]
0	0xb7863d2c	-1.600253e-05
1	0xb729b67b	-1.0115672e-05
2	0xb92b9538	-0.00016363419
3	0xb869d1a3	-5.574677e-05
4	0x37d8162f	2.5759537e-05
5	0x389173e5	6.935726e-05
6	0x38918141	6.938214e-05
7	0xb93121e7	-0.00016892665
8	0xb70f5dfc	-8.545347e-06
9	0xb8e08c86	-0.00010707327
10	0x34bcfdcd	3.5202393e-07
11	0xb81189cc	-3.4699027e-05
12	0x3876541a	5.8729296e-05
13	0xb8944c14	-7.0713606e-05
14	0x384aa262	4.8311784e-05
15	0x378aa75e	1.6528818e-05
16	0x38509ba4	4.9736016e-05
17	0x377cd147	1.5069097e-05
18	0xb76bf21d	-1.4063463e-05
19	0xb89a87d3	-7.3685915e-05
20	0xb88cf7c0	-6.721867e-05
21	0xb7bc5678	-2.2451612e-05
22	0xb7e99d6c	-2.784907e-05
23	0x38e33acc	0.00010835155
24	0xb5bf2830	-1.4242305e-06
25	0x3784438f	1.5767086e-05
26	0x37fa7417	2.9856381e-05
27	0x38035122	3.1308395e-05
28	0x380c672e	3.3474695e-05
29	0xb820ca47	-3.8335358e-05
30	0x381b1597	3.6974987e-05
31	0x3828163a	4.007502e-05
32	0x3758f577	1.2931755e-05
33	0x374abeae	1.2084534e-05
34	0xb8670c26	-5.5086006e-05
35	0x383a6824	4.4442844e-05
36	0x390b7c07	0.00013302277
37	0x35850234	9.909913e-07
38	0x37bae67e	2.228026e-05
39	0xb858b6aa	-5.1668532e-05
40	0xb6b97fea	-5.528321e-06
41	0x388f4307	6.831256e-05
42	0x38c53587	9.403662e-05
43	0x380f5edf	3.4182212e-05
44	0x381f3aa2	3.796316e-05
45	0xb832bc38	-4.26138e-05
46	0x3814b46b	3.5453977e-05
47	0x38965c57	7.169757e-05
48	0xb8c4df80	-9.3876384e-05
49	0xb8044316	-3.153373e-05
50	0x36a3a81b	4.8773486e-06
51	0x38686cd9	5.5414483e-05
52	0x37da85c8	2.6049922e-05
53	0x379187c2	1.7348564e-05
54	0x388eac00	6.803125e-05
55	0x37d974e7	2.5922853e-05
56	0x3866bac3	5.501021e-05
57	0x38241bc6	3.9126513e-05
58	0x37cc3a64	2.4345885e-05
59	0xb8cbb7df	-9.714043e-05
60	0xb8152749	-3.5560955e-05
61	0x383dd2fa	4.52576e-05
62	0x37a4aa85	1.9629728e-05
63	0xb6fe1d56	-7.573205e-06
64	0x379475e4	1.7697872e-05
65	0xb915de02	-0.00014292452
66	0x3867b2f0	5.524134e-05
67	0xb73a97ff	-1.1121853e-05
68	0x37efb2b0	2.8574228e-05
69	0xb6b5f94d	-5.423243e-06
70	0x37d17c7c	2.4972709e-05
71	0x38c101a0	9.20326e-05
72	0xb8c96f59	-9.605167e-05
73	0x38413e44	4.6072775e-05
74	0xb7926981	-1.7453685e-05
75	0x37e911c8	2.7784045e-05
76	0xb8486ee8	-4.7787005e-05
77	0xb88c272f	-6.683019e-05
78	0x3861e6b5	5.3859043e-05
79	0xb6cc3e87	-6.086953e-06
80	0x3890cc3e	6.904498e-05
81	0xb8540f75	-5.0559134e-05
82	0x384de445	4.90884e-05
83	0x38cc3547	9.737402e-05
84	0x3807119b	3.2202905e-05
85	0xb852ee02	-5.0289564e-05
86	0x382225e5	3.8659102e-05
87	0xb6ffb179	-7.6202527e-06
88	0xb89d48c9	-7.499901e-05
89	0x38955c1f	7.1220325e-05
90	0xb86627cb	-5.4873333e-05
91	0x38b0be34	8.427762e-05
92	0xb89f20ff	-7.587857e-05
93	0x383f0c58	4.5549445e-05
94	0xb8749b8b	-5.8318994e-05
95	0x36f60058	7.3314113e-06
96	0x315e6172	3.2360643e-09
97	0x387aeaaf	5.982321e-05
98	0xb9135d9b	-0.00014053883
99	0x38fb1049	0.00011971646
100	0xb866ad2e	-5.499756e-05
101	0x37919d8a	1.7358707e-05
102	0xb898614d	-7.2660485e-05
103	0x383abb7f	4.4520475e-05
104	0xb7d42938	-2.5291563e-05
105	0xb8771bda	-5.8915328e-05
106	0x375a52a8	1.30130575e-05
107	0xb811ec16	-3.4790566e-05
108	0xb81f527a	-3.7985366e-05
109	0xb88c697a	-6.695367e-05
110	0x385e0ae1	5.2939056e-05
111	0xb6bca0a4	-5.6215376e-06
112	0x37d18aed	2.4979434e-05
113	0x38568540	5.1145675e-05
114	0x384a4e9c	4.8233764e-05
115	0xb8767c0b	-5.8766494e-05
116	0xb79a8c35	-1.842352e-05
117	0xb86ecfc0	-5.6937104e-05
118	0x382bb703	4.094002e-05
119	0x37a86b8c	2.0077241e-05
120	0x380667a6	3.204462e-05
121	0x37a587fd	1.9732857e-05
122	0x38c0bb31	9.1901406e-05
123	0xb84bc017	-4.857787e-05
124	0x38176153	3.6091846e-05
125	0xb86e26b3	-5.6779663e-05
126	0xb8b53815	-8.641199e-05
127	0x38d3644c	0.00010079946
128	0xb7b7033b	-2.1816804e-05
129	0xb609a69c	-2.051157e-06
130	0xb947e406	-0.00019063064
131	0xb84cdab1	-4.8841062e-05
132	0x3706720c	8.013576e-06
133	0x38887de0	6.5084314e-05
134	0x388cd77e	6.715859e-05
135	0xb964c530	-0.00021817232
136	0xb661e1a1	-3.3658946e-06
137	0xb906819b	-0.00012827518
138	0xb725d97f	-9.885406e-06
139	0xb876b21f	-5.881686e-05
140	0x384a03c5	4.8164064e-05
141	0xb883c210	-6.282714e-05
142	0x385de4c9	5.290358e-05
143	0x37ce7acc	2.4614295e-05
144	0x3885274f	6.349256e-05
145	0x37626583	1.3494285e-05
146	0xb7848bd0	-1.5800731e-05
147	0xb8eb21a7	-0.000112119415
148	0xb8a40d79	-7.822639e-05
149	0xb7ec29f3	-2.8152926e-05
150	0xb867317a	-5.512077e-05
151	0x38ddf091	0.0001058291
152	0xb6e38782	-6.7809024e-06
153	0x378e3409	1.695195e-05
154	0x38001581	3.0537605e-05
155	0x37cb56c7	2.4239895e-05
156	0x3814a338	3.543796e-05
157	0xb84da39f	-4.9028193e-05
158	0x37fe978e	3.0349733e-05
159	0x3854413c	5.0605493e-05
160	0x3788d769	1.6312772e-05
161	0x3793f187	1.7636235e-05
162	0xb84b149a	-4.841816e-05
163	0x389ab6a8	7.3773146e-05
164	0x390d2394	0.00013460062
165	0xb7b90cf2	-2.2059747e-05
166	0x37de8336	2.6525562e-05
167	0xb882929c	-6.226191e-05
168	0xb77fee9c	-1.525474e-05
169	0x38a5836c	7.892292e-05
170	0x38ca0788	9.6335134e-05
171	0x381bf622	3.718411e-05
172	0x380c9d84	3.35253e-05
173	0xb826ceb8	-3.9770006e-05
174	0x38212c1c	3.842647e-05
175	0x388fe449	6.861293e-05
176	0xb8d2b561	-0.00010047365
177	0x3775647f	1.46265365e-05
178	0x37020494	7.74967e-06
179	0x388aaea3	6.6128814e-05
180	0x38296c0a	4.039336e-05
181	0x35d645bf	1.5964541e-06
182	0x3870864f	5.7345544e-05
183	0x37fe8392	3.0340427e-05
184	0x38866054	6.4075604e-05
185	0x38033a12	3.1286916e-05
186	0x38050d4d	3.172206e-05
187	0xb8f9ba3f	-0.00011907936
188	0xb77361a1	-1.450666e-05
189	0x38660344	5.4839315e-05
190	0x37c5d2ec	2.3582448e-05
191	0xb7611665	-1.3416259e-05
192	0x37ed9b0d	2.8324803e-05
193	0xb92e0529	-0.00016595855
194	0x389dc3ac	7.52279e-05
195	0xb7aee70a	-2.0850002e-05
196	0x364e6257	3.0753633e-06
197	0x36a73d4b	4.9841233e-06
198	0x381b2437	3.6988607e-05
199	0x38abdf20	8.195476e-05
200	0xb8cadb35	-9.672941e-05
201	0x383a2025	4.4375793e-05
202	0xb7dca336	-2.6302045e-05
203	0x380dc69e	3.3801996e-05
204	0xb84de202	-4.9086295e-05
205	0xb8887694	-6.507072e-05
206	0x386e338d	5.6791632e-05
207	0xb6fe61b5	-7.5811645e-06
208	0x388d9a15	6.752104e-05
209	0xb8b1a9d8	-8.4716536e-05
210	0x385d1db0	5.2718155e-05
211	0x3907feff	0.00012969597
212	0x3811495e	3.4639022e-05
213	0xb8a51a13	-7.87267e-05
214	0x3782ff63	1.5616131e-05
215	0xb7f77e07	-2.950338e-05
216	0xb85ba854	-5.2370437e-05
217	0x38cfccb1	9.908656e-05
218	0xb84d5f06	-4.8964306e-05
219	0x38b1fcea	8.4871266e-05
220	0xb8ba8328	-8.893601e-05
221	0x38662203	5.486795e-05
222	0xb88ccd62	-6.713976e-05
223	0x372969fe	1.0097863e-05
224	0x315e6172	3.2360643e-09
225	0x386c6aac	5.636613e-05
226	0xb91b27ad	-0.00014796732
227	0x38f33e93	0.00011598798
228	0xb89389c7	-7.035169e-05
229	0x36a4606f	4.898807e-06
230	0xb8b1b391	-8.4734645e-05
231	0x382c9378	4.1145337e-05
232	0xb7d00b9e	-2.4800942e-05
233	0xb89df9b7	-7.5328564e-05
234	0x377b82ad	1.4991191e-05
235	0xb8244001	-3.9160255e-05
236	0xb861804d	-5.376367e-05
237	0xb85b8574	-5.2337957e-05
238	0x3888bc2b	6.5200344e-05
239	0xb6be0b66	-5.663768e-06
240	0x37f41ab3	2.90995e-05
241	0x3848b6d9	4.7854006e-05
242	0x385236ad	5.0118822e-05
243	0xb8ae2ea3	-8.305653e-05
244	0xb7c4cb6e	-2.345975e-05
245	0xb8f04ea3	-0.00011458739
246	0x381a9056	3.6850884e-05
247	0x37c30715	2.324911e-05
248	0x37f9865b	2.9745677e-05
249	0x3790c1a0	1.7256301e-05
250	0x38df91ca	0.00010660624
251	0xb89e13b9	-7.537701e-05
252	0x38549f1f	5.0692932e-05
253	0xb8911424	-6.91789e-05
254	0xb890d90e	-6.906885e-05
255	0x38ee2ccc	0.000113570684

exp_avg_sq f4 [21, 256]
0	0x32fdf671	2.9565145e-08
1	0x3385deb8	6.2338074e-08
2	0x3435f0e2	1.6944571e-07
3	0x3402375e	1.2127336e-07
4	0x3412d52e	1.3674864e-07
5	0x33897b9d	6.402045e-08
6	0x33dc67f3	1.02634566e-07
7	0x358245b6	9.706043e-07
8	0x337bd421	5.863342e-08
9	0x34d01057	3.8754908e-07
10	0x33263695	3.869953e-08
11	0x34c3daac	3.6480685e-07
12	0x342adc53	1.5912637e-07
13	0x33e73ee4	1.07682155e-07
14	0x33e152a0	1.04924084e-07
15	0x3359ec25	5.0739022e-08
16	0x33b7c69a	8.557727e-08
17	0x33d69021	9.9913684e-08
18	0x33ccab2f	9.5306284e-08
19	0x33c5972a	9.201024e-08
20	0x337375f9	5.6685142e-08
21	0x33290638	3.9354035e-08
22	0x33974762	7.04447e-08
23	0x339903d5	7.125315e-08
24	0x339e7591	7.3788335e-08
25	0x31d9e451	6.341488e-09
26	0x32af61ef	2.0417216e-08
27	0x334c18e7	4.75201e-08
28	0x32cba026	2.3705137e-08
29	0x33b0da46	8.2353424e-08
30	0x336d0e1a	5.5193688e-08
31	0x33c66271	9.238e-08
32	0x31b61575	5.2993365e-09
33	0x33243613	3.8233406e-08
34	0x3478e0b2	2.3178544e-07
35	0x341ef31e	1.4803342e-07
36	0x34c0d043	3.5914317e-07
37	0x33c93058	9.3685856e-08
38	0x338f6bae	6.678543e-08
39	0x33b3518a	8.350169e-08
40	0x32f9eab3	2.9094144e-08
41	0x33ec89c3	1.1014665e-07
42	0x337478bb	5.692048e-08
43	0x32bf2b0d	2.2254904e-08
44	0x336250e8	5.269331e-08
45	0x338bc158	6.507861e-08
46	0x341cca97	1.4602334e-07
47	0x33f06f03	1.1196064e-07
48	0x3340ab34	4.4859192e-08
49	0x33e25b53	1.0540557e-07
50	0x3318ab0d	3.5545828e-08
51	0x33284abe	3.9183526e-08
52	0x3411290a	1.3519107e-07
53	0x32e8dbfe	2.7108396e-08
54	0x32ece13b	2.7576439e-08
55	0x3448db94	1.8706334e-07
56	0x334f79f0	4.8306845e-08
57	0x3420e0c8	1.4982936e-07
58	0x32e6f954	2.6888905e-08
59	0x34135665	1.3721872e-07
60	0x33edf0b4	1.1079956e-07
61	0x337a4974	5.8274466e-08
62	0x32347e25	1.0506061e-08
63	0x3283bf7a	1.533748e-08
64	0x33f7f8ca	1.1547088e-07
65	0x35817bf1	9.647321e-07
66	0x32d7defd	2.5130698e-08
67	0x3380f09d	6.004232e-08
68	0x3358d268	5.0482782e-08
69	0x346a0774	2.179566e-07
70	0x334db9b3	4.7899174e-08
71	0x33d4ef7f	9.9155834e-08
72	0x33c33331	9.089707e-08
73	0x33252562	3.8451056e-08
74	0x3382adbc	6.085199e-08
75	0x338ee961	6.654842e-08
76	0x33b10e59	8.2448146e-08
77	0x33a00feb	7.453476e-08
78	0x3328f766	3.9340556e-08
79	0x33b21f32	8.294445e-08
80	0x33834c29	6.114016e-08
81	0x3483a09f	2.451752e-07
82	0x33421c3a	4.5194817e-08
83	0x33a67a71	7.752249e-08
84	0x31eaa4a6	6.8290147e-09
85	0x33eeddee	1.11231074e-07
86	0x3400590b	1.1953323e-07
87	0x3384e282	6.1879305e-08
88	0x3341696c	4.5032195e-08
89	0x33d8e254	1.0099453e-07
90	0x3369d101	5.4439628e-08
91	0x331fea31	3.7233068e-08
92	0x34e858aa	4.327788e-07
93	0x331ff770	3.7245115e-08
94	0x338dbbbf	6.599975e-08
95	0x3157b099	3.1387002e-09
96	0x25b1bbef	3.0831954e-16
97	0x331a31a2	3.590106e-08
98	0x33fa9d68	1.1670164e-07
99	0x349b1df9	2.8892808e-07
100	0x341496a6	1.383838e-07
101	0x33debca5	1.0371995e-07
102	0x33cbd2fe	9.4913034e-08
103	0x34d8b472	4.0364426e-07
104	0x33b34243	8.34739e-08
105	0x33c0fe59	8.986962e-08
106	0x332e5519	4.0589928e-08
107	0x346fe360	2.2341328e-07
108	0x33ce0c78	9.5948906e-08
109	0x3368c67f	5.419724e-08
110	0x3480afa4	2.3969653e-07
111	0x33a76a76	7.7959086e-08
112	0x31e3d85a	6.631166e-09
113	0x34010abc	1.2017966e-07
114	0x33436b57	4.54996e-08
115	0x33318608	4.1332925e-08
116	0x33d55eb9	9.9358154e-08
117	0x34801ca5	2.38627e-07
118	0x33426f94	4.5270625e-08
119	0x33172b0f	3.519659e-08
120	0x33089557	3.180079e-08
121	0x32af2dfd	2.0393594e-08
122	0x3455f614	1.9926694e-07
123	0x349888e1	2.84118e-07
124	0x3376295e	5.731396e-08
125	0x338e5e59	6.629552e-08
126	0x35153654	5.5585883e-07
127	0x342d79e8	1.615623e-07
128	0x33110f23	3.377421e-08
129	0x3397b91c	7.0651566e-08
130	0x3458eb2b	2.0202121e-07
131	0x33fe8eb5	1.1853755e-07
132	0x3425d10d	1.5442875e-07
133	0x33991874	7.129066e-08
134	0x33d9d62b	1.0143807e-07
135	0x358f5f81	1.0682126e-06
136	0x33743d8d	5.6866657e-08
137	0x34ebd32b	4.3925806e-07
138	0x3348112d	4.658175e-08
139	0x34d9cee8	4.0569944e-07
140	0x342858e2	1.5678555e-07
141	0x340850b7	1.2695351e-07
142	0x33f60a12	1.14570994e-07
143	0x338fb4e5	6.691861e-08
144	0x33c76208	9.2844914e-08
145	0x33e69712	1.0737689e-07
146	0x33b2f566	8.3334086e-08
147	0x34053c2a	1.2408478e-07
148	0x338ff2a1	6.70309e-08
149	0x3341c616	4.5116472e-08
150	0x33a5f06a	7.727142e-08
151	0x33b92694	8.621751e-08
152	0x33b81390	8.571726e-08
153	0x31d7abe9	6.2768675e-09
154	0x32ae575d	2.0295994e-08
155	0x336cd939	5.5145595e-08
156	0x32dd5ac6	2.5769065e-08
157	0x33b8eeda	8.6116145e-08
158	0x336b9500	5.4850716e-08
159	0x33dcc8cf	1.0281075e-07
160	0x31b533c8	5.27368e-09
161	0x333cdd42	4.3973394e-08
162	0x345af84a	2.0393159e-07
163	0x347058bc	2.2384023e-07
164	0x34b489c1	3.3627842e-07
165	0x33d7d00c	1.0049561e-07
166	0x33a0486a	7.4637526e-08
167	0x33c54526	9.1861054e-08
168	0x3302c1bc	3.0444184e-08
169	0x340b14bd	1.2952928e-07
170	0x3375ab5a	5.719935e-08
171	0x32d51646	2.4806592e-08
172	0x3369fb6d	5.447821e-08
173	0x3337f172	4.28276e-08
174	0x341f7dd0	1.4853799e-07
175	0x33e99682	1.0877285e-07
176	0x33548465	4.948051e-08
177	0x33a06371	7.468669e-08
178	0x331bcb48	3.6273633e-08
179	0x332400fa	3.8185114e-08
180	0x34212249	1.5006766e-07
181	0x330ee379	3.3268837e-08
182	0x32fc3337	2.9359951e-08
183	0x3467f91f	2.1604181e-07
184	0x337a7d6d	5.8321735e-08
185	0x3454bf6f	1.9813682e-07
186	0x32e8d9dd	2.7107427e-08
187	0x34336562	1.6707557e-07
188	0x340af50f	1.2941403e-07
189	0x33a57450	7.7045684e-08
190	0x322cc0d3	1.0055561e-08
191	0x3290a1af	1.6837332e-08
192	0x340cbfa0	1.3108229e-07
193	0x35935bd4	1.0979079e-06
194	0x330fe8a9	3.3506385e-08
195	0x33a34747	7.603244e-08
196	0x337c68bb	5.8768574e-08
197	0x346c15e4	2.1987177e-07
198	0x3363e0f1	5.305714e-08
199	0x33c6dfd0	9.260805e-08
200	0x33ca39a6	9.416844e-08
201	0x33296960	3.9444217e-08
202	0x338c7969	6.5413424e-08
203	0x338c68ea	6.538342e-08
204	0x3381a610	6.037237e-08
205	0x33a3d68f	7.629307e-08
206	0x332b5aee	3.989674e-08
207	0x33afa7e1	8.1796095e-08
208	0x33832ef6	6.108705e-08
209	0x349fe027	2.977915e-07
210	0x33412f5d	4.497939e-08
211	0x3411ed49	1.3590501e-07
212	0x31f0a57c	7.0037327e-09
213	0x340c9bed	1.3095242e-07
214	0x340e7599	1.3267562e-07
215	0x33983435	7.087548e-08
216	0x32a4dd13	1.9192646e-08
217	0x3419a836	1.431043e-07
218	0x334a8876	4.71559e-08
219	0x333c0c96	4.3783608e-08
220	0x3503027b	4.880491e-07
221	0x333f271f	4.4506233e-08
222	0x33a9915f	7.8961186e-08
223	0x315f38fd	3.2483165e-09
224	0x25b1bbef	3.0831954e-16
225	0x331c0a71	3.6331077e-08
226	0x33de1b65	1.03426636e-07
227	0x34aae4b4	3.183137e-07
228	0x342c202f	1.6030457e-07
229	0x3400bfb2	1.1990667e-07
230	0x33ee65a6	1.11012284e-07
231	0x34eeacab	4.4456587e-07
232	0x33b7c1e9	8.5568736e-08
233	0x33d07249	9.706543e-08
234	0x3348539b	4.6642167e-08
235	0x3488a8c9	2.545478e-07
236	0x33f94df9	1.1609149e-07
237	0x335d25b5	5.1489867e-08
238	0x3467e663	2.1597366e-07
239	0x339dff53	7.3573254e-08
240	0x31ee88c0	6.9422583e-09
241	0x342a0244	1.5833308e-07
242	0x333fb9fd	4.463981e-08
243	0x3334c2de	4.2086747e-08
244	0x3400e2d2	1.2003446e-07
245	0x349f200f	2.9639384e-07
246	0x3363c34f	5.303019e-08
247	0x3338066d	4.2846683e-08
248	0x331c35c6	3.6370487e-08
249	0x32b27dc2	2.0779115e-08
250	0x3477f444	2.3092531e-07
251	0x34bc5766	3.508132e-07
252	0x339cf496	7.308806e-08
253	0x33ab8a63	7.9879804e-08
254	0x35287635	6.275689e-07
255	0x343a4fcf	1.7351634e-07

exp_avg f4 [21]
0	0xb92d489a	-0.00016525612
1	0x393cc046	0.00018000705
2	0xb97123a2	-0.00022996825
3	0x37f35c69	2.901089e-05
4	0x3a60687c	0.0008560491
5	0xb99b8c1a	-0.00029668288
6	0x397b9da3	0.0002399595
7	0x38c40b7f	9.3481496e-05
8	0x3915fecb	0.00014304665
9	0xba1e1749	-0.00060306914
10	0xb9cc635c	-0.0003898394
11	0xb93d2198	-0.00018036959
12	0x372ba3a5	1.0230496e-05
13	0x360694bd	2.0054133e-06
14	0xb9715c48	-0.00023017928
15	0x3aa7ae5b	0.0012793051
16	0x3903bad5	0.00012562734
17	0x39830426	0.00024989358
18	0x3853bc43	5.0481653e-05
19	0xb8b8263c	-8.7809254e-05
20	0x39911586	0.0002767259

exp_avg_sq f4 [21]
0	0x3557d57f	8.040442e-07
1	0x361fc39d	2.3806708e-06
2	0x36082d9c	2.0292127e-06
3	0x3502df90	4.87541e-07
4	0x36e81994	6.9171165e-06
5	0x3666e5fd	3.4406542e-06
6	0x359e2e55	1.1785402e-06
7	0x36380816	2.7422843e-06
8	0x363941ff	2.7605563e-06
9	0x36bfd491	5.7169896e-06
10	0x35c214fc	1.4460234e-06
11	0x36409907	2.8699303e-06
12	0x34d55f0a	3.9743492e-07
13	0x35ae06ee	1.2966027e-06
14	0x362f70a6	2.6142602e-06
15	0x362e9729	2.6016007e-06
16	0x3634c6f6	2.69379e-06
17	0x35901ccb	1.0737216e-06
18	0x3676d9b0	3.6783567e-06
19	0x35c55019	1.4700955e-06
20	0x35b8b25c	1.3760978e-06
