best-checkpoint.pth (torch, 67351 bytes, 6 tensors)

fc1.weight f4 [21, 256]
000000 46 4f 12 be cc 7e ee 3d 80 81 e9 bc b9 60 29 bc
       -0.14288053 0.11645278 -0.028504133 -0.010338002
000010 79 c4 9d 3e 1d 46 0c 3e 7e 88 28 3e 75 11 02 be
       0.3081396 0.13698621 0.16458318 -0.12701972
000020 d0 a5 f3 be 64 69 01 bc 17 be 0c 3d 98 cc 22 bb
       -0.47587442 -0.007898662 0.03436097 -0.0024841186
000030 94 cf f1 3d 48 be 05 be 40 d7 e5 3d 52 0d 93 be
       0.118071705 -0.13060868 0.11222696 -0.287211
000040 d3 de 37 3e f8 f9 00 3e 1c 1d b9 bd 95 d8 89 3e
       0.17956094 0.12595356 -0.09038755 0.2692305
000050 06 c3 9a 3e e2 fd 36 be 3e a1 80 bb 5d fb a9 bd
       0.30226916 -0.17870286 -0.0039254716 -0.08299897
000060 5b 80 dc bd f7 e1 c6 3d aa 8c 07 3e ca dc 44 3d
       -0.10766669 0.09711068 0.13237253 0.048062123
000070 c7 e2 f1 3d 68 e2 a5 3d 5d 7b 0e 3e 5b 1c 37 be
       0.118108325 0.08099824 0.13914247 -0.1788191
000080 55 03 2f 3e 7c db 5d be 1b df 93 3d 86 da c8 3d
       0.17091115 -0.21665758 0.07220288 0.09807305
000090 64 6d 57 3e 68 cf 94 3e a3 19 31 bd 79 df 4d be
       0.21037823 0.29064488 -0.04323734 -0.2010478
0000a0 a9 be 1b be 68 c8 12 3d 8d 6a a2 3d 30 09 28 be
       -0.1520945 0.035835654 0.07930479 -0.16409755
0000b0 ce e3 d1 bd 19 45 44 ba e2 2e 05 3d 49 a2 17 3e
       -0.102485284 -0.0007487103 0.032515414 0.14808
0000c0 9d 2f f1 3b 16 59 29 3d be b9 20 3c 9f 0a 12 3c
       0.0073604123 0.041344725 0.009809909 0.008913665
0000d0 77 6b f3 bc a2 84 8f bd 36 2d 8e be 0b 51 69 bd
       -0.02971433 -0.070077196 -0.27768868 -0.056962054
0000e0 c7 10 66 be 06 b2 83 3e 46 b2 6f bd 42 fb 75 3c
       -0.22467338 0.2572176 -0.058519624 0.015013518
0000f0 c6 5d 2e bd 91 05 62 bd 51 90 bf 3d c9 59 9c 3d
       -0.042569898 -0.05518109 0.09353698 0.07634313
000100 80 3f 1c 3e 43 64 14 bc 6d 90 80 3e eb 7b 73 3c
       0.15258598 -0.009057107 0.25110188 0.014861087
000110 48 0d b7 3e 55 be f9 bd cb 97 3c be a1 0d 0f 3e
       0.3575232 -0.12194506 -0.1841728 0.13970043
000120 a8 68 db bd 3d a1 34 3d 24 ed c6 3d 35 89 a5 3c
       -0.10713321 0.04409908 0.097132 0.020207027
000130 20 86 1e be e7 31 24 3c 63 4b df 3d 6f 30 ae 3d
       -0.15480852 0.010021663 0.10903051 0.08505332
000140 1c 15 1a 3e 4a a5 f3 bd 6e 27 f4 3c 22 7d 38 3e
       0.15047115 -0.11896761 0.029803958 0.18016484
000150 67 50 2e bd 69 9b 11 be 2b 16 a9 3e 79 e8 c8 3d
       -0.042557146 -0.1421944 0.33024725 0.09809966
000160 d8 c6 19 be 33 95 f1 3d a2 d4 81 3e 28 ed c7 bc
       -0.15017259 0.117960356 0.25357538 -0.024405077
000170 90 39 ab bd 7c dd 02 be 41 a1 71 be ef 28 8a 3d
       -0.083605886 -0.12779802 -0.2359667 0.06746089
000180 1c 4e 81 3e 39 27 13 3d fe 4e e3 bd 87 06 d2 3d
       0.25254905 0.035926078 -0.11099051 0.10255151
000190 09 ca bb 3d bb 45 66 bd 3a 80 fa bd dc fb 03 bd
       0.091693945 -0.056218844 -0.122314885 -0.032222614
0001a0 06 73 19 be 46 95 78 3e ce d4 9e be 94 d6 3c bd
       -0.14985284 0.24275693 -0.31021732 -0.046103075
0001b0 ce eb 3e be fc 6f a4 be 7f 75 21 bd 01 26 6a 3d
       -0.1864464 -0.32116687 -0.039418694 0.05716515
0001c0 67 72 95 3d ab f4 81 3d da 7b ea 3d a0 0e b8 bd
       0.07297211 0.06345495 0.11449404 -0.089871645
0001d0 a7 31 ed 3c 04 8d ab 3c db 08 2e bd 33 7b 29 be
       0.02895434 0.020941265 -0.042488914 -0.16550903
0001e0 7d ba 23 3d 6f 8d 83 be 70 01 8b 3b 69 9a 91 bd
       0.03997277 -0.25693843 0.0042421147 -0.071095295
0001f0 c6 8b a2 3e 72 8f 52 3e f4 ff bc 3c 25 d4 93 3d
       0.31747264 0.20562533 0.023071267 0.07218198
000200 c4 5a 1b be c1 87 92 3e 2f 8a 82 3c 5a e0 a4 bd
       -0.15171343 0.28619197 0.015935032 -0.08050604
000210 5e 3d 93 3e 74 a2 aa 3d 46 0d 59 3d 31 d6 1e be
       0.28757757 0.08331767 0.052991174 -0.15511395
000220 aa 36 e8 be bf 14 82 bd 39 db 90 3d cc c3 c4 bd
       -0.45354205 -0.06351613 0.070730634 -0.09607658
000230 fc d4 4e 3e 5d ec 19 be 18 e2 59 3e e3 a1 24 bd
       0.20198435 -0.15031572 0.21277654 -0.04019345
000240 3c b6 45 3e 9c f2 0a 3e 7f 80 da bc da 91 1b 3e
       0.19307798 0.1356911 -0.0266726 0.15192357
000250 4c 8d 9a 3e 6a b0 1f be 40 b0 31 3d d3 fd b4 3c
       0.30185926 -0.1559464 0.043380976 0.02209369
000260 87 8e 71 bd 1e b9 2d 3e d2 2b fe 3d a2 c1 a3 bd
       -0.058973815 0.16965148 0.12410702 -0.07995917
000270 e6 dd 3d 3e 58 8b 71 3d be 2d 0d 3e 87 8b 24 be
       0.18541679 0.05897078 0.1378698 -0.1606885
000280 dd aa ac 3d 42 d7 88 be ef 38 21 3d 83 5f 24 3e
       0.08431027 -0.2672673 0.039360937 0.1605206
000290 65 5c 32 3e bb bb 90 3e 2a 77 f8 3c 20 62 37 be
       0.17418058 0.28268227 0.03033026 -0.17908525
0002a0 22 c7 ca bd 84 45 57 3d c6 bf f8 3c 54 68 9d bd
       -0.09901263 0.05255653 0.030364882 -0.07685915
0002b0 23 02 48 bc ac 60 ee 3d 9a 56 db 3d 87 7d 9a 3d
       -0.012207541 0.116395324 0.10709877 0.07543474
0002c0 6f 79 0d bd b3 d5 a2 3e 07 f2 29 3d 99 78 82 bb
       -0.034539636 0.31803665 0.04149058 -0.0039816615
0002d0 fe b9 fa 3c 38 6c ce bd 15 94 50 be b8 f5 66 bc
       0.030606266 -0.10079235 -0.20368989 -0.01409667
0002e0 3e ce 0c be a3 3c 73 3e 1f 77 a3 bd 40 b0 7c 38
       -0.1375055 0.237536 -0.07981705 6.0245628e-05
0002f0 93 3c 57 3d 1e f1 70 3c 9b 1c cc bc c9 24 e8 3c
       0.052548002 0.014705924 -0.024915984 0.028337853
000300 32 57 a6 3d 78 e4 a8 3c 76 b0 5c 3e 01 c2 6f 3c
       0.081221 0.020616755 0.2155169 0.0146336565
000310 0e 10 a4 3e 3f 4e fb bd 84 f7 08 be a0 7d 76 3e
       0.320435 -0.12270784 -0.1337567 0.2407136
000320 cd bd eb bd 4e 3a 06 b9 5f ef 79 3d 4f e0 65 3d
       -0.11510811 -0.00012800956 0.061019298 0.05612212
000330 36 9b 24 be ef 66 6b 3d 54 ee d3 3d e8 50 26 bc
       -0.16074833 0.057471212 0.10348192 -0.0101511255
000340 d7 8d 37 3e 40 9d 84 bd 23 14 f1 bc 7e 93 51 3e
       0.17925201 -0.064753056 -0.029428547 0.2046642
000350 2b a5 06 bb 43 90 64 be cf 39 89 3e b5 77 35 3e
       -0.0020545225 -0.22320656 0.26801917 0.17721446
000360 f5 fa 50 3e 51 cd 89 3d 8c 78 b7 3e 06 4c 93 bd
       0.20408233 0.06728614 0.35834157 -0.07192235
000370 c0 c4 0e be 2b 4a 03 bd bc 7c 70 be b6 f1 ff 3d
       -0.13942242 -0.032053154 -0.23485082 0.124972746
000380 2e c3 81 3e 3b 77 73 3c 1c 71 21 ba 13 3b 45 3e
       0.25344223 0.01485997 -0.0006158517 0.19260816
000390 6a 12 99 3c 30 2c 05 bd 3f a4 21 be 44 fa c9 bb
       0.018685538 -0.032512844 -0.15785311 -0.006163867
0003a0 e7 f1 1f be af 3d 38 3e ed 70 57 be 0f cb 62 bd
       -0.15619622 0.1799228 -0.21039172 -0.055369433
0003b0 85 c9 5c be 06 67 81 be 3c 48 0a be d5 83 fb 3c
       -0.21561249 -0.25273913 -0.13504118 0.03070251
0003c0 8a 3d 74 3d 6d 4b 01 3e c9 8c db 3d 10 c0 9e bd
       0.059629 0.12626429 0.10720212 -0.07751477
0003d0 b6 4a be 3d 91 c1 da bd a1 44 0e 3c 38 f3 58 be
       0.09291594 -0.10681451 0.008683355 -0.2118653
0003e0 3e 11 e2 bd 4c d6 9c be 75 d1 77 bd df a2 ff bd
       -0.11038445 -0.30632246 -0.06050249 -0.12482237
0003f0 0c 7e 6b 3e 58 e7 56 3e 4e d0 64 3d 1e a7 2f 3d
       0.22997302 0.20986688 0.055862717 0.042883985

fc1.bias f4 [21]
000000 f1 62 59 be fc d0 78 be e2 a6 21 be e7 5b 6a be
       -0.2122915 -0.24298471 -0.15786317 -0.2288662
000010 7e e4 59 be 67 e9 93 be 03 69 90 be ff f4 6f be
       -0.21278569 -0.2888901 -0.28205118 -0.23433302
000020 5a 12 2b be 09 1c 69 be b9 48 12 be 5a 89 35 be
       -0.1670622 -0.22764601 -0.14285554 -0.17728177
000030 98 47 86 be 3f 26 9a be 9d e2 32 be 0d b6 93 be
       -0.26226497 -0.30107304 -0.17469259 -0.2884983
000040 62 69 50 be db f8 7c be de cd 43 be 33 54 81 be
       -0.203527 -0.24704306 -0.19121501 -0.2525955
000050 6b 1c ae be
       -0.34006056

exp_avg f4 [21, 256]
000000 16 3a 95 b6 2a 69 01 38 ca 20 cc 38 21 5e 77 38
       -4.447308e-06 3.085394e-05 9.7335855e-05 5.8977053e-05
000010 b6 d4 d3 b8 b1 ec c8 b8 2b e0 a3 b8 44 17 a2 39
       -0.000101008845 -9.5808304e-05 -7.8142e-05 0.00030916382
000020 7c a9 73 38 3b 32 35 39 a8 cf 44 b8 29 8e 34 39
       5.809356e-05 0.00017280217 -4.6923436e-05 0.00017219096
000030 d7 e5 0a b9 51 64 62 38 ab 31 e5 b8 d9 62 0f b8
       -0.00013246328 5.3976026e-05 -0.00010928822 -3.4185916e-05
000040 dc 9b ae b8 2a 3b c7 b8 fb 41 84 38 aa f2 ca 37
       -8.3259976e-05 -9.5000796e-05 6.30654e-05 2.4193276e-05
000050 63 80 f9 37 6a 47 46 38 da 31 35 38 7c 46 0b 38
       2.9742898e-05 4.727339e-05 4.320019e-05 3.3205826e-05
000060 13 4a 2e 38 32 09 fc b7 e3 fa 5e b8 8b e1 c2 b3
       4.155382e-05 -3.0045023e-05 -5.316258e-05 -9.074855e-08
000070 da 05 90 b7 8e ff c4 b6 20 b1 9c b8 07 cf d5 37
       -1.7168863e-05 -5.8710057e-06 -7.471652e-05 2.5487983e-05
000080 5b de d6 b7 79 85 e2 36 28 6d ff 38 e0 46 03 b9
       -2.561433e-05 6.750863e-06 0.000121796795 -0.00012519537
000090 ed 93 74 b9 53 04 8a 37 d6 6a 5e b7 73 ff 84 38
       -0.0002332476 1.6452896e-05 -1.3257106e-05 6.3418316e-05
0000a0 45 4d 8f 37 58 08 cd b8 73 4c 18 b8 fa 14 19 b8
       1.708291e-05 -9.776716e-05 -3.6310823e-05 -3.649758e-05
0000b0 48 dc 58 b8 25 13 ac 37 bd 6f f8 b8 0c 19 e3 b8
       -5.1703566e-05 2.0512913e-05 -0.000118463744 -0.00010828869
0000c0 cf 8a 90 33 67 c6 0d 38 7c 52 af b7 55 e1 00 b8
       6.730772e-08 3.3801796e-05 -2.0900035e-05 -3.0727435e-05
0000d0 9b 32 46 38 09 a9 3c 37 f0 e7 c7 35 42 70 c4 38
       4.725401e-05 1.124503e-05 1.4894158e-06 9.366918e-05
0000e0 d3 ca cb 37 85 79 fa b8 5e 60 4c b8 68 72 a6 38
       2.4293933e-05 -0.00011943564 -4.872714e-05 7.936807e-05
0000f0 26 9a b7 b8 8a b7 e9 b7 9d e3 14 b8 6a b6 ed b7
       -8.7548324e-05 -2.7861232e-05 -3.549793e-05 -2.8337545e-05
000100 48 59 dc b8 31 8c 9a 39 da d1 9c b7 0a f3 bb 37
       -0.000105070474 0.0002947762 -1.8694369e-05 2.2405311e-05
000110 c4 2f 2e 37 d5 31 30 39 db 39 d6 36 2d dd aa b8
       1.03823295e-05 0.00016803232 6.3844323e-06 -8.147429e-05
000120 73 89 b2 38 8d 3a cd b7 bb de 49 b8 cb f8 81 b8
       8.513303e-05 -2.446517e-05 -4.812957e-05 -6.197541e-05
000130 84 68 2f 37 b0 36 67 b8 e0 21 50 b8 16 5c be b7
       1.0455147e-05 -5.5125623e-05 -4.9622613e-05 -2.2692646e-05
000140 4f 89 91 b8 56 cd 10 39 5c 29 40 b8 af 55 89 b8
       -6.9397145e-05 0.00013809404 -4.5814886e-05 -6.548629e-05
000150 8c 35 8f b7 cf 2f ea 37 dd df e5 b8 d0 83 37 b8
       -1.7071863e-05 2.7917236e-05 -0.00010961269 -4.375336e-05
000160 d7 ef 3f 37 b5 66 d0 b8 e4 dc b4 b7 6b 93 7f b8
       1.1440329e-05 -9.9373436e-05 -2.1560532e-05 -6.093403e-05
000170 23 be 37 39 ff 70 59 b8 d4 f3 cb 37 ef 07 86 b7
       0.00017523071 -5.1842067e-05 2.4313027e-05 -1.597774e-05
000180 47 6a ec b1 c3 3c 4e b8 6b e0 45 38 f9 9b 4e b9
       -6.8805863e-09 -4.9170816e-05 4.7177466e-05 -0.00019703795
000190 0b 0f 7e 38 90 75 6e 38 3e 45 d7 37 fa a2 65 39
       6.057233e-05 5.685311e-05 2.566224e-05 0.00021899855
0001a0 b1 f8 8f 38 b5 fb 0c 38 40 d3 b1 36 d7 4c a7 38
       6.865094e-05 3.361302e-05 5.299604e-06 7.977493e-05
0001b0 61 56 4c 38 de 9e 9e b7 2c 5b 0c 39 28 5d 18 b8
       4.8717837e-05 -1.8909046e-05 0.00013385405 -3.6326383e-05
0001c0 42 2c a9 b7 ee 53 b2 b8 53 12 90 b8 b4 e3 53 b8
       -2.0166979e-05 -8.5033345e-05 -6.869868e-05 -5.0518385e-05
0001d0 97 d2 39 38 67 ae e8 38 72 c6 05 38 7b 84 eb 36
       4.4303564e-05 0.00011095107 3.1894488e-05 7.0189685e-06
0001e0 f4 b6 a8 b7 36 fe 68 b7 53 f2 01 b9 5e da 01 39
       -2.0112355e-05 -1.3887466e-05 -0.00012392671 0.00012383747
0001f0 4c e6 ae b8 53 d5 27 37 6d f5 49 39 a0 ed 01 b9
       -8.339863e-05 1.0003644e-05 0.00019260282 -0.00012390921
000200 61 2a 88 35 38 25 b2 35 aa 40 db 38 e1 42 60 38
       1.0145123e-06 1.3272866e-06 0.000104547784 5.3468048e-05
000210 2a b8 d6 b8 97 3e cb b8 84 cc 96 b8 a4 a9 ae 39
       -0.000102386184 -9.6914526e-05 -7.1906514e-05 0.00033314258
000220 84 23 52 38 66 be 49 39 5b af 3d b8 b1 cb 4a 39
       5.0100978e-05 0.00019239783 -4.5224424e-05 0.00019340102
000230 ad a9 09 b9 73 bf 64 38 63 9d f7 b8 71 c3 80 b8
       -0.00013128547 5.4537737e-05 -0.000118071934 -6.1399194e-05
000240 36 d4 a5 b8 d3 41 ce b8 86 d1 15 38 01 e8 31 38
       -7.9073405e-05 -9.835106e-05 3.5719502e-05 4.241616e-05
000250 82 a0 c4 37 96 d4 6b 38 59 00 50 38 25 b4 4a 38
       2.3439763e-05 5.6226352e-05 4.959139e-05 4.8328326e-05
000260 3b 04 51 38 db 80 f4 b7 1a de 5d b8 4c 54 5a 37
       4.9833423e-05 -2.914707e-05 -5.2897354e-05 1.30134395e-05
000270 70 fc 5a b7 70 ac 3f 36 7a 8d 95 b8 73 2f f5 37
       -1.3052588e-05 2.856159e-06 -7.131226e-05 2.9228371e-05
000280 15 59 ce b7 fa de 67 37 4d a7 dc 38 e3 98 32 b9
       -2.4598596e-05 1.3820589e-05 0.0001052158 -0.00017032358
000290 f0 5d 6c b9 93 89 86 37 fa 93 ca b7 cd a1 9d 38
       -0.00022541708 1.6038108e-05 -2.4149183e-05 7.516481e-05
0002a0 c8 b5 88 37 ec 46 e7 b8 22 c0 01 b8 15 b4 3a b8
       1.6297112e-05 -0.000110281486 -3.0934934e-05 -4.451357e-05
0002b0 66 a5 56 b8 2f 17 ca 35 40 ab ff b8 3f 16 dd b8
       -5.1175615e-05 1.505692e-06 -0.00012191245 -0.00010542245
0002c0 8d 3a 48 36 53 6c b7 b6 ca c3 db b7 64 18 e3 b7
       2.9836403e-06 -5.4664356e-06 -2.6198006e-05 -2.7071866e-05
0002d0 77 a2 4d 38 70 03 b5 37 1d 6f 03 37 f1 17 e8 38
       4.9027116e-05 2.1578482e-05 7.834079e-06 0.000110670815
0002e0 bb 93 65 b2 6a aa 19 b9 d8 b0 5f b8 66 b3 bc 38
       -1.3363144e-08 -0.00014654701 -5.333204e-05 8.997954e-05
0002f0 69 a9 eb b8 55 9e 48 b8 e1 34 08 b8 f5 cc be b7
       -0.00011237228 -4.7831174e-05 -3.2474174e-05 -2.2745206e-05
000300 75 d2 e4 b8 06 07 aa 39 f0 02 fc b7 48 a7 d3 37
       -0.00010911088 0.0003243016 -3.0042109e-05 2.5231056e-05
000310 8a 35 d0 37 be 27 2a 39 b2 7d 05 37 eb ce 9f b8
       2.4820463e-05 0.00016227268 7.9566835e-06 -7.620252e-05
000320 cf cf c3 38 c9 9d a5 b7 0a 9f 4c b8 73 06 68 b8
       9.337032e-05 -1.9743007e-05 -4.8785507e-05 -5.5319117e-05
000330 23 50 95 b6 81 cc 74 b8 e4 da 33 b8 ee 2a 58 b7
       -4.449875e-06 -5.8364592e-05 -4.2880783e-05 -1.2884599e-05
000340 89 c6 8c b8 ed 03 26 39 a1 5a 19 b8 20 d5 e0 b8
       -6.7127e-05 0.00015832456 -3.6562447e-05 -0.0001072085
000350 95 5e 87 b7 47 5a e0 37 4d 59 f1 b8 5c 55 f9 b7
       -1.6137297e-05 2.674492e-05 -0.00011508409 -2.9722862e-05
000360 6f 70 90 b7 74 30 05 b9 e4 f0 23 b8 34 84 92 b8
       -1.7218494e-05 -0.00012701919 -3.9086575e-05 -6.986447e-05
000370 15 59 58 39 94 7c 85 b8 0c 31 1c 38 84 ed 6d b7
       0.00020632551 -6.365139e-05 3.7238977e-05 -1.4181602e-05
000380 47 6a ec b1 94 1e 3f b8 15 19 37 38 9b e0 5c b9
       -6.8805863e-09 -4.5566427e-05 4.365396e-05 -0.00021064507
000390 02 c4 88 38 34 c9 82 38 71 fa 0c 38 2d 17 6d 39
       6.521495e-05 6.23636e-05 3.3611843e-05 0.00022610715
0003a0 ab b6 93 38 c9 d7 3e 38 9f 8a 4a 37 77 41 c4 38
       7.043531e-05 4.5500496e-05 1.20724135e-05 9.358202e-05
0003b0 3b 03 76 38 bb c7 9d b7 8c 2b f2 38 0e e8 29 b8
       5.865398e-05 -1.8808865e-05 0.000115475705 -4.0508858e-05
0003c0 67 6c 97 b7 8d 36 de b8 91 73 8e b8 df b7 3d b8
       -1.8051081e-05 -0.00010595946 -6.7926136e-05 -4.5232355e-05
0003d0 df 3d 52 38 65 6b 13 39 32 35 48 38 64 5d 25 37
       5.0125524e-05 0.0001405902 4.7733258e-05 9.856511e-06
0003e0 79 ef 34 b7 6c 5c 57 b7 b5 99 0f b9 fb 25 17 39
       -1.0784593e-05 -1.2836517e-05 -0.00013694803 0.00014414631
0003f0 48 db c6 b8 3f f6 9f 37 e7 23 67 39 f1 fe 07 b9
       -9.48222e-05 1.9068944e-05 0.00022043251 -0.00012969576

exp_avg_sq f4 [21, 256]
000000 72 32 09 33 c7 6d 8c 33 68 89 30 34 b2 c3 f5 33
       3.1943678e-08 6.5392264e-08 1.6441265e-07 1.1444298e-07
000010 ec fa 0d 34 08 98 8c 33 43 43 d3 33 8e 60 79 35
       1.3222933e-07 6.546912e-08 9.837688e-08 9.2900234e-07
000020 3e f4 7d 33 cc 44 bc 34 64 79 15 33 00 6a b5 34
       5.912829e-08 3.5067785e-07 3.480217e-08 3.3791002e-07
000030 28 81 29 34 85 85 ed 33 87 e6 dc 33 7a 30 62 33
       1.5786338e-07 1.10604596e-07 1.0286481e-07 5.2663815e-08
000040 fc c1 be 33 bf eb d7 33 d6 c3 c6 33 af 21 bf 33
       8.88285e-08 1.00545996e-07 9.255716e-08 8.9002576e-08
000050 91 2d 6f 33 3e 59 1c 33 a5 77 9f 33 7a cb 98 33
       5.5687966e-08 3.6402746e-08 7.425778e-08 7.115064e-08
000060 2d 87 95 33 f7 12 da 31 03 8a af 32 98 0b 45 33
       6.9629415e-08 6.346791e-09 2.0435442e-08 4.587818e-08
000070 07 c2 c4 32 ea f7 a2 33 c0 43 71 33 34 50 d7 33
       2.2905636e-08 7.588808e-08 5.6173803e-08 1.00263065e-07
000080 f8 2c b5 31 be e7 26 33 bc 51 6e 34 13 43 1d 34
       5.2729057e-09 3.8860655e-08 2.2195212e-07 1.4646166e-07
000090 86 43 bd 34 12 db d1 33 74 44 8e 33 4e 39 a6 33
       3.5253123e-07 9.7721696e-08 6.624842e-08 7.740401e-08
0000a0 4f df f4 32 3b 65 ed 33 33 8b 73 33 70 e8 b8 32
       2.8506888e-08 1.1054586e-07 5.6704447e-08 2.152612e-08
0000b0 36 d2 5d 33 64 45 95 33 b8 01 17 34 c5 ed f1 33
       5.1646758e-08 6.950975e-08 1.4063596e-07 1.1265687e-07
0000c0 dd 3a 38 33 62 34 e2 33 b7 c2 17 33 e6 2b 22 33
       4.2894374e-08 1.05334735e-07 3.533452e-08 3.775849e-08
0000d0 4e 6c 18 34 fd 76 d7 32 21 0b e4 32 d4 6f 3c 34
       1.4195504e-07 2.5083404e-08 2.6547754e-08 1.7549547e-07
0000e0 92 42 45 33 ac 1d 18 34 8d c1 dd 32 65 28 0f 34
       4.5928182e-08 1.4166898e-07 2.5815803e-08 1.3332608e-07
0000f0 0c 59 ea 33 ae 4f 80 33 e1 ec 32 32 b1 18 7f 32
       1.0912672e-07 5.974958e-08 1.0414824e-08 1.4848568e-08
000100 60 cd f6 33 d0 1f 79 35 c6 7e d8 32 b8 a8 83 33
       1.1492625e-07 9.280602e-07 2.520336e-08 6.1308526e-08
000110 71 c8 43 33 7a 2f 51 34 24 54 59 33 ce cb ba 33
       4.5584276e-08 1.9481914e-07 5.0600775e-08 8.698372e-08
000120 e3 a5 cb 33 50 0b 0e 33 89 8a 80 33 41 19 85 33
       9.483099e-08 3.307224e-08 5.985664e-08 6.197889e-08
000130 5d 09 b0 33 bc 89 99 33 24 27 1f 33 07 81 bb 33
       8.197342e-08 7.1496714e-08 3.705567e-08 8.731336e-08
000140 47 a6 8b 33 c7 68 83 34 c9 15 51 33 ee ba aa 33
       6.5029376e-08 2.4476887e-07 4.8681418e-08 7.950244e-08
000150 ed af f0 31 f0 48 ec 33 bb 96 fb 33 99 4b 72 33
       7.0049198e-09 1.10028736e-07 1.1715516e-07 5.641377e-08
000160 b5 79 43 33 e3 02 e0 33 84 68 6d 33 7e 97 28 33
       4.5512667e-08 1.0431338e-07 5.527592e-08 3.925333e-08
000170 f5 c0 f0 34 4b 48 14 33 08 52 8b 33 16 6d 70 31
       4.4843878e-07 3.4524685e-08 6.487613e-08 3.4986605e-09
000180 b3 85 b2 25 c8 b2 16 33 ad c9 f6 33 27 47 99 34
       3.0968676e-16 3.5087197e-08 1.1491952e-07 2.855024e-07
000190 a3 a4 05 34 6e 1c e3 33 db 2d d5 33 b9 79 c7 34
       1.2446485e-07 1.05756826e-07 9.9269265e-08 3.7155203e-07
0001a0 2f eb af 33 c5 f8 c0 33 06 a6 25 33 95 9d 68 34
       8.191852e-08 8.9859476e-08 3.8568054e-08 2.1664012e-07
0001b0 d5 76 c4 33 99 28 7c 33 ef a7 6f 34 59 9e a1 33
       9.148577e-08 5.8710246e-08 2.2319703e-07 7.52595e-08
0001c0 7d 72 d7 31 9e 05 00 34 f1 9a 3c 33 b3 41 2a 33
       6.2703394e-09 1.1922972e-07 4.391308e-08 3.9640963e-08
0001d0 45 26 d5 33 da 81 8b 34 cd 64 40 33 24 19 2c 33
       9.9255466e-08 2.5985247e-07 4.479516e-08 4.0069736e-08
0001e0 21 db 10 33 04 79 a3 32 6c 12 52 34 ba d0 99 34
       3.372691e-08 1.9030729e-08 1.9564476e-07 2.865034e-07
0001f0 6d 96 79 33 e6 95 92 33 1e a0 0e 35 8e db 2f 34
       5.811164e-08 6.825921e-08 5.3132123e-07 1.6378019e-07
000200 07 9e 1c 33 eb 71 a4 33 59 d4 4f 34 f4 d9 ec 33
       3.6465305e-08 7.657567e-08 1.9355629e-07 1.1029252e-07
000210 d4 60 1f 34 0f f4 9b 33 b8 be d0 33 ce 7c 89 35
       1.4843255e-07 7.262144e-08 9.720446e-08 1.0243618e-06
000220 75 c3 6b 33 09 c5 d4 34 9c 1f 3a 33 1e 66 ca 34
       5.489297e-08 3.963144e-07 4.333525e-08 3.7699732e-07
000230 14 94 25 34 5e f0 0b 34 04 81 f3 33 66 1b 8b 33
       1.5420693e-07 1.3032829e-07 1.1339037e-07 6.4776756e-08
000240 cd f8 d1 33 cc 18 e9 33 41 6b a8 33 5e f9 fe 33
       9.7775775e-08 1.08544185e-07 7.842619e-08 1.1873156e-07
000250 b0 e5 8b 33 86 11 35 33 bc 87 ad 33 84 ae b8 33
       6.514472e-08 4.2158284e-08 8.08063e-08 8.599912e-08
000260 e9 e1 ad 33 6f 4a d7 31 9e 4c ae 32 be c0 6c 33
       8.097033e-08 6.2657857e-09 2.0291107e-08 5.512333e-08
000270 23 f2 d9 32 39 d2 ac 33 77 5f 6a 33 01 93 ee 33
       2.5372236e-08 8.0476134e-08 5.4569195e-08 1.11094785e-07
000280 1c fb b1 31 6d 59 3d 33 41 be 51 34 a7 72 6c 34
       5.179926e-09 4.4086324e-08 1.9533856e-07 2.2020923e-07
000290 ba 45 b1 34 4d d8 df 33 ae 0e 9f 33 f8 03 b8 33
       3.3019552e-07 1.04235916e-07 7.406685e-08 8.5688896e-08
0002a0 b5 3b ff 32 85 1a 0c 34 8f fa 72 33 f3 39 ce 32
       2.9713059e-08 1.3048164e-07 5.6572897e-08 2.4007909e-08
0002b0 b6 15 68 33 d7 aa 41 33 88 7e 18 34 ec 0a eb 33
       5.4036455e-08 4.5091692e-08 1.4202135e-07 1.0945027e-07
0002c0 f5 d0 4e 33 4f 13 a0 33 a4 f8 1a 33 58 55 1e 33
       4.8153158e-08 7.454093e-08 3.6082056e-08 3.686486e-08
0002d0 84 72 28 34 9e c1 04 33 94 cd f6 32 97 5e 58 34
       1.568788e-07 3.090974e-08 2.8731655e-08 2.0150979e-07
0002e0 70 5b 68 33 b5 70 49 34 c5 57 df 32 15 da 2e 34
       5.409987e-08 1.8760586e-07 2.600053e-08 1.628435e-07
0002f0 67 12 08 34 0f 5b 9f 33 18 e3 2a 32 92 4a 8c 32
       1.2672682e-07 7.420578e-08 9.9469375e-09 1.6332056e-08
000300 e8 89 0d 34 6d 04 8e 35 9e 36 10 33 10 86 a7 33
       1.3181818e-07 1.0581113e-06 3.3577287e-08 7.800929e-08
000310 bd c8 6b 33 24 a8 51 34 e7 c0 71 33 6c bd ad 33
       5.489777e-08 1.9525811e-07 5.628763e-08 8.090396e-08
000320 34 d9 d3 33 52 02 12 33 3a d7 88 33 27 bf 7f 33
       9.864962e-08 3.3995384e-08 6.372143e-08 5.9545666e-08
000330 f4 86 77 33 57 92 9d 33 c9 3e 22 33 62 2e b4 33
       5.7631908e-08 7.337501e-08 3.7775667e-08 8.39034e-08
000340 89 62 8c 33 10 b3 a0 34 a2 7e 50 33 0b 83 10 34
       6.5371815e-08 2.9932608e-07 4.8543946e-08 1.3458718e-07
000350 ea 5d f4 31 75 66 0a 34 6e 8e 0a 34 33 30 86 33
       7.1120114e-09 1.2889525e-07 1.2904067e-07 6.2486286e-08
000360 d9 dc a2 32 d5 45 1f 34 27 c6 4e 33 de cc 44 33
       1.8959712e-08 1.4833434e-07 4.814333e-08 4.5821132e-08
000370 15 9a 08 35 ad 9e 36 33 37 69 a7 33 c7 29 75 31
       5.0888167e-07 4.2519492e-08 7.795682e-08 3.567594e-09
000380 b3 85 b2 25 8f 17 17 33 a8 a5 d8 33 d1 27 a9 34
       3.0968676e-16 3.5178854e-08 1.00884165e-07 3.1507673e-07
000390 6b a4 1c 34 cb 1e 02 34 cc f4 f8 33 3a 35 df 34
       1.4588447e-07 1.2118396e-07 1.1592928e-07 4.1575714e-07
0003a0 64 e6 b4 33 85 fe d4 33 c9 61 3c 33 d9 5e 84 34
       8.423811e-08 9.918316e-08 4.3861096e-08 2.4655927e-07
0003b0 7d b5 ed 33 52 f6 74 33 ac 15 58 34 d0 e8 94 33
       1.1069185e-07 5.7034704e-08 2.0124452e-07 6.9341354e-08
0003c0 dd c8 df 31 2e b4 29 34 ac c9 39 33 3c 6d 2f 33
       6.5129897e-09 1.58049e-07 4.325709e-08 4.084471e-08
0003d0 ad 5d 01 34 e7 c5 ab 34 17 ae 64 33 df a2 4e 33
       1.204814e-07 3.1995225e-07 5.324372e-08 4.8111243e-08
0003e0 0a 6b 23 33 c0 eb a6 32 16 13 70 34 f3 7d bd 34
       3.8048746e-08 1.943215e-08 2.2358685e-07 3.5295633e-07
0003f0 f6 7d 9d 33 93 b3 ad 33 c1 e0 21 35 27 af 3a 34
       7.3337944e-08 8.0886046e-08 6.0304234e-07 1.738632e-07

exp_avg f4 [21]
000000 24 38 b8 39 8b 0b 91 39 96 94 2b 3a e0 1b 4a b8
       0.00035137043 0.00027665155 0.00065452734 -4.8186514e-05
000010 96 2d 77 3a db f3 90 39 8a d0 67 39 a7 1d c3 b9
       0.0009429095 0.00027647507 0.00022107564 -0.0003721539
000020 ed cf 30 ba 6d 95 27 ba 9d 56 e3 38 9a 4c ab b8
       -0.00067448505 -0.00063928106 0.000108403365 -8.1681836e-05
000030 2c 9d 5b 39 da bc 96 b9 65 4d 35 b9 59 b2 95 3b
       0.00020944019 -0.00028750935 -0.00017290337 0.00456838
000040 5e 95 72 39 51 5c 22 b9 9e fb b6 b8 b9 8d 05 b9
       0.00023134562 -0.00015483914 -8.7253036e-05 -0.00012736664
000050 a2 28 ab 38
       8.161484e-05

exp_avg_sq f4 [21]
000000 8b ca 58 35 f7 af 1a 36 8b 6c 03 36 8f a7 08 35
       8.076101e-07 2.3050213e-06 1.9583701e-06 5.090778e-07
000010 a8 3f e3 36 6f 0b 6e 36 42 9c ad 35 00 5e 20 36
       6.7725377e-06 3.547142e-06 1.2934981e-06 2.3896573e-06
000020 6e 0b 37 36 4e c0 c5 36 12 d5 cf 35 a1 a9 39 36
       2.7275778e-06 5.8934447e-06 1.5484713e-06 2.7665885e-06
000030 bb f3 e4 34 d3 73 b0 35 5a 3a 4a 36 a5 be 9a 36
       4.2645647e-07 1.3146731e-06 3.013431e-06 4.6117516e-06
000040 10 39 2f 36 76 9e a5 35 37 11 72 36 94 7e be 35
       2.6110247e-06 1.2339576e-06 3.607083e-06 1.4192942e-06
000050 b9 ef b6 35
       1.3629825e-06
