best-checkpoint.pth (torch, 67351 bytes, 6 tensors)

fc1.weight f4 [21, 256]
00000000: f3b2 fbbd 2d2b 313e 7116 54bd 2cb7 8ebd
00000010: facc 333e 9b02 9b3d d573 e03d 4a2a 8dbd
00000020: 1fa9 cfbe 063b 49bd f481 023e b344 8dbd
00000030: 38c2 3e3e 5345 a4bd ed3a 3c3e 7734 63be
00000040: 6f60 253e 3ff1 383e 24b1 f5bd a57d 953e
00000050: eb72 4a3e 95a0 11be 023f 14bd 5aed abbd
00000060: 4d0c 89bd b877 323e 50e7 453e d582 1d3d
00000070: 1d51 303e 94b6 003e d980 173e f081 20be
00000080: cd4b f73d a7dd 21be 0686 043d a528 913d
00000090: ba25 133e fca6 5c3e 7d45 44bd befe 09be
000000a0: a1f6 b1bd c4a0 fabc ed32 023e 96a8 d0bd
000000b0: c5bd fabc 40fb 54bd ab72 003d b1cf a83d
000000c0: 6a7a 00bd ce8f c83d fb7a fd3a ba1c 0f3c
000000d0: 7a92 bfbd b304 653c 9713 4fbe b4ae b1bd
000000e0: e2ff 8cbe 39f4 3e3e 89ef 25bd ec3f c2bd
000000f0: faa1 febc ed6c 8ebd e681 223d 8e7d 6f3d
00000100: 1de4 a53d e0d7 9dbc 289f 433e a87d 943c
00000110: bce4 af3e 8036 66bd c444 2fbe b5db 133e
00000120: 046a 94bd 2db9 2b3d 6279 703b 1462 803d
00000130: 01aa 3cbe 5621 8c3d 16fa fb3d d445 053d
00000140: 2ceb 0a3e f947 0abe 6630 343a 9746 2a3e
00000150: 88da 813d b632 2fbe 6c07 903e 9854 553e
00000160: 8a65 3ebe e9d3 ed3d 7788 4f3e 09a4 fabc
00000170: e0f1 9abd 02b5 91bd 4c26 04be dccc 1e3e
00000180: 896d 463e 128c b23d 620a a5bd 0716 013e
00000190: d2ae 073d caa0 73bd bdf6 41be 741f 28bc
000001a0: bf8b 06be b665 2d3e a831 6bbe 759d c8bb
000001b0: 2ae3 2abe 10bb 91be 26bf a9bd ee95 3bbd
000001c0: ce31 bd3d c458 8b3d 2cda 093e 44d1 1eba
000001d0: ca95 a63d 5bd2 79bc 3cf7 c0bb f3b4 51be
000001e0: bdaa 07bd b3b5 75be 6b9b 3dbd 4e81 d3bd
000001f0: ddb3 553e 602c 2d3e dd2e d9bc 9a64 9e3d
00000200: 77e8 45be 8372 8b3e 334c c2bd 93e0 f83c
00000210: 27dd 633e aa6b 333e 2b27 863d 6406 97bd
00000220: 15eb d6be 46b3 c7bc f218 323d 2dd1 9e3c
00000230: f88e 0e3e 48e5 0ebe 84b9 503e e235 a5bd
00000240: 898d 6b3e fb59 163e 0597 07be 4157 203e
00000250: ce19 5a3e e8f4 50be 1f28 f4bb cb72 c6bc
00000260: d3a8 98bd 7c93 1f3e cebd 1c3e ed1a c1bc
00000270: 01d9 f83d c10d 063e c273 143e 9c47 ecbd
00000280: 93ba 613d 7eab 86be d86c 113a 579c 303e
00000290: 5e1c 253e 2f03 843e 805f 57bc 89e8 6abe
000002a0: 93d8 2dbd bce9 053c e061 493d 65f1 a9bb
000002b0: c459 08bd 2c97 0b3e 97df 633a 99fc de3d
000002c0: a654 29bd 00b8 8e3e 8776 13bd 16e3 2fbd
000002d0: be35 853c fab4 e7bd 1964 40be 564f 67bd
000002e0: d7aa 5dbe 3117 6e3e e066 92bd dd03 16bc
000002f0: 18f3 ec3d 57a1 87bc 336d c7bc 65d6 333d
00000300: 9e07 063e e1cc a9bd f4e5 703e fb58 7cbd
00000310: 93e3 253e 8e95 7fbd ff90 62be 7084 1e3e
00000320: 40d8 2ebe 8202 50bb d30f c33d 2e51 cc3d
00000330: 314e f3bd 6755 e33d 0797 e73d 29cb 803d
00000340: 3364 203e 3bc3 86bd 66a9 8d3d 3e21 4f3e
00000350: 01a7 453c cf2b 23be cf63 923e a30f ca3d
00000360: 840d c23d ba70 f33d c201 8e3e 777a a3bc
00000370: 9699 dbbd 418a 553c f238 32be c027 0c3e
00000380: 6faa 333e 626a 063e e7ad 9eba 198b 443e
00000390: f150 7c3d 0302 89bd 23ab 6fbe fceb fc3a
000003a0: 4514 e1bd 12ab 233e b968 68be dd38 6fba
000003b0: d559 1bbe 4ff8 1abe 0602 4bbd f3a6 cb3d
000003c0: 54a3 883c 0fcb 773d bd80 f53d 926e 6abc
000003d0: 165c 3b3d cfb8 9ebc d695 87bc acc9 02be
000003e0: 26ff a6bd beb4 83be 0c98 4a3d abc8 8cbd
000003f0: e135 813e a537 1b3e 0a41 573d f1c8 563d
-0.12289991 0.17301627 -0.051779214 -0.06968531 0.17558661 0.07568856 0.10959593 -0.068928316
-0.40558717 -0.049128555 0.12744886 -0.06897869 0.18628776 -0.08021035 0.18381853 -0.22187982
0.16150068 0.18060778 -0.119966775 0.29197422 0.197704 -0.14221413 -0.0361929 -0.083948806
-0.06691799 0.17428482 0.1932652 0.03845485 0.17218442 0.12569648 0.14795245 -0.15674567
0.12075005 -0.1580721 0.032354377 0.070878305 0.1436986 0.21548074 -0.04791783 -0.13476083
-0.08689619 -0.030594237 0.12714739 -0.10188405 -0.030608067 -0.051997423 0.031359356 0.08242739
-0.031366743 0.097930536 0.0019339019 0.008734876 -0.0935411 0.013978171 -0.20222317 -0.086759
-0.27538973 0.18647851 -0.04051164 -0.094848484 -0.031083096 -0.0695437 0.039674662 0.058469348
0.0810015 -0.019267976 0.19103682 0.018126324 0.34354198 -0.05620432 -0.17116076 0.1443928
-0.072467834 0.041924644 0.0036693444 0.06268707 -0.18424226 0.06842296 0.123035595 0.032537296
0.13566273 -0.13504018 0.0006873667 0.1662849 0.0634051 -0.17109188 0.28130662 0.20833051
-0.18593422 0.11612684 0.20266901 -0.030595796 -0.07565665 -0.071146026 -0.12905234 0.15507835
0.19377722 0.087181225 -0.08058621 0.12606059 0.033125706 -0.059479512 -0.1894178 -0.010261405
-0.13139246 0.16933331 -0.22968161 -0.006122286 -0.16688219 -0.2846303 -0.08288412 -0.04579728
0.09238015 0.0680404 0.13462132 -0.00060584047 0.08134039 -0.015247907 -0.0058888476 -0.20479183
-0.033121813 -0.23995094 -0.046290796 -0.10327397 0.20869394 0.16911459 -0.026511604 0.07734032
-0.1932696 0.27235803 -0.0948719 0.030380523 0.22252332 0.1752154 0.065504394 -0.07374266
-0.41976228 -0.024377476 0.04348082 0.019386852 0.13921726 -0.13954651 0.20383269 -0.08066918
0.2300321 0.14682762 -0.13241203 0.15658285 0.21298906 -0.20405924 -0.007451072 -0.02422466
-0.07454076 0.15583605 0.1530678 -0.02357241 0.12150765 0.13091184 0.14497283 -0.11537096
0.05510957 -0.26302713 0.000554753 0.17247139 0.16124102 0.2578368 -0.013145328 -0.22940268
-0.04244287 0.008173402 0.049165606 -0.005186247 -0.033288732 0.13631886 0.000869268 0.10888023
-0.041340493 0.27874756 -0.03600171 -0.042941175 0.016260978 -0.113138154 -0.18788184 -0.056472145
-0.21647201 0.23251034 -0.07148528 -0.0091561945 0.11569804 -0.016556425 -0.024344062 0.043905634
0.13088843 -0.08291031 0.2352522 -0.061608296 0.16200094 -0.062398486 -0.22125624 0.15480208
-0.1707468 -0.0031739776 0.095245026 0.09976421 -0.11880148 0.111002736 0.11308103 0.0628875
0.15663223 -0.06580206 0.06917076 0.20227525 0.012063743 -0.1593468 0.28591773 0.09866264
0.09475234 0.11886735 0.27735716 -0.019955857 -0.107226536 0.013033451 -0.17404535 0.13687038
0.17545484 0.1312652 -0.001210627 0.19193687 0.06160063 -0.06689837 -0.23405127 0.0019296403
-0.10990194 0.15983227 -0.22696199 -0.00091256 -0.15170987 -0.15133785 -0.049562477 0.099439524
0.016679443 0.060496386 0.119874455 -0.014308589 0.045742117 -0.019375233 -0.01655094 -0.12772244
-0.081541345 -0.25723833 0.04946141 -0.06874212 0.2523642 0.15157945 0.05255226 0.052437726

fc1.bias f4 [21]
00000000: 0dee 63be 859e 0cbe 3041 02be ecec 60be
00000010: 65fd 79be 9a0d 9dbe 34d2 9cbe 84f0 7ebe
00000020: d13f 60be 82a5 2fbe 54d2 5abd 6d1d 16be
00000030: 921d 8dbe e2d3 72be cadb 2bbe 79a8 8abe
00000040: e41a 60be 806f 56be 0015 45be 04df 4ebe
00000050: fa3a 95be
-0.22258778 -0.13732345 -0.1272018 -0.21965379 -0.24413069 -0.3067444 -0.30629122 -0.24896437
-0.21899344 -0.1715298 -0.05342324 -0.14659663 -0.27561623 -0.2371364 -0.16783062 -0.2708166
-0.21885258 -0.20940971 -0.19246292 -0.20202261 -0.29146558

exp_avg f4 [21, 256]
00000000: 91fa b133 de2a 4d35 bab2 62b8 8784 c536
00000010: ed9f 57b8 4b6c 3637 b0da 58b8 a01b a7b7
00000020: 7f6c 31b8 4e81 74b8 514d 1c37 2bfd 7337
00000030: 68f5 2738 3c1e 08b7 fae9 8635 d576 d537
00000040: 2a9d 47b7 3422 b3b7 828f 91b8 8eb4 37b7
00000050: 0c60 9bb8 8978 b9b7 ca7d 4fb8 f467 1b38
00000060: 8dd3 04b7 c76a 8c36 fc04 ff36 d542 3738
00000070: f534 5a37 0329 8ab8 64c0 7637 08a3 f136
00000080: fab5 3736 fdc5 9e37 3f01 b537 6ce7 2735
00000090: 1797 fd37 7155 90b6 e63c 5838 8a58 f8b8
000000a0: cf70 d2b7 bb6e 01b5 65d2 5438 848e 0036
000000b0: 0642 cb36 144e 13b7 c556 60b7 c17f 9a37
000000c0: af4c c2b8 6240 8e38 be05 18b7 bc6b af37
000000d0: e29b 4538 7fbb 85b8 3a94 0d38 46bf db38
000000e0: 2904 11b8 041f 90b7 4f0c 3a37 f3cc a8b8
000000f0: 02a9 f8b7 17af 1e38 3b1e 5c36 8503 dbb7
00000100: 765b ccb6 9d7f 3738 c746 7ab8 91b9 d737
00000110: c14e 7b37 ba47 15b7 44c1 d436 e308 72b5
00000120: 324e 97b8 dad6 a436 11e4 cbb8 54ad e4b6
00000130: 94df bd38 c8ba 9fb8 54a1 4eb4 8f49 84b8
00000140: 9863 d737 2c31 84b8 36e5 0138 109e 7f37
00000150: 24c7 1637 bbaa c138 f173 3fb7 134c 9db8
00000160: cb50 f1b6 c8ff 1238 e1b6 ecb7 0ac7 2938
00000170: 36f7 fa36 cf6d aeb6 2fcc 28b8 24be 8db4
00000180: b9bf 1430 2241 a637 7df3 07b8 7034 c637
00000190: 51ef 05b8 f486 0339 8678 f1b7 10d2 3838
000001a0: dfef 2ab8 5148 bbb8 54e3 7237 82f4 4938
000001b0: 8233 2eb8 8081 13b6 2dcd ab38 bc83 26b8
000001c0: 2b3e 91b5 98e6 6c37 2793 1836 ff9c 53b6
000001d0: 4586 0bb7 a2d8 afb6 91eb 7538 2daa 0c38
000001e0: ea46 bb36 1f7b b5b7 706c 8e37 c8da 2db7
000001f0: 49ec ba36 65eb 57b6 69a8 7c38 1f3f 6237
00000200: 79e6 99b4 5950 9fb6 7227 88b8 6efe a735
00000210: f460 73b8 200a dd36 e163 1cb8 df19 25b8
00000220: 3502 19b8 d042 afb8 0a3a b7b6 6b03 b437
00000230: 8e75 1238 a62c 8e36 bce4 0f36 3267 c137
00000240: 8a9f 1537 bd33 0db8 f6bb 97b8 7267 c1b7
00000250: 028d 9ab8 d655 ffb7 a892 90b8 edcf 8438
00000260: c967 bcb6 ec42 8e36 b649 0537 7b9b 5638
00000270: 529a cf37 c8d8 74b8 50dd 4337 290e 6b37
00000280: 5893 5336 0840 ae37 0975 2238 e07b 5bb7
00000290: 2171 e437 a2f6 cf36 e366 6638 36bc c7b8
000002a0: 3c96 03b8 a8a6 3336 216e 6338 5b71 54b4
000002b0: 8166 1bb6 7e54 07b8 9cfe 72b7 87bf f336
000002c0: c1b2 c1b8 bef9 af38 9543 bfb7 3ee7 ef37
000002d0: dc82 5b38 7048 82b8 924e e337 567c e738
000002e0: 6dc4 feb7 9a43 b7b7 0377 f936 aa5f d0b8
000002f0: 3b5f 46b8 e490 0638 e048 2036 0cd3 11b8
00000300: 79c2 a9b6 5db7 d337 a025 80b8 1c8f 1838
00000310: 1be6 6137 73c5 7ab5 6450 2a37 b9d5 0e37
00000320: da6c 7eb8 94d4 3337 8ccc bdb8 2075 04b7
00000330: 2ab6 9138 949f 85b8 107a 06b5 92e0 43b8
00000340: 2763 0238 2bd6 79b8 1ad4 0d38 97c5 4537
00000350: 1c2d 2537 f5bb b738 4ea9 78b7 bc22 a0b8
00000360: 4a43 c2b7 60ad 6838 a9e8 23b8 eaba 0f38
00000370: d60e a837 0fd1 59b6 7e0b 30b8 0840 5db6
00000380: b9bf 1430 ac47 c637 b84c 39b8 1590 d037
00000390: 2da2 37b8 6a42 0239 9165 1fb8 b732 4d38
000003a0: 6623 6fb8 5fa5 c1b8 241d 4337 95b6 5138
000003b0: a0d5 4bb8 e999 02b7 b52a ca38 4e23 02b8
000003c0: 9769 c835 8629 5237 86ea ddb6 1d79 99b7
000003d0: e03d 4fb7 bc84 13b7 55e5 8138 ef03 0f38
000003e0: 9b80 7437 0e48 fab7 5d07 5638 ba62 9fb7
000003f0: 3c70 6c37 0029 72b7 b731 ab38 4178 0237
8.2877825e-08 7.643083e-07 -5.404905e-05 5.8864857e-06 -5.1408937e-05 1.0873259e-05 -5.170208e-05 -1.9920815e-05
-4.2301133e-05 -5.8294558e-05 9.316326e-06 1.4542874e-05 4.0044455e-05 -8.113271e-06 1.0051874e-06 2.5446914e-05
-1.1897917e-05 -2.135439e-05 -6.940869e-05 -1.0949689e-05 -7.408866e-05 -2.2109847e-05 -4.9469796e-05 3.7051694e-05
-7.917069e-06 4.1847557e-06 7.6001725e-06 4.3692842e-05 1.3006143e-05 -6.587992e-05 1.4707537e-05 7.201339e-06
2.737505e-06 1.8927263e-05 2.1577462e-05 6.254911e-07 3.0230307e-05 -4.301481e-06 5.155513e-05 -0.00011842053
-2.5086481e-05 -4.821738e-07 5.0740684e-05 1.9156441e-06 6.0575576e-06 -8.780062e-06 -1.3371643e-05 1.841772e-05
-9.264924e-05 6.78308e-05 -9.061243e-06 2.0911793e-05 4.7113637e-05 -6.376858e-05 3.3755066e-05 0.00010478361
-3.457457e-05 -1.718058e-05 1.108933e-05 -8.049039e-05 -2.9642604e-05 3.78332e-05 3.280015e-06 -2.6108473e-05
-6.090321e-06 4.374945e-05 -5.967056e-05 2.5716408e-05 1.4979102e-05 -8.897792e-06 6.3405914e-06 -9.0164957e-07
-7.214806e-05 4.912593e-06 -9.722275e-05 -6.8151076e-06 9.053867e-05 -7.6165015e-05 -1.9243936e-07 -6.307952e-05
2.5676374e-05 -6.3034095e-05 3.0969466e-05 1.5235986e-05 8.987063e-06 9.234758e-05 -1.1411482e-05 -7.500513e-05
-7.1917652e-06 3.5047327e-05 -2.8218552e-05 4.047811e-05 7.4793597e-06 -5.1983875e-06 -4.0244482e-05 -2.6401642e-07
5.411454e-10 1.9819072e-05 -3.2413274e-05 2.3627857e-05 -3.193255e-05 0.00012543408 -2.8785562e-05 4.4064655e-05
-4.0754556e-05 -8.930325e-05 1.4477253e-05 4.814985e-05 -4.1532803e-05 -2.1980086e-06 8.1921324e-05 -3.970017e-05
-1.0821435e-06 1.41203855e-05 2.273542e-06 -3.1532834e-06 -8.316308e-06 -5.240626e-06 5.863194e-05 3.353709e-05
5.5812898e-06 -2.1634214e-05 1.6978214e-05 -1.03625425e-05 5.570739e-06 -3.2174514e-06 6.0238326e-05 1.3485346e-05
-2.8666162e-07 -4.747923e-06 -6.4923326e-05 1.2516518e-06 -5.802601e-05 6.587492e-06 -3.7286318e-05 -3.936316e-05
-3.6480098e-05 -8.357095e-05 -5.4605816e-06 2.1459264e-05 3.4918594e-05 4.2371275e-06 2.1441801e-06 2.3055447e-05
8.918238e-06 -3.3665205e-05 -7.2352515e-05 -2.3055563e-05 -7.369557e-05 -3.043834e-05 -6.893772e-05 6.33298e-05
-5.614919e-06 4.2397205e-06 7.94458e-06 5.116638e-05 2.4748184e-05 -5.8376027e-05 1.1674434e-05 1.4010388e-05
3.1527215e-06 2.0772233e-05 3.8732807e-05 -1.3082259e-05 2.7232398e-05 6.1977926e-06 5.4932094e-05 -9.5241165e-05
-3.137275e-05 2.6770085e-06 5.4223583e-05 -1.9785277e-07 -2.3156465e-06 -3.2265198e-05 -1.4483605e-05 7.264261e-06
-9.236253e-05 8.3911684e-05 -2.2800445e-05 2.85987e-05 5.233554e-05 -6.2123756e-05 2.7097096e-05 0.00011038098
-3.0370627e-05 -2.184678e-05 7.434633e-06 -9.936032e-05 -4.729557e-05 3.208303e-05 2.3884277e-06 -3.4767247e-05
-5.059232e-06 2.5238545e-05 -6.110524e-05 3.6372905e-05 1.3464621e-05 -9.3419584e-07 1.0151507e-05 8.513621e-06
-6.0659695e-05 1.0718726e-05 -9.050322e-05 -7.895083e-06 6.9480695e-05 -6.371658e-05 -5.0096514e-07 -4.670077e-05
3.1086758e-05 -5.9565686e-05 3.3814555e-05 1.178812e-05 9.845269e-06 8.76113e-05 -1.4821371e-05 -7.635864e-05
-2.3157936e-05 5.547458e-05 -3.907891e-05 3.4267934e-05 2.003407e-05 -3.2457208e-06 -4.1972373e-05 -3.2968837e-06
5.411454e-10 2.3636814e-05 -4.4178887e-05 2.4862626e-05 -4.3781638e-05 0.00012422507 -3.8003145e-05 4.892304e-05
-5.7015008e-05 -9.23376e-05 1.1629691e-05 4.9999526e-05 -4.8597925e-05 -7.784439e-06 9.6400654e-05 -3.1027295e-05
1.4931892e-06 1.2526643e-05 -6.6136154e-06 -1.8295419e-05 -1.2352568e-05 -8.792787e-06 6.193916e-05 3.409752e-05
1.4573477e-05 -2.9835875e-05 5.1028434e-05 -1.900025e-05 1.4092828e-05 -1.443387e-05 8.1631755e-05 7.776603e-06

exp_avg_sq f4 [21, 256]
00000000: d990 f132 fcd4 8f33 3bab 3e34 193c 0334
00000010: 359e 0f34 f000 8a33 4c8d da33 793c 8235
00000020: 18c3 8733 f18c d634 754e 1433 345f c134
00000030: 3e4a 2534 ee87 e733 6257 e333 906b 6533
00000040: 4756 bc33 8686 d133 8539 d533 6da3 bf33
00000050: bfab 8733 fc62 1e33 f389 a233 70d4 b333
00000060: ba75 9c33 b6b5 dd31 587f b232 5f56 5333
00000070: b9bb bd32 0176 a433 c280 7833 51ef d633
00000080: dd52 b631 907c 2033 c09a 6e34 7de9 2434
00000090: 85e9 c134 5605 cd33 6190 9533 db81 ae33
000000a0: 27d7 0133 fbc6 ec33 29d7 8633 b85f bf32
000000b0: d525 5333 1c4b a133 0365 1f34 c748 ee33
000000c0: f851 5133 a313 dc33 a585 1033 eefd 2533
000000d0: ee26 0b34 b05d ea32 4afd f332 1cc4 3d34
000000e0: 91eb 4c33 e245 2634 cdae d732 a3b8 1734
000000f0: ab36 e833 4ce9 8d33 0f6e 3732 7c35 8432
00000100: b199 f833 1ebd 7e35 0780 e132 c7a8 8133
00000110: 5cb8 6033 b74a 5d34 0a3a 4f33 1d9d c733
00000120: 9d03 ca33 d164 0e33 5318 7333 4b66 8933
00000130: 6f30 a333 bb6c 9c33 ae59 2533 a316 cc33
00000140: 5c69 8733 2a0d 8434 59ad 4a33 21dd ad33
00000150: 9d44 e931 f876 da33 cf4c 0534 254f 8633
00000160: 165b 5a33 3b4a dc33 090f 8433 1639 2f33
00000170: fb03 ee34 73ed 1933 f499 9d33 55d3 7031
00000180: 74bb b425 b208 1b33 aa6b 0534 4b21 9834
00000190: 1a75 1234 d92e d433 c2d3 c833 5f94 c934
000001a0: 2490 ad33 8210 cf33 27b9 2a33 8c55 7934
000001b0: 607e ca33 8551 7933 02c8 7734 94bd ab33
000001c0: d27c ee31 1524 0034 0bbb 3f33 46ec 2a33
000001d0: 5dbd dc33 fdce 8634 55c9 4133 d9cd 3733
000001e0: 556a 0e33 7371 a632 36d6 5334 e6f3 9934
000001f0: 02b6 7533 98da 9633 102c 1235 8b07 3434
00000200: c336 0b33 99d3 9733 47f2 6334 8c78 fe33
00000210: 187b 2134 33cf 9933 e6d7 da33 8ec9 9035
00000220: cdcd 8133 6b89 f334 d106 3a33 d907 d834
00000230: d072 2234 e89b 0834 df42 fb33 24b7 9433
00000240: f835 cf33 e465 e033 8697 b633 1a4d 0234
00000250: fb0c a133 b691 3533 29c8 ae33 3d3b d533
00000260: 812c b533 7f36 db31 7850 b132 2640 7333
00000270: 0100 d032 789d aa33 2d78 7033 47d0 ef33
00000280: 602a b431 8b3b 3a33 1017 5034 a6ea 7734
00000290: 1e96 b534 2963 d833 0d8b a633 aea9 c033
000002a0: c998 0b33 88ca 0b34 b5cb 8833 69f2 d632
000002b0: a929 5a33 96cb 4e33 8f3d 1f34 2b1c e833
000002c0: 7ed7 6533 2aeb 9b33 94f6 1133 14e7 2333
000002d0: 198a 1934 91ec 1033 5034 0233 d19f 5b34
000002e0: c0e8 7933 d29e 5a34 d6ff d832 5c13 3934
000002f0: 5a23 0734 829a b233 4874 2e32 0e72 9632
00000300: 5996 0b34 9544 9235 d608 1933 d8b3 9d33
00000310: b05c 8333 a718 5d34 3f82 6633 d66c bc33
00000320: 2b5a d133 0314 1333 dfa0 7e33 6b2b 8833
00000330: 17d0 6933 9680 9c33 10d5 2733 6e14 c133
00000340: d1ce 8733 9f62 a034 7491 4933 f129 1734
00000350: b812 ee31 4ccb fd33 8fb7 1234 31a8 9733
00000360: 59e5 af32 5fb3 1b34 a6ee 5333 fda2 4d33
00000370: 7d15 0735 403c 3c33 42ea c033 bd24 7931
00000380: 74bb b425 583e 2033 53f3 e733 e3b1 a834
00000390: 7bd0 2b34 82ea f133 9fba ea33 1142 e034
000003a0: 2f87 b333 08bf e233 a255 3c33 d567 8c34
000003b0: 04b5 f433 0bbd 6733 b7a7 5d34 f623 9733
000003c0: 9c4b f931 f68b 2934 66f5 3b33 d0aa 3433
000003d0: 4eb8 0334 b6fc a534 1c08 6533 4729 5d33
000003e0: 8987 2033 1dc1 ab32 224b 7234 8b43 bf34
000003f0: 3c3c 9e33 7f33 b833 b787 2435 1f85 3f34
2.8121962e-08 6.697698e-08 1.7757422e-07 1.2222189e-07 1.3375468e-07 6.426296e-08 1.0177118e-07 9.703355e-07
6.321915e-08 3.9963155e-07 3.453029e-08 3.601832e-07 1.5393832e-07 1.0781501e-07 1.0586406e-07 5.3416045e-08
8.770126e-08 9.7567906e-08 9.929048e-08 8.9238576e-08 6.317668e-08 3.6877267e-08 7.568806e-08 8.373979e-08
7.2857304e-08 6.4526047e-09 2.0779837e-08 4.920582e-08 2.2087862e-08 7.65831e-08 5.7859104e-08 1.0008683e-07
5.3063176e-09 3.7366192e-08 2.2221775e-07 1.5358633e-07 3.611896e-07 9.547027e-08 6.9646156e-08 8.126127e-08
3.0230833e-08 1.1025801e-07 6.278999e-08 2.2278854e-08 4.9161674e-08 7.510809e-08 1.4844777e-07 1.1095977e-07
4.8736155e-08 1.024812e-07 3.364916e-08 3.8648004e-08 1.2959546e-07 2.728379e-08 2.8404106e-08 1.7673341e-07
4.7711698e-08 1.5485378e-07 2.5108784e-08 1.4130141e-07 1.0813286e-07 6.6082606e-08 1.0677026e-08 1.5391144e-08
1.1576356e-07 9.4897575e-07 2.6251668e-08 6.037731e-08 5.2321738e-08 2.060941e-07 4.824873e-08 9.2952384e-08
9.407015e-08 3.3153643e-08 5.659997e-08 6.3981666e-08 7.599089e-08 7.284094e-08 3.849862e-08 9.503608e-08
6.305592e-08 2.4596494e-07 4.718945e-08 8.0961634e-08 6.788993e-09 1.0173056e-07 1.2414533e-07 6.2542576e-08
5.0839922e-08 1.0258051e-07 6.149464e-08 4.0797282e-08 4.433385e-07 3.5839047e-08 7.338886e-08 3.5044725e-09
3.1352046e-16 3.6096658e-08 1.2425758e-07 2.833643e-07 1.3639911e-07 9.880541e-08 9.351744e-08 3.7547122e-07
8.082159e-08 9.6421914e-08 3.9749604e-08 2.3221054e-07 9.4293455e-08 5.8048972e-08 2.307643e-07 7.997292e-08
6.940902e-09 1.1934056e-07 4.4640768e-08 3.97961e-08 1.0278993e-07 2.511005e-07 4.5119425e-08 4.2795225e-08
3.315866e-08 1.9376534e-08 1.9728836e-07 2.867593e-07 5.7209043e-08 7.024681e-08 5.445336e-07 1.676655e-07
3.2413265e-08 7.069975e-08 2.1229162e-07 1.1849724e-07 1.5039075e-07 7.162307e-08 1.0190688e-07 1.0787496e-06
6.0444656e-08 4.5362262e-07 4.33127e-08 4.0238845e-07 1.5129194e-07 1.2722705e-07 1.1700262e-07 6.9251e-08
9.6490055e-08 1.04493466e-07 8.5025974e-08 1.2135243e-07 7.499508e-08 4.227487e-08 8.138915e-08 9.929361e-08
8.4365645e-08 6.3799344e-09 2.0642105e-08 5.663619e-08 2.4214389e-08 7.944885e-08 5.5988654e-08 1.116719e-07
5.243507e-09 4.3360654e-08 1.93799e-07 2.3089032e-07 3.3823102e-07 1.0076321e-07 7.7552706e-08 8.971561e-08
3.2502417e-08 1.3019064e-07 6.3700476e-08 2.5023114e-08 5.079497e-08 4.8148273e-08 1.4830424e-07 1.08084656e-07
5.3514206e-08 7.260526e-08 3.3984705e-08 3.816156e-08 1.4299475e-07 3.374277e-08 3.031556e-08 2.0454105e-07
5.8186515e-08 2.036061e-07 2.526205e-08 1.723651e-07 1.2585716e-07 8.316876e-08 1.0154572e-08 1.7514164e-08
1.300008e-07 1.0897808e-06 3.5631125e-08 7.3435956e-08 6.1170226e-08 2.0591197e-07 5.3669506e-08 8.774229e-08
9.7487224e-08 3.4244305e-08 5.9285295e-08 6.340891e-08 5.4438797e-08 7.287706e-08 3.9076497e-08 8.990979e-08
6.324047e-08 2.987408e-07 4.6931248e-08 1.4078229e-07 6.9288397e-09 1.181821e-07 1.3664088e-07 7.062079e-08
2.0476977e-08 1.4500755e-07 4.9344315e-08 4.787852e-08 5.032269e-07 4.3826958e-08 8.983308e-08 3.6255152e-09
3.1352046e-16 3.7309604e-08 1.0801036e-07 3.1421868e-07 1.6001461e-07 1.1265094e-07 1.093042e-07 4.177132e-07
8.359927e-08 1.05586935e-07 4.3850044e-08 2.615258e-07 1.1395062e-07 5.3955812e-08 2.0643243e-07 7.038027e-08
7.2554496e-09 1.5790269e-07 4.376252e-08 4.206487e-08 1.2267375e-07 3.0917516e-07 5.3325593e-08 5.1493114e-08
3.737617e-08 1.9994838e-08 2.256534e-07 3.5625666e-07 7.368405e-08 8.577535e-08 6.129225e-07 1.783669e-07

exp_avg f4 [21]
00000000: 50d1 e7b7 4b2c 0dba bf49 53b8 670d 6739
00000010: 8ba0 a9b9 3f5a 0b3b ed48 4738 0482 79b7
00000020: f898 203a 406e 1eb9 ca82 a3b9 02ea 9839
00000030: b7f5 99b8 5bed 7538 3d7c 4c3a 8435 043a
00000040: 8142 1839 30da c7b8 077b ffba 4cc0 9ab8
00000050: b883 9538
-2.7634815e-05 -0.00053853233 -5.0375e-05 0.0002203487 -0.00032353806 0.0021263508 4.7513215e-05 -1.4871828e-05
0.000612631 -0.00015109126 -0.00031187228 0.0002916605 -7.3413765e-05 5.8633606e-05 0.00078004954 0.0005043375
0.00014520624 -9.5297e-05 -0.0019491621 -7.37911e-05 7.129408e-05

exp_avg_sq f4 [21]
00000000: a679 5b35 e3e5 2d36 ffc2 1136 7b01 0835
00000010: 91bc e236 2393 9436 8347 a535 2490 3236
00000020: f2cb 3336 6a7d c636 0554 de35 3cb2 3d36
00000030: 3efc f834 f1a8 ba35 d501 3336 4cb1 2836
00000040: 6cbd 3836 a53f 9735 1ad3 8836 7cf7 d035
00000050: 43d8 b335
8.176088e-07 2.591282e-06 2.1720186e-06 5.06661e-07 6.757277e-06 4.4278727e-06 1.2314271e-06 2.6607968e-06
2.679179e-06 5.91546e-06 1.6564742e-06 2.826694e-06 4.637713e-07 1.3907248e-06 2.6674145e-06 2.5137151e-06
2.7528395e-06 1.12689e-06 4.0776913e-06 1.5569235e-06 1.339948e-06
