models/best_UsageNet1.pth (torch, 35031 bytes, 6 tensors)

fc1.weight f4 [21, 128]
0	0x3e55159a	0.20809022
1	0xbfdc84a4	-1.7227979
2	0x3fc0dec8	1.5067987
3	0xbf95be96	-1.1698787
4	0xbded966d	-0.11600957
5	0x3fbd47f1	1.478758
6	0x402a5bae	2.6618457
7	0x3f92f90c	1.1482253
8	0x3fb7785d	1.4333607
9	0x3ff0d29d	1.8814274
10	0xbfb40495	-1.4063898
11	0x3f8bdfc4	1.0927663
12	0xbfd1ded7	-1.639613
13	0x3fb01b87	1.3758401
14	0x3f8b5cde	1.0887716
15	0xc0168ad8	-2.3522243
16	0x400a62b4	2.1622744
17	0xbf358112	-0.7090007
18	0xbf8b612b	-1.0889028
19	0x3fa40105	1.2812811
20	0xbf92e667	-1.1476563
21	0x40372795	2.861791
22	0x3f0bfdbf	0.5468406
23	0x3ecdf4cf	0.40225837
24	0x40595360	3.3957138
25	0x3fd8e606	1.6945198
26	0x40129bc2	2.2907567
27	0x400642a3	2.0978172
28	0x403aea2c	2.9205427
29	0xc003c771	-2.059048
30	0xbe8f61ae	-0.2800421
31	0x3f8ac19c	1.0840335
32	0xbfe08269	-1.7539798
33	0x3fced133	1.6157593
34	0xbcf84533	-0.030306434
35	0xbcd3d093	-0.025856292
36	0x3db3c8e2	0.0877855
37	0xc0240fd0	-2.563465
38	0x3fa35234	1.2759461
39	0xc03be730	-2.9359856
40	0x3fa0c320	1.2559547
41	0x3fffba21	1.9978677
42	0xc00f56e1	-2.2396777
43	0xbf199170	-0.59987545
44	0x3f764007	0.9619145
45	0xbe92aaa8	-0.28645825
46	0x3fcddbee	1.6082742
47	0x402380b0	2.5547295
48	0xbfecfa46	-1.8513877
49	0xc03f2a49	-2.986956
50	0xbfdfbffa	-1.7480462
51	0x40075baa	2.1149697
52	0xbf6c4c72	-0.92304146
53	0xbf9f248a	-1.2433026
54	0xbfb6e6dc	-1.4289203
55	0x3faff302	1.3746035
56	0x3cd4ff3b	0.02600061
57	0x3ef59ed3	0.47972736
58	0x3f1a18c0	0.60194016
59	0x3f72f89f	0.94910616
60	0xbfdb828f	-1.7149218
61	0xbfad9d10	-1.3563557
62	0x3facda8b	1.3504194
63	0x3fb32b1c	1.3997531
64	0xbea65eb9	-0.32494143
65	0x3e750f85	0.23931701
66	0xbe7dfe01	-0.24803926
67	0xbe572088	-0.21008503
68	0x3fc43bef	1.533079
69	0x3ef14bf6	0.47128266
70	0xbf4614bb	-0.7737538
71	0x3da3a2dc	0.07990047
72	0x3df62fe6	0.12020855
73	0x3d53a734	0.05167313
74	0x3e4cfa6e	0.20017406
75	0x3f9ba3f1	1.2159406
76	0xbf0d89eb	-0.5528857
77	0x3df1c8db	0.11805888
78	0x3fa045b0	1.2521267
79	0xbed427f5	-0.41436735
80	0x3f2eab02	0.6822969
81	0xbf0707dc	-0.5274637
82	0x3fa6147f	1.2975005
83	0x3f2dd736	0.6790651
84	0xbfaa0109	-1.3281566
85	0x3f82825c	1.0196033
86	0x3ea3d476	0.31998032
87	0xbf424e59	-0.759008
88	0xc00050fe	-2.0049434
89	0xbe833e38	-0.25633407
90	0xbeb2867b	-0.34868225
91	0x3e8432ce	0.2582001
92	0x3e2fe1cd	0.1717598
93	0xbee4bb42	-0.44674116
94	0x3fc8c2b2	1.5684416
95	0x3ec7b52a	0.39005405
96	0xbe3460c6	-0.17615041
97	0xbf4a2d4d	-0.78975374
98	0x3ec905c4	0.3926221
99	0x3ea642e3	0.32472906
100	0xbf11f9d2	-0.5702182
101	0xbe986e1a	-0.297715
102	0xbed1d1dd	-0.40980425
103	0x3f15840c	0.5840461
104	0x3f81a863	1.0129513
105	0x3f4a87e6	0.79113615
106	0xbe0a3b0f	-0.13499092
107	0x3fd8c232	1.6934264
108	0xbe7a1110	-0.24420571
109	0x3dca5e45	0.09881262
110	0xbf9469f8	-1.1594839
111	0x3fad8f75	1.3559405
112	0xbf3dbd66	-0.74117124
113	0xbdb01035	-0.08596841
114	0xbf6c37e9	-0.9227281
115	0xbe152ff9	-0.14569081
116	0xbf82cab1	-1.0218107
117	0xbf8d3b33	-1.1033691
118	0xbfe11382	-1.7584078
119	0xbf31af26	-0.6940788
120	0x3f89b4f5	1.0758349
121	0xbf27c182	-0.65529644
122	0x3e53b1f7	0.20673357
123	0x3f98077f	1.1877288
124	0xbef092e2	-0.46987063
125	0xbf28fa13	-0.6600658
126	0xbf11de63	-0.5697996
127	0xbf84f7e7	-1.0388154
128	0xbe27eac4	-0.1639815
129	0xbf2ef19c	-0.68337417
130	0x3fc888e2	1.5666773
131	0x3d8e1a86	0.06938653
132	0xbf12bd18	-0.57319784
133	0x3fba60b8	1.4560766
134	0x40452acc	3.080737
135	0x3f615b51	0.8802996
136	0x3fc52af3	1.5403732
137	0x3f93e838	1.1555243
138	0xbf284d32	-0.6574279
139	0x3f8f4d49	1.119546
140	0xc012a04f	-2.2910345
141	0x3f4d0eb9	0.8010059
142	0x3c503bf0	0.012709603
143	0xbeae63b0	-0.3406043
144	0x3f2def56	0.6794332
145	0xbf8b3ed9	-1.0878555
146	0x3f761f56	0.96141565
147	0x3feae669	1.8351566
148	0xbf783027	-0.96948475
149	0x3ff86222	1.9404948
150	0x3fab972c	1.3405509
151	0x3f2ec0e8	0.682631
152	0x3fe69307	1.8013619
153	0x40137da4	2.3045435
154	0x3e20ae78	0.15691555
155	0x401b842a	2.4299417
156	0x400cd5d9	2.2005522
157	0x3caeae54	0.02132336
158	0x3c4774c8	0.012173839
159	0xbf96f8c2	-1.1794665
160	0x3da978c4	0.08274987
161	0x3f8fe62d	1.1242119
162	0x3f06dc92	0.52680314
163	0xbf941c39	-1.1571113
164	0xc002ac00	-2.041748
165	0xbf8ef834	-1.1169496
166	0xbf59ca7d	-0.850746
167	0x3f14485b	0.57922906
168	0xbfb81701	-1.438202
169	0xbf7bbefb	-0.9833829
170	0xc0254a30	-2.582653
171	0x3fab71af	1.3394068
172	0x40017dda	2.0233064
173	0x40279ce0	2.61895
174	0xbf0c5160	-0.5481167
175	0x3fd2c477	1.6466206
176	0xc00cd19c	-2.2002935
177	0xbff8bfba	-1.943351
178	0xc006c846	-2.1059737
179	0x3fd5c6c6	1.6701286
180	0xbebb51af	-0.36585757
181	0xbf55e90b	-0.8355872
182	0xbf9a04c4	-1.2032704
183	0xbebae156	-0.36500043
184	0x3cf49889	0.02985789
185	0xbf1d482c	-0.6143825
186	0xbf8883b5	-1.0665194
187	0xbec32aff	-0.3811874
188	0xbea540ad	-0.32275906
189	0xbef8955d	-0.48551455
190	0x3fa7d55f	1.3111991
191	0x3f9cebe4	1.2259488
192	0xbf8f58f9	-1.1199027
193	0x3f8fae87	1.1225137
194	0xbfbc4737	-1.4709233
195	0x3e9f5c57	0.31125137
196	0x400ad1fc	2.1690664
197	0x3ee2bbcf	0.44283912
198	0xbf4860ea	-0.7827288
199	0xbd91b9d8	-0.07115525
200	0xbe6e0f30	-0.23247981
201	0xbe5a3c8d	-0.21312161
202	0x3eac40aa	0.33643085
203	0x3f549e05	0.8305362
204	0xbf259a8a	-0.6468893
205	0x3ed802c0	0.42189598
206	0xbe8fe50a	-0.2810443
207	0x3e35ba92	0.17746952
208	0xbf482ecf	-0.78196424
209	0x3f67fc36	0.9061922
210	0x3ecad5d5	0.39616266
211	0xbe8dafb5	-0.27673116
212	0xbf123045	-0.57104903
213	0xbe78efc3	-0.24310212
214	0x3d0a27ef	0.03372949
215	0x3f479e97	0.77976364
216	0xbf24c687	-0.6436543
217	0xbf493555	-0.78597003
218	0xbeb487fe	-0.35260004
219	0x3f324efa	0.6965176
220	0x3e98033f	0.29689977
221	0x3d8f1da1	0.06988073
222	0x3f23f9dc	0.6405313
223	0xbec64690	-0.3872571
224	0xbba3c8d8	-0.0049983077
225	0xbece0b09	-0.40242794
226	0x3f1183ff	0.56842035
227	0x3eb3c96d	0.35114613
228	0xbf952a93	-1.1653618
229	0xbea745e7	-0.3267052
230	0xbda33ac8	-0.07970196
231	0xbec80ae8	-0.3907082
232	0x3f356320	0.7085438
233	0xbd402420	-0.04690945
234	0x3d6ab5bd	0.057302225
235	0x3f80952a	1.0045521
236	0xbf2daf7a	-0.6784588
237	0x3fd1c7e6	1.6389129
238	0x3f6e4641	0.9307595
239	0x3d53a089	0.05166677
240	0xbf923392	-1.1421988
241	0xbf5a33c0	-0.85235214
242	0xbe90bbee	-0.2826838
243	0xbee2e888	-0.44318032
244	0x3f37f707	0.7186131
245	0x3d0ba6c2	0.03409458
246	0xbf6ac41f	-0.9170551
247	0xbf5a0bf0	-0.85174465
248	0xbea825e7	-0.32841417
249	0xbfa5735f	-1.2925833
250	0xbf9304b7	-1.1485814
251	0x3da65700	0.08122063
252	0xbf54ac99	-0.83075863
253	0x3f371230	0.71512127
254	0xbeffb691	-0.49943975
255	0xbea8ccbc	-0.329687

fc1.bias f4 [21]
0	0xc04024be	-3.0022426
1	0xc0292319	-2.6427672
2	0xc0216285	-2.5216382
3	0xc0693068	-3.6435795
4	0xc008ad3e	-2.1355739
5	0xc00163de	-2.0217204
6	0xc04fc4b1	-3.24638
7	0xc017b29d	-2.3702767
8	0xc03cdfd7	-2.951162
9	0xc010587b	-2.2554004
10	0xc048b596	-3.1360831
11	0xbfe0a9d8	-1.7551832
12	0xc057915c	-3.368247
13	0xc021d597	-2.5286615
14	0xc02f6f51	-2.7411692
15	0xc01771f8	-2.366331
16	0xbfe07404	-1.7535405
17	0xc04a009a	-3.1562867
18	0xbfee9873	-1.8640274
19	0xc023d306	-2.5597548
20	0xc03ea466	-2.978784

exp_avg f4 [21, 128]
0	0x32db4cad	2.5529824e-08
1	0xb29a4e9d	-1.7963709e-08
2	0xb617e52d	-2.2634151e-06
3	0x3615da07	2.2329639e-06
4	0xb4f957b6	-4.6443682e-07
5	0xb6a96b32	-5.0490717e-06
6	0xb75dc2f4	-1.3218018e-05
7	0xb5a5dbda	-1.2357443e-06
8	0xb72d3fbd	-1.0326444e-05
9	0xb7043f42	-7.8825415e-06
10	0x36b83eed	5.490953e-06
11	0x3628c3de	2.514796e-06
12	0x36ec171d	7.036039e-06
13	0xb6c3ab81	-5.8314185e-06
14	0xb6405aca	-2.8663076e-06
15	0x369df13b	4.7070475e-06
16	0xb71305af	-8.763206e-06
17	0xb64207dc	-2.8912827e-06
18	0x34a16a63	3.0065993e-07
19	0x3601198b	1.9237366e-06
20	0x36f7bed8	7.3833908e-06
21	0xb6fdd786	-7.565078e-06
22	0x3529a9c2	6.3204436e-07
23	0x36e40c2b	6.796346e-06
24	0xb75c62aa	-1.3135994e-05
25	0xb686b0bc	-4.014086e-06
26	0xb729858b	-1.0104278e-05
27	0xb6c5c0a4	-5.893484e-06
28	0xb674784d	-3.6428858e-06
29	0x368a1558	4.1152052e-06
30	0x365cefee	3.2922212e-06
31	0xb748390b	-1.193421e-05
32	0x36918a39	4.337428e-06
33	0xb58f3c18	-1.067182e-06
34	0x365157bc	3.1194495e-06
35	0xb64d5b88	-3.0600659e-06
36	0xb523fb3d	-6.108783e-07
37	0x36cb220c	6.053835e-06
38	0xb701affe	-7.729976e-06
39	0x369158c7	4.331672e-06
40	0xb58aa058	-1.0328467e-06
41	0xb6ae4f13	-5.1948095e-06
42	0x3716f896	8.998575e-06
43	0x36fdcb03	7.5636212e-06
44	0x37216f26	9.622227e-06
45	0x37b4443e	2.148945e-05
46	0xb797ae14	-1.8081664e-05
47	0xb77f8274	-1.5229558e-05
48	0x334c17d4	4.7519123e-08
49	0x37cf87c2	2.473954e-05
50	0xb5e78301	-1.7248968e-06
51	0xb7644bbe	-1.3607494e-05
52	0xb612a978	-2.185434e-06
53	0x36ff8b06	7.6157767e-06
54	0x373c4f20	1.1224096e-05
55	0xb5c4b7b8	-1.4656607e-06
56	0x373e1e94	1.1332002e-05
57	0xb6126e2e	-2.1819828e-06
58	0xb713eeb9	-8.817465e-06
59	0xb6b24ab6	-5.313511e-06
60	0x36f416ab	7.2744056e-06
61	0x36e0e55f	6.7024225e-06
62	0x36557a66	3.1810719e-06
63	0xb68a2fa8	-4.1182684e-06
64	0xb731b17c	-1.0591346e-05
65	0x367c0418	3.755331e-06
66	0xb6a60fe2	-4.9490345e-06
67	0xb674d516	-3.6482866e-06
68	0x36b49f04	5.38293e-06
69	0xb68b6e67	-4.1553753e-06
70	0x3688a106	4.0718614e-06
71	0xb70603fc	-7.98795e-06
72	0x363f960e	2.8548561e-06
73	0x36239c3a	2.4379829e-06
74	0x3604e02b	1.9800016e-06
75	0xb6d0f445	-6.22732e-06
76	0x374c1641	1.2164529e-05
77	0x352f9ed3	6.54237e-07
78	0xb6c75916	-5.941033e-06
79	0x37015915	7.70974e-06
80	0xb70c0bc3	-8.347389e-06
81	0x3724f31f	9.831768e-06
82	0xb62433f7	-2.4468152e-06
83	0xb75ddc00	-1.3223849e-05
84	0x37305c18	1.051186e-05
85	0xb780a456	-1.5335314e-05
86	0x35c29a77	1.4499082e-06
87	0x35924eb1	1.090075e-06
88	0x378931f0	1.6354927e-05
89	0xb5857ec8	-9.94617e-07
90	0x373edc4f	1.1376177e-05
91	0xb728d0ba	-1.0062178e-05
92	0x367be28c	3.7533782e-06
93	0xb729db7c	-1.0124288e-05
94	0xb58c40ef	-1.0449711e-06
95	0x350e43dc	5.299787e-07
96	0x37127cfe	8.73138e-06
97	0xb6c6c52a	-5.9238128e-06
98	0xb735d362	-1.0837657e-05
99	0xb59c1baf	-1.1630963e-06
100	0x36d69e5c	6.3961324e-06
101	0x36e337d3	6.771626e-06
102	0xb691f557	-4.349898e-06
103	0xb7832bcc	-1.5636811e-05
104	0xb7dc694b	-2.6275075e-05
105	0xb7007aac	-7.657956e-06
106	0x36ed56f7	7.0732744e-06
107	0xb754ab7d	-1.2676112e-05
108	0x36f4057c	7.272405e-06
109	0x36bcb1cd	5.6235353e-06
110	0x367625a6	3.667877e-06
111	0xb772b6c2	-1.4466876e-05
112	0xb6ad4d58	-5.1648058e-06
113	0xb78c409e	-1.671939e-05
114	0x3795e906	1.7870694e-05
115	0x37174a57	9.01761e-06
116	0x352a9d62	6.355896e-07
117	0x3745956a	1.1776903e-05
118	0x373bdb48	1.1197124e-05
119	0x365b01e2	3.263464e-06
120	0xb7caef97	-2.4191844e-05
121	0x37177ba4	9.029089e-06
122	0xb6e7da99	-6.9097846e-06
123	0xb7b3acf7	-2.1419006e-05
124	0xb6184004	-2.2687027e-06
125	0x36200d0e	2.3849457e-06
126	0x35e88887	1.7325082e-06
127	0x373d9a08	1.1301141e-05
128	0x358109bb	9.614081e-07
129	0xb62fc2d2	-2.6190432e-06
130	0xb6dc44c5	-6.5645168e-06
131	0xb6bd8315	-5.647899e-06
132	0xb6874bfd	-4.0321597e-06
133	0xb6814114	-3.8520757e-06
134	0xb6d6fc28	-6.407052e-06
135	0x374c0647	1.2160809e-05
136	0xb75e610b	-1.3254826e-05
137	0xb7234269	-9.731019e-06
138	0xb6308f01	-2.6309283e-06
139	0x36951b47	4.4437215e-06
140	0x3704d98a	7.918463e-06
141	0x3711b35c	8.684434e-06
142	0x36ca1414	6.0224065e-06
143	0xb81f60dd	-3.7998765e-05
144	0x37cb2103	2.4214858e-05
145	0x34833b4b	2.4443793e-07
146	0xb7375ae4	-1.0928812e-05
147	0x37936a5c	1.7573293e-05
148	0x35bdfb25	1.415469e-06
149	0x34cad38c	3.7779353e-07
150	0x35f1b40c	1.80083e-06
151	0xb68bcb63	-4.1662e-06
152	0xb69e8f13	-4.725423e-06
153	0xb740250c	-1.1452717e-05
154	0x382e4334	4.154742e-05
155	0xb7e13956	-2.684879e-05
156	0x373b24f3	1.11546715e-05
157	0xb7e2a397	-2.7017477e-05
158	0x36620ba3	3.3683398e-06
159	0x3887ac8e	6.4694425e-05
160	0x365ac09c	3.2596645e-06
161	0x35b13d5c	1.3205386e-06
162	0x36a4edfd	4.9152864e-06
163	0x3711bcfe	8.686677e-06
164	0x37b14766	2.1133292e-05
165	0xb742d9f0	-1.1614044e-05
166	0x37c3550e	2.3285418e-05
167	0xb8cbeedf	-9.7242875e-05
168	0x392156c8	0.00015386485
169	0x3884f5bc	6.340022e-05
170	0x37f34ea4	2.9004477e-05
171	0x37a97ef2	2.0205483e-05
172	0xb81796c2	-3.614161e-05
173	0xb828f07d	-4.0278293e-05
174	0x3681c922	3.8679145e-06
175	0xb65365ce	-3.1500708e-06
176	0x366a64aa	3.4927311e-06
177	0x3691607e	4.33257e-06
178	0x37c95103	2.3998791e-05
179	0xb7c77ce4	-2.3780805e-05
180	0x381d44ac	3.7495673e-05
181	0x3640bb16	2.8719128e-06
182	0x381b2742	3.699144e-05
183	0x37789466	1.4816504e-05
184	0x379523d4	1.7778868e-05
185	0xb51bbc79	-5.8016263e-07
186	0x383c1dc5	4.4850418e-05
187	0x379c7640	1.8651714e-05
188	0xb7d96ad7	-2.5918167e-05
189	0xb740ea84	-1.1498694e-05
190	0xb7cd22cd	-2.445411e-05
191	0xb77638f2	-1.4676001e-05
192	0x37b58c47	2.1642203e-05
193	0xb71e394a	-9.4308725e-06
194	0x379efb59	1.895211e-05
195	0xb7dda9b5	-2.6424279e-05
196	0xb7b78748	-2.1878295e-05
197	0xb8274ebe	-3.9889237e-05
198	0x37984239	1.815065e-05
199	0xb810e69d	-3.454705e-05
200	0xb6cc6307	-6.091202e-06
201	0x36045a4d	1.9722095e-06
202	0xb54598f9	-7.3610823e-07
203	0xb7e70b37	-2.7542568e-05
204	0xb6296127	-2.5239513e-06
205	0xb767d6a8	-1.38186515e-05
206	0x374515a1	1.1747151e-05
207	0x3717dccc	9.05171e-06
208	0xb7e983f7	-2.7837215e-05
209	0xb849ddbb	-4.8128637e-05
210	0xb61bc220	-2.3209795e-06
211	0xb797c552	-1.8092487e-05
212	0x3756e5b7	1.2808879e-05
213	0x36f8294a	7.3957826e-06
214	0xb7029aa8	-7.7846125e-06
215	0xb7bcff45	-2.2530216e-05
216	0x37648715	1.362131e-05
217	0xb6d27b93	-6.2728736e-06
218	0x3743fb59	1.1681427e-05
219	0x379079c7	1.7222845e-05
220	0x37c4f62c	2.3479653e-05
221	0xb7e71f0a	-2.75518e-05
222	0x36d7510e	6.4169353e-06
223	0x35d742a1	1.603814e-06
224	0xb64bc886	-3.0366077e-06
225	0x3700365b	7.64205e-06
226	0x35a20cc6	1.2073658e-06
227	0x376b2a6d	1.40169695e-05
228	0x35c2cc8b	1.4513656e-06
229	0x3776d741	1.471286e-05
230	0x378ff1ba	1.7159491e-05
231	0xb79295e9	-1.7474364e-05
232	0xb8220f19	-3.863787e-05
233	0xb74dd3fd	-1.226831e-05
234	0xb5ac78a7	-1.2850113e-06
235	0x348f2563	2.6663028e-07
236	0x37830374	1.5618025e-05
237	0xb7b85e67	-2.1978469e-05
238	0xb7eb0478	-2.8016264e-05
239	0x364e5a1b	3.074884e-06
240	0x37cd7e0a	2.4496596e-05
241	0x37a0e4ca	1.9180025e-05
242	0xb7320a1a	-1.0611979e-05
243	0x373971a7	1.1053321e-05
244	0xb6f7a3a1	-7.3802225e-06
245	0xb7f0477c	-2.8643517e-05
246	0x373879e0	1.0995631e-05
247	0x385172dd	4.9936458e-05
248	0xb588ae50	-1.0183521e-06
249	0xb757f03e	-1.2870934e-05
250	0x3813f80b	3.527854e-05
251	0x375a85f4	1.3025001e-05
252	0x37b416ae	2.1468233e-05
253	0xb6bdb877	-5.6541135e-06
254	0x3703160b	7.813341e-06
255	0xb6fb7bc2	-7.49479e-06

exp_avg_sq f4 [21, 128]
0	0x2da712de	1.899408e-11
1	0x2e55bc63	4.8597914e-11
2	0x2e871410	6.142653e-11
3	0x2fa6f3d8	3.0368486e-10
4	0x2eb1fd3c	8.0940116e-11
5	0x2f89cfa1	2.5067684e-10
6	0x30a66477	1.2106643e-09
7	0x2fc0174e	3.4941156e-10
8	0x2fad4108	3.1514724e-10
9	0x31254988	2.4052458e-09
10	0x2fd9fc30	3.965126e-10
11	0x2f9d0b0a	2.8565977e-10
12	0x31e311e4	6.6086034e-09
13	0x31add931	5.0596545e-09
14	0x30d42a76	1.5437098e-09
15	0x310fefbe	2.0945516e-09
16	0x310b4ea9	2.0271875e-09
17	0x2fc1ac8b	3.5229095e-10
18	0x2fcaf6e6	3.6919018e-10
19	0x3049f9f7	7.3478595e-10
20	0x3010aade	5.262971e-10
21	0x2faed596	3.1802178e-10
22	0x30517eb2	7.62138e-10
23	0x3012da65	5.342485e-10
24	0x3048fccf	7.311884e-10
25	0x3058083e	7.8592055e-10
26	0x317e2ed7	3.698849e-09
27	0x306995bb	8.4977686e-10
28	0x2fc5b086	3.595952e-10
29	0x3094a77c	1.0816019e-09
30	0x30210548	5.8578964e-10
31	0x32134ceb	8.574015e-09
32	0x2fbd1e36	3.4400366e-10
33	0x308eec41	1.0399007e-09
34	0x30144b56	5.3949145e-10
35	0x308a12e1	1.0046187e-09
36	0x305a36bb	7.9385715e-10
37	0x30409a76	7.0068695e-10
38	0x309fd527	1.1629354e-09
39	0x308f763d	1.0438225e-09
40	0x30fbe098	1.8326487e-09
41	0x3096ee2b	1.0981628e-09
42	0x316129ff	3.2765681e-09
43	0x3142effd	2.8367133e-09
44	0x312f2fac	2.549295e-09
45	0x328ca95e	1.6375164e-08
46	0x319cf49b	4.568006e-09
47	0x31965df8	4.3762576e-09
48	0x309e30c3	1.1509872e-09
49	0x319c5f22	4.551013e-09
50	0x3112aa40	2.1342572e-09
51	0x30d304b2	1.5353605e-09
52	0x3130c2b8	2.5722056e-09
53	0x30dc2097	1.6016369e-09
54	0x30a637d6	1.2093959e-09
55	0x309be6bb	1.1343312e-09
56	0x31b12c44	5.1564104e-09
57	0x310fe62d	2.0940079e-09
58	0x31280252	2.4448537e-09
59	0x310b6f0a	2.029028e-09
60	0x30b62642	1.3253116e-09
61	0x308d57a2	1.0284007e-09
62	0x313a3d28	2.7101326e-09
63	0x3119de77	2.2390887e-09
64	0x3141aab4	2.818223e-09
65	0x31036219	1.911877e-09
66	0x310bff42	2.037226e-09
67	0x30dc7c8e	1.6042507e-09
68	0x313bae9a	2.731133e-09
69	0x3136cf95	2.6602482e-09
70	0x3107d062	1.9763537e-09
71	0x31aefc06	5.0927182e-09
72	0x30ef0d87	1.7393383e-09
73	0x307dca32	9.23282e-10
74	0x3101e42c	1.8901671e-09
75	0x310ea240	2.0755948e-09
76	0x30facf04	1.8248731e-09
77	0x30c71996	1.4486428e-09
78	0x316e4f5f	3.4678675e-09
79	0x310d4428	2.0556943e-09
80	0x31891b09	3.9902983e-09
81	0x31c66ad4	5.7747034e-09
82	0x311cb4d1	2.280377e-09
83	0x31284d74	2.4491245e-09
84	0x318df7ba	4.1318033e-09
85	0x31999166	4.469416e-09
86	0x311a1017	2.2419095e-09
87	0x319d6c2e	4.5816e-09
88	0x31056ecd	1.941703e-09
89	0x30a0237a	1.1651615e-09
90	0x313ffaae	2.7936653e-09
91	0x312c3c6b	2.5063638e-09
92	0x311d11c0	2.2856597e-09
93	0x319ba0a2	4.5293556e-09
94	0x30e4867a	1.6627404e-09
95	0x31b3b099	5.2296625e-09
96	0x314129c8	2.8108946e-09
97	0x3118c880	2.2232882e-09
98	0x3160beb7	3.27047e-09
99	0x317c0d7c	3.6678491e-09
100	0x313dae1d	2.7602092e-09
101	0x3143b4fa	2.8479108e-09
102	0x312afd44	2.488222e-09
103	0x3141f210	2.8222793e-09
104	0x31cb7a9c	5.9220167e-09
105	0x30d33df5	1.536988e-09
106	0x318a1894	4.019123e-09
107	0x316a9505	3.413619e-09
108	0x315aa923	3.1819318e-09
109	0x30f2ee2b	1.7675509e-09
110	0x3142048b	2.8233298e-09
111	0x311f1e7e	2.3154878e-09
112	0x317501aa	3.5653138e-09
113	0x31b76492	5.3374345e-09
114	0x3234b20f	1.0517865e-08
115	0x3118bda1	2.2226703e-09
116	0x314a6177	2.9450271e-09
117	0x3182dec0	3.8088217e-09
118	0x30e9964c	1.6995698e-09
119	0x314a628b	2.9450884e-09
120	0x31954777	4.3445954e-09
121	0x319ae807	4.5083683e-09
122	0x31927aee	4.2631347e-09
123	0x31c3bc56	5.6966583e-09
124	0x314b0482	2.954295e-09
125	0x30ef1d27	1.7397824e-09
126	0x31a75628	4.8701345e-09
127	0x316f5811	3.4829137e-09
128	0x2e3cb7ab	4.290938e-11
129	0x2f3721f0	1.665581e-10
130	0x2f7ab100	2.280025e-10
131	0x3013a43f	5.3711696e-10
132	0x2fdadc0c	3.9810322e-10
133	0x30290531	6.148922e-10
134	0x30adaa44	1.2635799e-09
135	0x31191dbc	2.2281332e-09
136	0x3085cb69	9.734836e-10
137	0x3103941a	1.9147195e-09
138	0x30adfa2a	1.2658508e-09
139	0x30b9a94a	1.3508636e-09
140	0x31492786	2.9271816e-09
141	0x3224af50	9.585918e-09
142	0x31c659f3	5.7727845e-09
143	0x3314c46c	3.463758e-08
144	0x32df2b3c	2.5980277e-08
145	0x30b5a6b7	1.3216866e-09
146	0x306685eb	8.386382e-10
147	0x3187c5e3	3.9515142e-09
148	0x3122e7eb	2.3705933e-09
149	0x31139a16	2.1478903e-09
150	0x30cd1ecc	1.4924466e-09
151	0x31712e14	3.5096308e-09
152	0x311bdfed	2.2682756e-09
153	0x3115ef58	2.1818405e-09
154	0x33906b1e	6.725007e-08
155	0x320f9684	8.357919e-09
156	0x30f2f418	1.7677193e-09
157	0x324ced68	1.1928343e-08
158	0x3143161c	2.8388802e-09
159	0x33ff999a	1.1902303e-07
160	0x310c0d42	2.0380218e-09
161	0x31ca78ba	5.8926988e-09
162	0x30e5f4e0	1.6731541e-09
163	0x3183abc2	3.8321284e-09
164	0x3175c498	3.5763943e-09
165	0x32184aae	8.864545e-09
166	0x31d58a51	6.2148406e-09
167	0x334fc9ed	4.8379594e-08
168	0x33eb1c04	1.0948136e-07
169	0x32f0b9ec	2.8024225e-08
170	0x329b7949	1.8099529e-08
171	0x314b87e5	2.9617635e-09
172	0x31abb774	4.997611e-09
173	0x3280cac2	1.4993365e-08
174	0x31358af0	2.6417943e-09
175	0x317e62cb	3.7018022e-09
176	0x31981eab	4.4272688e-09
177	0x32c1a6ba	2.2543976e-08
178	0x3302170b	3.028894e-08
179	0x3180b9b7	3.7464036e-09
180	0x32af7245	2.0424645e-08
181	0x30ec2bd8	1.7183721e-09
182	0x31ad09ea	5.0360898e-09
183	0x32827a34	1.5189563e-08
184	0x321efce8	9.254315e-09
185	0x32003d08	7.4644575e-09
186	0x332f367b	4.0794912e-08
187	0x32676ef6	1.3471199e-08
188	0x3224c757	9.591381e-09
189	0x3209ba84	8.016858e-09
190	0x3292b6cc	1.7079763e-08
191	0x3220fa2a	9.3701065e-09
192	0x329ca428	1.823544e-08
193	0x323532fe	1.0547181e-08
194	0x31eb2510	6.8436137e-09
195	0x3212426e	8.513423e-09
196	0x321bd109	9.0697165e-09
197	0x32c7653d	2.3212687e-08
198	0x32feb96b	2.965381e-08
199	0x329087b0	1.682551e-08
200	0x3361f6b7	5.261128e-08
201	0x32992a7b	1.7830862e-08
202	0x324c8b10	1.1905982e-08
203	0x32acefd1	2.0132491e-08
204	0x3217f2da	8.844575e-09
205	0x322a99e1	9.93029e-09
206	0x32206038	9.335103e-09
207	0x31ceef01	6.0225607e-09
208	0x32e96128	2.7168952e-08
209	0x33582b54	5.0330826e-08
210	0x31a80f97	4.891216e-09
211	0x31f6cac3	7.1825936e-09
212	0x3280216f	1.4916365e-08
213	0x3259b5a2	1.2672361e-08
214	0x3253b6bd	1.2323366e-08
215	0x32d75d21	2.5071644e-08
216	0x323c54d2	1.0962326e-08
217	0x31db0fdd	6.3755423e-09
218	0x327d9523	1.4760448e-08
219	0x324b326d	1.1827621e-08
220	0x3266ca77	1.3433797e-08
221	0x32507753	1.2134325e-08
222	0x32198864	8.936784e-09
223	0x31a1c189	4.707719e-09
224	0x31b53675	5.2739844e-09
225	0x31ed6002	6.9085226e-09
226	0x32b0160c	2.0499122e-08
227	0x32890d35	1.5954905e-08
228	0x3245edd4	1.1520985e-08
229	0x3209453e	7.990193e-09
230	0x3216d0fe	8.7786685e-09
231	0x3214c9ae	8.6605905e-09
232	0x3253268e	1.2290583e-08
233	0x32085fb2	7.9380005e-09
234	0x32003c57	7.4643e-09
235	0x325d75f5	1.2890713e-08
236	0x321d2669	9.147336e-09
237	0x3235db05	1.0585386e-08
238	0x320b5703	8.110649e-09
239	0x325f2f09	1.2991003e-08
240	0x325085ad	1.2137588e-08
241	0x32615fd1	1.311851e-08
242	0x324103d7	1.1234952e-08
243	0x31e66b0e	6.7060517e-09
244	0x326f0bd1	1.3914318e-08
245	0x32225f4b	9.451308e-09
246	0x325167d0	1.2189005e-08
247	0x32127d2d	8.52678e-09
248	0x324cf23b	1.192944e-08
249	0x31febf02	7.414088e-09
250	0x32042a11	7.692976e-09
251	0x321ab9b5	9.006205e-09
252	0x31cb637b	5.919387e-09
253	0x32075010	7.876238e-09
254	0x3238b4e7	1.0751342e-08
255	0x32415002	1.125227e-08

exp_avg f4 [21]
0	0x394e17ff	0.0001965463
1	0x38f7d5a3	0.00011817671
2	0x394b3f4e	0.00019383171
3	0x3966cbf1	0.00022010483
4	0x39ef791b	0.00045675863
5	0x385e23a6	5.2962125e-05
6	0xbaa8c457	-0.0012875897
7	0x396f370e	0.00022813326
8	0x3a38327b	0.0007026565
9	0x3a87acf2	0.0010351224
10	0x3a39b087	0.00070834946
11	0x3a112a7f	0.00055376434
12	0x397863a8	0.00023688248
13	0x394f985a	0.00019797814
14	0x38a96373	8.077072e-05
15	0x38d2a3c4	0.00010044084
16	0x39a90611	0.00032238712
17	0x3922d45d	0.00015528635
18	0x3989b92c	0.0002626864
19	0x393d3bcb	0.00018046719
20	0x3948dce8	0.0001915578

exp_avg_sq f4 [21]
0	0x34aa9e22	3.1780024e-07
1	0x35e22b91	1.6850992e-06
2	0x3513218f	5.48106e-07
3	0x34467fd3	1.8486689e-07
4	0x36a910af	5.0385347e-06
5	0x3619c2ce	2.2912168e-06
6	0x356c1016	8.794026e-07
7	0x34aa86c5	3.1763025e-07
8	0x3616e387	2.248418e-06
9	0x368c9bbe	4.190456e-06
10	0x35bb816d	1.3970254e-06
11	0x359bad51	1.1598842e-06
12	0x345a4375	2.0327373e-07
13	0x34d66c16	3.993925e-07
14	0x34d19479	3.9037312e-07
15	0x35da041f	1.6243465e-06
16	0x35fe01b2	1.8924968e-06
17	0x351d1cc1	5.85289e-07
18	0x3636eb09	2.7256922e-06
19	0x355984ab	8.1031857e-07
20	0x3493ae80	2.750785e-07
