models/best_AudioNet1.pth (torch, 67351 bytes, 6 tensors)

fc1.weight f4 [21, 256]
000000 49 21 db bd 83 fe 2f 3e 15 2b d3 3b 4c 58 a5 bc
       -0.10699708 0.17186932 0.0064443448 -0.020183705
000010 3d a4 9c 3e 08 5f ea 3d e9 cc cb 3d c0 38 16 be
       0.30594054 0.11443907 0.09951193 -0.14670086
000020 c0 73 e3 be dd a2 3b bd cc 42 3a bc 7c 7c a5 bc
       -0.44424248 -0.045809615 -0.011368465 -0.02020096
000030 ee 81 43 3e fd 85 fb bd 97 c6 4d 3e ba 9e 55 be
       0.19092533 -0.122814156 0.20095287 -0.2086133
000040 d1 31 80 3e 94 ff 3b 3e 5c 48 e5 bc 84 cf 80 3e
       0.25038007 0.18359214 -0.027988605 0.25158322
000050 2c bf 82 3e af 5e 45 be 7d c9 c7 3d cd c5 84 3b
       0.25536478 -0.192744 0.09755228 0.0040519
000060 07 a5 df bd da fb 05 3e 52 78 33 3e e3 ed 2f 3d
       -0.10920148 0.13084355 0.17526367 0.042951476
000070 cb a1 60 3e 06 df 19 3e f3 9f 19 3e 1a 67 df bd
       0.21936719 0.15026483 0.15002422 -0.10908337
000080 af 3c 02 3e fe 3a 7d be 2b 3c 93 bc dc 3c 17 3e
       0.12718461 -0.24729535 -0.017973026 0.1476931
000090 ee 72 1f 3e b9 fa 9b 3e 94 58 03 bd 57 00 54 be
       0.15571186 0.30464724 -0.032066897 -0.20703255
0000a0 83 03 e2 bd 2b 02 8f bc be d1 3e 3d a4 86 31 be
       -0.11035826 -0.017457088 0.046586744 -0.17336518
0000b0 f9 e1 c8 bc cb 77 42 bd 4d f7 51 3d 83 96 21 3e
       -0.024521815 -0.047477525 0.051261235 0.15780072
0000c0 07 7d 3d bd 74 e9 31 3d 82 aa 2c bc 6c 35 10 bc
       -0.046261813 0.04343553 -0.010538699 -0.008801799
0000d0 e1 70 6f 3b b0 c9 c0 bb b5 74 8b be 95 65 28 bd
       0.0036535787 -0.005883418 -0.27237478 -0.0411125
0000e0 59 50 97 be 33 e0 6b 3e f2 fe f4 bd 70 1d 5a 3d
       -0.29553488 0.23034744 -0.119626895 0.05325073
0000f0 ee a9 13 be 3c 99 9b bb 87 05 bf 3d a1 a2 70 3d
       -0.14420292 -0.0047484916 0.09327226 0.058748845
000100 1b 7a 8a 3d ed f7 18 bd a1 23 81 3e 20 04 a0 3d
       0.06761571 -0.037345815 0.25222495 0.07813287
000110 f9 2d f1 3e 78 70 57 bd b9 8a 19 be 14 1d 2d 3e
       0.47105387 -0.052597493 -0.14994325 0.16905624
000120 19 f9 0d be 59 00 26 3c 9d f4 ed 3d 5d 48 78 3d
       -0.13864554 0.010131919 0.11618922 0.060615886
000130 ff ed 75 be 8b 6b 6c 3d 40 b8 0a 3e 65 67 38 3a
       -0.2401657 0.05771975 0.13546848 0.000703445
000140 82 46 f6 3d a8 dc 17 bd 0f 8a 5c 3c 29 76 4c 3e
       0.12025167 -0.03707567 0.01346065 0.1996695
000150 6e 70 b8 bd 5a 19 48 be 23 df 92 3e 37 7e f6 3d
       -0.09005819 -0.19540921 0.28685865 0.12035792
000160 33 73 e5 bd 3c 56 b6 3d 02 48 2b 3e 71 4c d6 bd
       -0.11203613 0.08903167 0.16726688 -0.10463799
000170 d6 c8 1b be a8 3c 0c be 1c 77 7f be ae f8 3b 3e
       -0.15213332 -0.13695014 -0.2494778 0.18356583
000180 c2 f7 8b 3e ef 40 92 bc 76 b3 1e bd 70 98 50 3e
       0.27337462 -0.017853228 -0.038745366 0.2037065
000190 80 6f 3c 3d 47 58 47 bc a3 2f 2c be 75 fe 53 bc
       0.046004772 -0.012167043 -0.16815047 -0.012939085
0001a0 15 90 01 be 1e 8f 96 3e 93 e8 a3 be db 3f 6d bd
       -0.12652619 0.29406065 -0.32013378 -0.057922225
0001b0 19 0a 8f be bd bf 95 be 86 1b 3e bd d9 df 80 3c
       -0.2793739 -0.29247847 -0.046412967 0.015731739
0001c0 d4 42 b2 3d 1c 33 70 3d 7b d7 06 3e 41 e1 64 bd
       0.08704153 0.05864249 0.13168137 -0.05587888
0001d0 c0 da eb 3d b3 d5 17 bd 57 ce 80 bc e2 b1 74 be
       0.115163326 -0.037069034 -0.01572339 -0.23895982
0001e0 ac 91 10 bd 43 db 45 be e4 50 8d bc 15 7a a0 bd
       -0.035295174 -0.19321923 -0.017250486 -0.07835785
0001f0 af db b2 3e 5b 42 84 3e 75 24 aa 3d cb f5 89 3c
       0.3493323 0.25831875 0.08307735 0.016840836
000200 cd e6 3f be 83 a2 88 3e 86 9e 72 3c a8 3f 09 bd
       -0.18740387 0.26686487 0.014808303 -0.033507973
000210 91 3c 61 3e 32 ff 34 3e 86 6f 89 3d 7d 2b 9f bd
       0.2199576 0.17675474 0.067107245 -0.077719666
000220 1a 97 0b bf fb 51 20 bc 8a 51 2c 3d f6 0f bd bd
       -0.5452744 -0.009785171 0.04206995 -0.0923156
000230 5d e1 bf 3d 91 37 b1 bd f8 e9 71 3e 31 a5 51 bd
       0.093691565 -0.086531766 0.23624408 -0.05118293
000240 9a 2e 42 3e 23 26 04 3e 33 13 03 bd 8d d6 24 3e
       0.1896309 0.12905173 -0.03200073 0.1609747
000250 4b 24 a3 3e 1c 4b b3 bd ef 7b 18 3d 2b 7f 2a 3d
       0.31863627 -0.0875456 0.037227567 0.041625183
000260 37 11 69 bd 16 e9 de 3d 76 95 0e 3e 59 59 6e 3b
       -0.056901183 0.10884301 0.13924202 0.0036369173
000270 53 18 1b 3e 41 dd a1 3d 3f ef f7 3d 6e c7 31 be
       0.15145998 0.07903529 0.121061794 -0.17361233
000280 ae db 6f 3d 35 3c 72 be c5 2b c4 3d ab 04 2d 3e
       0.058559112 -0.2365578 0.09578661 0.16896312
000290 b8 75 33 3e 00 37 80 3e e2 a3 23 3d 28 c7 8a be
       0.17525375 0.25041962 0.039951213 -0.2710507
0002a0 3e 72 26 be 9e a2 e2 3c 04 65 0b 3c b8 9c de bd
       -0.16254517 0.027665433 0.008507971 -0.108697355
0002b0 07 fa c7 bd fc f6 69 3e f2 c0 84 3d 7c 22 23 3e
       -0.09764486 0.22848123 0.06482114 0.15931123
0002c0 b1 f1 47 3d 88 4e 82 3e 14 eb 07 3d 52 9e 9a bd
       0.04881448 0.2545054 0.033183172 -0.075497285
0002d0 08 d4 90 3b 1d 99 49 bd 21 7d 8d be 27 74 0f bd
       0.0044198073 -0.049218286 -0.27634528 -0.03502288
0002e0 bb 39 34 be e6 a3 8e 3e f5 2e ee bd 9a 01 4f bc
       -0.17600147 0.2785942 -0.1163005 -0.012634659
0002f0 9a ee c7 3d ed 8b 11 3d 8a 0b 17 3d a7 04 21 3c
       0.097623065 0.035533834 0.03687624 0.009827769
000300 10 2f d7 3d 33 15 98 3c 4b 28 47 3e ab c8 80 b7
       0.10507023 0.018564796 0.19448964 -1.5352232e-05
000310 fb 45 9b 3e 82 eb 3a bd 79 e8 5c be 40 41 4e 3e
       0.30326828 -0.045634754 -0.21573056 0.20142078
000320 90 b3 32 be 94 12 a7 bc b3 1c 50 3d 97 b5 fd 3c
       -0.1745131 -0.0203946 0.05080862 0.030970378
000330 4b 98 22 be 52 ad 6c 3d f4 2a 09 3e ab 94 36 3d
       -0.15878408 0.05778248 0.13395292 0.044575375
000340 f5 d7 27 3e e4 42 0b be 18 93 3a bd ec f4 17 3e
       0.16390975 -0.13599735 -0.045550436 0.14839524
000350 45 91 c1 bc 11 83 62 be 32 e0 cb 3e de 68 f7 3d
       -0.02362884 -0.2212031 0.39819485 0.12080549
000360 33 e8 55 3e 35 cc ae 3c 67 9a cc 3e 2e c6 88 bd
       0.20889358 0.021337608 0.3996155 -0.06678425
000370 5c 3f b3 bd 30 e0 6b bd ba 16 79 be db d2 9a 3d
       -0.08752319 -0.05758685 -0.24325076 0.07559749
000380 43 6c 72 3e b1 db fa bc 3b 3c 64 3d b3 8b 49 3e
       0.23674111 -0.030622335 0.055721503 0.19682197
000390 20 01 04 3d 77 d3 1e bd d6 70 03 be 6c 7b 98 bd
       0.032227635 -0.038775887 -0.12836012 -0.07445416
0003a0 b0 b8 fd bd fb 73 4c 3e e4 f6 51 be c1 89 20 bd
       -0.12388742 0.19966118 -0.20504338 -0.039193872
0003b0 e0 45 39 be 0f a4 77 be 77 7f 04 be 10 93 3b 3d
       -0.18093061 -0.24183677 -0.12939249 0.045794547
0003c0 8d 2b ff 3c ad 05 00 3e 3e ea da 3d 3e 19 15 be
       0.031148696 0.12502165 0.106892094 -0.1456041
0003d0 92 ca da 3c d3 16 02 be 7d ae 79 bc c3 12 5a be
       0.026707921 -0.12704019 -0.015239355 -0.2129622
0003e0 02 e6 78 bd 85 a4 a2 be c6 10 8b bd bf bc 16 bd
       -0.060766228 -0.31766143 -0.06790309 -0.036801096
0003f0 a8 ec 9b 3e 73 7f 6a 3e 3b 48 9f 3c 76 56 70 3d
       0.30453992 0.2290018 0.019443622 0.058676206

fc1.bias f4 [21]
000000 fa c4 a1 be 0a 85 8a be da 30 58 be f7 51 9d be
       -0.31595594 -0.27054626 -0.21112385 -0.30726597
000010 2f 1e a1 be be d2 a8 be c0 ac c4 be a4 bf a3 be
       -0.3146834 -0.32973284 -0.38413048 -0.31982148
000020 79 62 6e be bb e6 69 be 29 7e 2e be 1b a1 2c be
       -0.23279752 -0.22841923 -0.17040314 -0.16858332
000030 fd 91 ab be 85 b6 c6 be a1 f5 91 bd ae 5a 89 be
       -0.33509818 -0.38811126 -0.07126928 -0.26826996
000040 54 c7 61 be 64 cd 95 be d7 76 94 be db 2f 52 be
       -0.22048694 -0.29258263 -0.28996918 -0.20526068
000050 20 e3 ea be
       -0.45876408

exp_avg f4 [21, 256]
000000 86 4f a9 37 18 87 a8 b8 c4 b6 5e b9 08 e5 f8 38
       2.0183401e-05 -8.0360274e-05 -0.00021239655 0.00011868222
000010 73 27 ad 38 5c a5 fb 37 77 4c 8d 38 79 e0 83 b7
       8.256631e-05 2.9998533e-05 6.7376466e-05 -1.5720945e-05
000020 6b a5 cb 38 e6 d1 39 b8 aa 82 d1 b7 88 e4 65 b8
       9.710606e-05 -4.430292e-05 -2.4975587e-05 -5.481069e-05
000030 8a d9 a9 37 14 7a 3a b8 6f c2 0e 38 7d 94 90 36
       2.024767e-05 -4.445955e-05 3.403652e-05 4.3088207e-06
000040 d9 17 1a 38 e0 dd 81 b8 32 0d a4 38 ee 5b 28 38
       3.673867e-05 -6.192527e-05 7.822587e-05 4.0139937e-05
000050 7a 6c f4 38 12 2c 34 b8 dc c2 c4 38 e0 19 33 b9
       0.00011655032 -4.2956388e-05 9.382304e-05 -0.0001708041
000060 c2 c7 f0 37 c3 e1 fc 36 b4 0c 66 37 35 2f c5 b7
       2.8703249e-05 7.5364674e-06 1.3712026e-05 -2.3506213e-05
000070 62 c7 31 38 6d e6 02 39 b0 08 08 b8 6b bb c6 38
       4.238578e-05 0.00012483606 -3.2433018e-05 9.476285e-05
000080 04 d9 16 37 38 75 09 b9 f5 38 ab b8 01 7b 51 b6
       8.991225e-06 -0.00013109006 -8.1645245e-05 -3.1215025e-06
000090 a2 c3 9e 38 89 77 ad b8 57 6d 3e 38 55 35 08 b8
       7.5704666e-05 -8.271548e-05 4.540136e-05 -3.2474596e-05
0000a0 20 f4 35 38 47 5b 25 b8 d7 17 8b b8 be bd 2b 38
       4.3381122e-05 -3.9424074e-05 -6.632477e-05 4.094629e-05
0000b0 1d 5a 25 38 b1 2a fa 36 74 a1 9f b7 79 13 0e b8
       3.942299e-05 7.4555505e-06 -1.902946e-05 -3.3873574e-05
0000c0 a5 00 d0 b8 0f 08 57 38 51 c2 cd b6 46 9e 7a 35
       -9.918333e-05 5.12675e-05 -6.1320975e-06 9.3362576e-07
0000d0 72 45 36 b8 d9 1e e2 37 90 25 a3 b8 41 51 62 b9
       -4.3456857e-05 2.6955664e-05 -7.779442e-05 -0.00021583309
0000e0 da 5d 53 b6 6d ad 75 37 b0 68 d1 37 62 9b 2a b9
       -3.149608e-06 1.4643517e-05 2.496349e-05 -0.00016270348
0000f0 07 02 45 36 e2 ec f1 38 14 ad 48 37 d9 7a c8 b7
       2.9356468e-06 0.000115358984 1.1961227e-05 -2.3899063e-05
000100 2d 06 d5 b7 30 1e b1 b8 fa f8 53 38 26 cd 2b b8
       -2.5394454e-05 -8.4456406e-05 5.0538198e-05 -4.0960636e-05
000110 6c ce a2 37 98 44 a9 b9 6d ee 85 b8 8b dd 18 38
       1.9408028e-05 -0.00032285298 -6.3863445e-05 3.6445952e-05
000120 8b ae 4a b8 45 64 dc 37 9a 43 31 38 42 8f 4c 37
       -4.832311e-05 2.6272735e-05 4.2263047e-05 1.2192702e-05
000130 69 99 cb 37 d3 72 8b 38 1b df 9f 37 0b 9e 4c b8
       2.4270923e-05 6.649424e-05 1.9058169e-05 -4.878458e-05
000140 bd ec 63 b8 14 e6 bb 38 42 b2 21 b8 7c c2 72 38
       -5.4341497e-05 8.95971e-05 -3.8551407e-05 5.7878424e-05
000150 22 a4 17 b7 95 62 d1 37 3d 57 1f b8 d1 f7 c4 37
       -9.0385165e-06 2.4960647e-05 -3.79898e-05 2.348042e-05
000160 1e 93 53 b7 e9 b8 f9 b6 2e d2 a9 37 c5 20 52 b8
       -1.2610833e-05 -7.4423046e-06 2.0244242e-05 -5.009842e-05
000170 02 59 5b 38 ab b3 d7 37 06 3b 45 38 ed d7 0d 37
       5.2296564e-05 2.5713662e-05 4.702343e-05 8.454529e-06
000180 23 c4 c1 30 43 01 37 b7 3b 67 84 b6 4a b4 c0 38
       1.4098344e-09 -1.0907944e-05 -3.945924e-06 9.188855e-05
000190 4c 56 48 38 da 84 97 b8 f3 e3 95 38 f4 08 63 b9
       4.7764086e-05 -7.2249866e-05 7.1473325e-05 -0.00021651742
0001a0 2e ff 23 b9 c5 58 bd 38 8d c3 e7 37 54 07 35 b9
       -0.00015639953 9.028757e-05 2.7628406e-05 -0.00017264235
0001b0 f0 ef 0a 38 ff 3d b9 38 cf 17 86 b9 dc f1 85 b8
       3.3125223e-05 8.833035e-05 -0.0002557621 -6.386984e-05
0001c0 34 21 45 37 a9 fb 53 38 cc bc b3 37 ec 88 be b8
       1.1749846e-05 5.0540697e-05 2.1426378e-05 -9.08541e-05
0001d0 7e 6e 17 b9 cb a2 5e 39 d8 3e 6c b8 3f 21 62 b8
       -0.00014441644 0.00021232215 -5.6325312e-05 -5.391356e-05
0001e0 3b 51 3c b8 a9 50 d0 37 86 20 7f 38 c7 a4 62 38
       -4.4898345e-05 2.4833093e-05 6.0827027e-05 5.403606e-05
0001f0 59 60 b0 38 e0 d1 58 b8 05 2b 7f b9 69 f2 80 b6
       8.41028e-05 -5.1693874e-05 -0.00024334721 -3.8429175e-06
000200 9b c9 bc 37 8d 48 98 b8 60 4a 7a b9 0e 48 fb 38
       2.2505226e-05 -7.2614384e-05 -0.00023869565 0.00011982034
000210 2d 23 b9 38 a5 94 0a 38 0e e1 97 38 cf b9 9a b7
       8.8280394e-05 3.30402e-05 7.242161e-05 -1.8444754e-05
000220 5d 51 b9 38 5a 2e 31 b8 ee d9 e2 b5 84 61 65 b8
       8.8366425e-05 -4.2243257e-05 -1.6901738e-06 -5.4688673e-05
000230 47 8d 0e 37 c1 9e 47 b8 bd 05 e6 37 11 31 27 38
       8.496753e-06 -4.759315e-05 2.7420809e-05 3.98616e-05
000240 e0 ff 10 38 33 c8 c0 b8 73 5b 75 38 94 53 cb 37
       3.4570578e-05 -9.1925634e-05 5.849772e-05 2.4238405e-05
000250 f3 1d 02 39 a9 d6 40 b8 ec 0c d2 38 35 61 4a b9
       0.00012408923 -4.5976285e-05 0.00010015987 -0.00019300434
000260 da 50 10 38 98 46 01 37 93 9b 6b 37 d6 a4 a7 b7
       3.4407574e-05 7.705436e-06 1.4043314e-05 -1.9984709e-05
000270 5c 73 3d 38 7a 3e 11 39 ce 74 1a b8 c5 13 d3 38
       4.516855e-05 0.00013851552 -3.6825244e-05 0.000100649464
000280 40 2a 18 37 a2 b4 0d b9 0a ca a2 b8 c2 7e 39 37
       9.069743e-06 -0.00013514099 -7.762395e-05 1.1056372e-05
000290 3c 0b 92 38 4b b0 b9 b8 86 9c 4e 38 f4 61 d6 b7
       6.963915e-05 -8.8543246e-05 4.926e-05 -2.5556401e-05
0002a0 81 9f 6d 38 5b ed 16 b8 e1 79 94 b8 49 8a 0c 38
       5.6653753e-05 -3.598384e-05 -7.079892e-05 3.350739e-05
0002b0 2b 02 2f 38 b6 8e 52 37 56 4f d2 b7 85 d3 0b b8
       4.172527e-05 1.2550203e-05 -2.5070894e-05 -3.3337175e-05
0002c0 f6 2f b8 b8 bc 92 dd 37 de e8 5b 36 ae 6e ea 36
       -8.782737e-05 2.6413582e-05 3.276909e-06 6.9866283e-06
0002d0 c6 3c 32 b8 74 ad b7 37 f4 d2 a9 b8 70 28 5b b9
       -4.2495107e-05 2.189607e-05 -8.097841e-05 -0.00020900532
0002e0 f5 4c 1b 38 55 6a b1 37 8d 8a ef 37 09 32 3d b9
       3.702655e-05 2.1149559e-05 2.8555538e-05 -0.00018043084
0002f0 b5 16 8c 37 44 cb 16 39 1f be 5d 37 2e 7f 17 b8
       1.6699874e-05 0.00014380837 1.32168925e-05 -3.611965e-05
000300 c4 99 53 b7 ba ae 9e b8 3c 92 89 38 7c 29 08 b8
       -1.2612381e-05 -7.5665725e-05 6.559907e-05 -3.2463562e-05
000310 84 6f c4 37 d3 3f 9b b9 94 68 aa b8 7a 2e 18 38
       2.341695e-05 -0.00029611457 -8.125711e-05 3.628291e-05
000320 b0 2c 35 b8 a1 09 d3 37 1c 46 16 38 b6 11 b8 37
       -4.319538e-05 2.5157644e-05 3.582808e-05 2.1942757e-05
000330 87 8e 38 38 3e c9 5a 38 8b 53 b9 37 dd c4 19 b8
       4.4001757e-05 5.216267e-05 2.2092621e-05 -3.6661386e-05
000340 52 bd 90 b8 eb af da 38 71 2d 24 b8 26 8a 8e 38
       -6.901719e-05 0.00010427817 -3.9142968e-05 6.79682e-05
000350 bf c5 46 b7 cc 3f c2 37 9f 7a 14 b7 68 13 00 38
       -1.1847761e-05 2.315631e-05 -8.850037e-06 3.053565e-05
000360 06 f7 ee b5 77 7e 75 b7 80 c4 2c 37 dc cd 44 b8
       -1.7804275e-06 -1.4632583e-05 1.029775e-05 -4.6921763e-05
000370 02 5b 64 38 9d 06 bc 37 d6 2a 4a 38 01 9a d4 36
       5.4444194e-05 2.2414426e-05 4.8200447e-05 6.3360208e-06
000380 23 c4 c1 30 db 7e 93 b7 23 c2 b4 b7 22 8d b8 38
       1.4098344e-09 -1.7582837e-05 -2.1548074e-05 8.800092e-05
000390 1e 64 9c 37 43 27 96 b8 f3 56 86 38 bd 57 5d b9
       1.864327e-05 -7.1598704e-05 6.4058135e-05 -0.00021108887
0003a0 40 66 0c b9 a8 fe cb 38 91 20 17 38 e4 32 32 b9
       -0.00013389532 9.727228e-05 3.6031535e-05 -0.00016994361
0003b0 51 a6 f2 37 54 e6 b3 38 21 07 81 b9 d9 b5 82 b8
       2.8926095e-05 8.578287e-05 -0.0002461011 -6.232755e-05
0003c0 f5 78 2e 37 41 09 7c 38 c0 d7 bf 37 ad 40 ec b8
       1.0399371e-05 6.00901e-05 2.286944e-05 -0.00011265404
0003d0 a1 fd 17 b9 a1 73 70 39 19 84 62 b8 e5 d8 89 b8
       -0.00014494966 0.00022931259 -5.4005624e-05 -6.573069e-05
0003e0 6a 71 6b b8 41 aa d3 37 50 22 a6 38 50 a4 7c 38
       -5.613399e-05 2.523244e-05 7.921888e-05 6.023451e-05
0003f0 33 9d e6 38 a6 a9 8c b8 e1 12 87 b9 9e d8 66 b7
       0.00010996535 -6.70732e-05 -0.00025763272 -1.3759503e-05

exp_avg_sq f4 [21, 256]
000000 ce 95 ee 32 55 27 88 33 f9 c8 3d 34 88 63 04 34
       2.777497e-08 6.340148e-08 1.767511e-07 1.2329667e-07
000010 3d 5e 11 34 9d d4 8a 33 35 b4 e4 33 34 ae 77 35
       1.3538461e-07 6.4648e-08 1.0649857e-07 9.226817e-07
000020 a7 14 85 33 c5 09 bf 34 a9 8f 16 33 34 0d b5 34
       6.197052e-08 3.558363e-07 3.5055255e-08 3.3723484e-07
000030 92 64 25 34 ca 09 f7 33 59 be dc 33 01 18 4b 33
       1.540341e-07 1.15036144e-07 1.02791724e-07 4.7286452e-08
000040 74 81 b7 33 d4 87 d0 33 9d 57 d6 33 9a 1c b7 33
       8.545149e-08 9.710462e-08 9.981088e-08 8.526804e-08
000050 b3 56 6b 33 db 93 29 33 64 54 ac 33 f6 1d a3 33
       5.4794054e-08 3.9482853e-08 8.024725e-08 7.595729e-08
000060 33 c6 99 33 8c 88 d9 31 57 f2 ad 32 f3 5c 45 33
       7.16067e-08 6.331055e-09 2.0250054e-08 4.5952174e-08
000070 09 06 c5 32 e4 1c a6 33 a2 16 76 33 5f 13 c5 33
       2.2936563e-08 7.7352325e-08 5.7296923e-08 9.177051e-08
000080 63 0e b7 31 28 4c 21 33 45 83 68 34 3c 67 1b 34
       5.3276366e-09 3.7554997e-08 2.165444e-07 1.4473056e-07
000090 b9 7c be 34 d8 50 d5 33 74 ab 89 33 0e 5a b0 33
       3.5481006e-07 9.933291e-08 6.410747e-08 8.2120195e-08
0000a0 49 a9 f0 32 0f 31 eb 33 48 0f 75 33 39 a5 c1 32
       2.801666e-08 1.0951964e-07 5.7057406e-08 2.2543292e-08
0000b0 3e 2d 5e 33 86 8c 8b 33 dc 70 17 34 40 94 ed 33
       5.172955e-08 6.498253e-08 1.4104029e-07 1.1063139e-07
0000c0 d2 c2 47 33 ec 51 db 33 0e 7c 15 33 e4 43 1a 33
       4.6510486e-08 1.0212884e-07 3.4804593e-08 3.5917665e-08
0000d0 80 55 12 34 b0 c5 eb 32 ca 72 e3 32 62 af 38 34
       1.3628414e-07 2.7447498e-08 2.6478478e-08 1.7200139e-07
0000e0 0a d6 47 33 20 73 1a 34 71 36 db 32 1a ee 1a 34
       4.6527965e-08 1.438425e-07 2.5519713e-08 1.4428988e-07
0000f0 a5 c1 e8 33 ca 0f 83 33 32 cd 36 32 b8 b2 85 32
       1.08385656e-07 6.103035e-08 1.064045e-08 1.556451e-08
000100 e4 32 ef 33 b3 8b 74 35 28 26 db 32 68 56 7b 33
       1.1138562e-07 9.110037e-07 2.5512307e-08 5.8519078e-08
000110 6f d7 5c 33 5b 90 5b 34 a7 fd 5f 33 e9 5b c2 33
       5.1418677e-08 2.044848e-07 5.215193e-08 9.050547e-08
000120 be 17 c5 33 33 8d 14 33 80 04 73 33 f0 7a 84 33
       9.177846e-08 3.4587355e-08 5.658194e-08 6.169091e-08
000130 e5 d3 9d 33 42 9a 93 33 91 b8 28 33 10 d8 bc 33
       7.3494256e-08 6.87328e-08 3.928341e-08 8.793734e-08
000140 11 44 84 33 ed d2 87 34 9d d1 3e 33 ca 19 a5 33
       6.15911e-08 2.5299178e-07 4.4428464e-08 7.688102e-08
000150 a0 f6 e2 31 a4 84 d6 33 78 f6 ff 33 af 9b 6c 33
       6.6055037e-09 9.989279e-08 1.1919195e-07 5.5089625e-08
000160 24 2a 47 33 31 31 e5 33 6c 8f 63 33 a8 88 2c 33
       4.6371625e-08 1.0672591e-07 5.2982998e-08 4.017116e-08
000170 fd 37 df 34 26 ef 16 33 e5 8e 83 33 26 c3 47 31
       4.1577724e-07 3.51421e-08 6.126155e-08 2.906924e-09
000180 42 10 b1 25 63 e0 22 33 c6 c1 f6 33 f8 04 99 34
       3.0715622e-16 3.7922643e-08 1.1490515e-07 2.8502086e-07
000190 69 71 0b 34 94 9c d2 33 e5 f4 cf 33 12 04 c1 34
       1.2986642e-07 9.8073684e-08 9.683735e-08 3.5952013e-07
0001a0 ef 5f a8 33 ba 43 c4 33 77 ea 1c 33 d3 54 84 34
       7.84056e-08 9.1392806e-08 3.6534825e-08 2.4648634e-07
0001b0 07 fc d8 33 70 5d 66 33 5a 8d 6c 34 da f0 9b 33
       1.0104127e-07 5.363603e-08 2.2030636e-07 7.2615606e-08
0001c0 36 c6 d4 31 df 7a 01 34 88 07 3d 33 a1 de 2d 33
       6.192546e-09 1.2058761e-07 4.401184e-08 4.048218e-08
0001d0 86 05 e3 33 1e 4d 80 34 4a e3 38 33 7a f7 0a 33
       1.0571516e-07 2.3897968e-07 4.3047557e-08 3.2355707e-08
0001e0 4b a7 15 33 0f e5 af 32 27 a1 53 34 d3 58 98 34
       3.4843918e-08 2.0476845e-08 1.9709533e-07 2.8376834e-07
0001f0 1c 95 7b 33 48 40 90 33 84 60 0f 35 e7 8b 2e 34
       5.8576106e-08 6.717215e-08 5.34121e-07 1.6255909e-07
000200 b1 60 08 33 22 13 9b 33 57 9a 65 34 78 b2 02 34
       3.1752908e-08 7.22123e-08 2.1383435e-07 1.217212e-07
000210 0c 51 24 34 09 9d 9a 33 9c 8c e3 33 dc 91 88 35
       1.5303175e-07 7.199748e-08 1.0596088e-07 1.017524e-06
000220 64 4c 80 33 f0 1d d9 34 8c 43 3b 33 41 be c8 34
       5.97436e-08 4.0441182e-07 4.3600764e-08 3.739133e-07
000230 c7 05 21 34 67 8e 10 34 66 81 f3 33 70 03 86 33
       1.4996395e-07 1.3462851e-07 1.1339107e-07 6.2404865e-08
000240 cf 1c c9 33 38 a3 e0 33 2e b9 b8 33 92 0e f7 33
       9.365032e-08 1.0460502e-07 8.601852e-08 1.1504484e-07
000250 f5 b5 8b 33 4a 25 41 33 05 0c ba 33 e6 11 c3 33
       6.50579e-08 4.497023e-08 8.663486e-08 9.083651e-08
000260 da 58 b0 33 1a 7e d7 31 01 d7 ac 32 01 62 65 33
       8.211801e-08 6.2716596e-09 2.0121208e-08 5.340735e-08
000270 2f bb db 32 c6 6c ab 33 45 28 72 33 d0 ca de 33
       2.5580077e-08 7.982594e-08 5.638164e-08 1.0374572e-07
000280 6e 5e b7 31 ee 2a 35 33 98 c5 48 34 1a 64 6a 34
       5.3367364e-09 4.218139e-08 1.8698336e-07 2.1829365e-07
000290 02 e4 b2 34 19 1f e4 33 26 57 9a 33 56 4e be 33
       3.332098e-07 1.0622734e-07 7.187036e-08 8.861814e-08
0002a0 57 28 01 33 7c 7d 0a 34 93 21 77 33 c1 b8 d5 32
       3.0071842e-08 1.2897902e-07 5.7539705e-08 2.488048e-08
0002b0 81 87 64 33 d1 76 35 33 ea 35 18 34 12 4f e9 33
       5.3208627e-08 4.225041e-08 1.4175717e-07 1.0864291e-07
0002c0 69 17 5f 33 ae 9d 98 33 70 3c 15 33 93 f4 17 33
       5.1942525e-08 7.106733e-08 3.4746733e-08 3.5379866e-08
0002d0 3e cd 21 34 52 88 0b 33 52 4d f4 32 6b 6a 55 34
       1.506896e-07 3.2487442e-08 2.84405e-08 1.9875885e-07
0002e0 df cc 77 33 fc a9 4a 34 a2 0b dc 32 ce c6 40 34
       5.7695498e-08 1.8874556e-07 2.561666e-08 1.7953718e-07
0002f0 78 b6 06 34 3c a4 a6 33 45 29 2f 32 1a 1c 9f 32
       1.2546104e-07 7.7598514e-08 1.0195724e-08 1.8522815e-08
000300 03 a4 07 34 31 a1 8a 35 af 16 15 33 43 b5 9b 33
       1.2632522e-07 1.0328714e-06 3.4712397e-08 7.250721e-08
000310 1d a2 7d 33 a9 48 5a 34 10 7e 7a 33 49 b1 b5 33
       5.9053594e-08 2.0329266e-07 5.8322314e-08 8.460717e-08
000320 8a ef cd 33 0a 16 18 33 98 97 82 33 05 9c 83 33
       9.589628e-08 3.5410302e-08 6.0811715e-08 6.128543e-08
000330 db 52 65 33 22 bd 96 33 d5 99 2d 33 1d e9 b5 33
       5.3393574e-08 7.0193224e-08 4.041961e-08 8.4708724e-08
000340 96 ea 83 33 b4 93 a4 34 ea ac 3d 33 fd 44 11 34
       6.142834e-08 3.065485e-07 4.4162256e-08 1.3529275e-07
000350 2d b1 e4 31 36 86 fb 33 04 56 0c 34 f8 e3 83 33
       6.655816e-09 1.1712511e-07 1.3069808e-07 6.14163e-08
000360 3c 2d ae 32 ef ed 1f 34 13 12 41 33 29 cd 43 33
       2.0276836e-08 1.4894589e-07 4.4952753e-08 4.5588568e-08
000370 98 78 fe 34 af 13 36 33 20 20 a0 33 c8 34 4d 31
       4.739893e-07 4.239308e-08 7.456424e-08 2.9861429e-09
000380 42 10 b1 25 48 f8 22 33 8b 0a db 33 85 08 a9 34
       3.0715622e-16 3.7944375e-08 1.01999e-07 3.1484902e-07
000390 52 c0 25 34 a7 e4 f2 33 78 c0 f1 33 03 f5 d8 34
       1.5436788e-07 1.1310595e-07 1.1257447e-07 4.0411405e-07
0003a0 d2 e8 ad 33 b8 e1 da 33 dc 0b 31 33 5d 5e 95 34
       8.09829e-08 1.0192474e-07 4.122181e-08 2.782207e-07
0003b0 7c 23 01 34 2b 53 5e 33 b2 4a 55 34 39 11 8d 33
       1.202697e-07 5.1764044e-08 1.9864345e-07 6.568957e-08
0003c0 59 2e dc 31 c8 98 2a 34 b1 45 39 33 c8 f5 35 33
       6.408112e-09 1.5888065e-07 4.3137053e-08 4.2365883e-08
0003d0 e5 f7 0a 34 5a dd 9e 34 02 5d 5a 33 73 d7 29 33
       1.2942435e-07 2.9590848e-07 5.084167e-08 3.954433e-08
0003e0 2f b2 2a 33 97 b3 b8 32 6f bc 71 34 f7 d5 ba 34
       3.9743266e-08 2.1502087e-08 2.2513426e-07 3.480088e-07
0003f0 6e 16 a0 33 6d a4 af 33 f8 ee 21 35 4d 09 39 34
       7.4546605e-08 8.1789814e-08 6.032492e-07 1.7232851e-07

exp_avg f4 [21]
000000 9a fc 96 b8 f0 54 a1 b8 ae 12 8b 3a 43 f5 93 38
       -7.199608e-05 -7.692899e-05 0.0010610425 7.05519e-05
000010 e2 aa a4 3a 95 91 c1 37 75 e0 d2 38 b4 d3 bb 3a
       0.0012563134 2.3075185e-05 0.00010055389 0.001433006
000020 ac 9a d9 b6 21 2e 42 b9 55 f3 c6 b9 fb 7c 46 bb
       -6.48511e-06 -0.00018518466 -0.000379468 -0.0030286897
000030 33 07 8e 39 d9 5e b0 39 a2 32 8d 39 61 88 2c b9
       0.00027089714 0.00033640003 0.0002693134 -0.00016454003
000040 c5 be 2e 3a f2 9d 09 38 85 76 61 3a 30 36 7c 3a
       0.0006666 3.2810443e-05 0.00086007296 0.00096211117
000050 81 a2 09 3a
       0.000525035

exp_avg_sq f4 [21]
000000 17 05 57 35 37 94 19 36 3a 75 03 36 60 0a 05 35
       8.010115e-07 2.288505e-06 1.9588756e-06 4.956146e-07
000010 fd 76 e9 36 94 9c 72 36 6b 18 9b 35 c8 17 41 36
       6.957793e-06 3.615195e-06 1.1555506e-06 2.8773084e-06
000020 ac 39 36 36 d9 b6 ca 36 fe be d7 35 11 54 7e 36
       2.7153683e-06 6.0413554e-06 1.6074334e-06 3.7897883e-06
000030 94 80 e3 34 e5 c9 ae 35 1e e7 2d 36 e8 1b 28 36
       4.2375598e-07 1.3022769e-06 2.5913537e-06 2.5050194e-06
000040 d6 42 30 36 d5 0e 8d 35 57 e2 6a 36 38 91 cc 35
       2.6264947e-06 1.0509635e-06 3.5000464e-06 1.5241449e-06
000050 f5 02 b1 35
       1.3188388e-06
