models/best_UsageNet3.pth (torch, 258078 bytes, 42 tensors)

fc1.weight f4 [104, 128]
-0.061218657 0.20270407 0.20966008 0.2801535 -0.015882084 0.035617135 -0.005693944 0.101113364
-0.0036019392 -0.100904465 -0.021629628 0.09031473 -0.06240367 0.016967595 0.062285587 -0.017300105
0.08311532 -0.055385683 -0.012558315 0.0668685 -0.035199463 -0.05070016 -0.009700208 -0.036183883
0.043688875 0.15248719 -0.050818536 0.0074658743 -0.04241361 0.0055689816 -0.028839273 -0.01678654
0.097038984 -0.021648863 0.025081366 0.07752323 0.06064744 0.047315236 -0.10144854 -0.00038394248
-0.06421452 -0.047151603 0.023700178 0.029733298 -0.022234624 -0.028160097 0.052071307 -0.04773386
-0.063407555 0.025954735 -0.0053218054 -0.05673847 0.043944813 -0.14451689 0.048621494 0.10154092
-0.0803045 0.20176911 -0.030044511 0.077652216 0.019026827 -0.07622492 0.045718238 0.07680271
0.04094667 0.0035716302 0.055951223 -0.016506987 -0.027929796 -0.05097308 0.102067396 -0.043250278
0.08598509 0.09482516 0.017285215 0.0049201637 -0.055694323 0.010627901 -0.005346222 0.015737254
0.0058904104 0.013389988 -0.009311066 -0.050652254 -0.02845338 0.09422082 -0.03883768 -0.013919921
-0.0051629865 -0.017360393 0.02455284 0.03810899 -0.06835819 0.013995501 -0.021533815 0.03258461
0.12524232 -0.08560855 -0.0279909 -0.06581147 -0.065673746 0.04410324 -0.03132461 -0.00448535
0.028101062 0.02681008 0.059042476 0.026714677 0.0032205125 -0.092904426 0.03410711 -0.047406476
0.027480586 -0.010910757 0.023999121 -0.051370256 0.10576272 0.004077272 -0.013747677 0.07819117
-0.0021461118 -0.0952228 0.039316617 0.012274509 0.01882091 0.06835255 0.0016847007 -0.05794361
0.10137497 -0.06955901 0.08614167 -0.014469537 -0.015572509 0.022948464 -0.0281961 -0.06708024
0.0033613548 -0.11840914 -0.0005441954 0.028052472 0.012599494 -0.044208616 0.08818415 -0.011541298
-0.09525475 -0.02248716 0.07366291 0.06581177 -0.06583109 0.022883987 0.06018303 -0.052293636
0.018033715 0.07515066 -0.060404815 0.011833943 -0.042761 -0.022586804 0.05542952 -0.02811526
0.17499189 0.12377459 -0.13179144 0.18041393 -0.10022307 0.115607984 0.07644095 -0.040962383
0.039670706 0.049775835 0.018544883 -0.06265088 0.023926951 0.018810453 -0.023998156 0.14480446
-0.025758972 -0.045861594 -0.03521583 0.04383286 -0.019613432 -0.00949904 0.03424777 -0.038589183
-0.01918854 -0.06039703 0.028852057 0.04652256 -0.003807649 -0.061838124 -0.09453386 0.07627611
0.060537916 -0.1057565 -0.005626097 -0.01101797 0.042912383 -0.01664524 -0.029716633 -0.044958323
-0.10810198 -0.10060556 -0.0020846706 0.0034712534 0.098605074 -0.06025194 0.03148438 0.06790101
-0.00090109016 0.03361953 -0.08816655 -0.031903654 0.0066040456 0.025598701 0.004721832 0.032695275
-0.021547684 -0.001671753 -0.0592912 0.006646065 -0.06871372 0.018681167 -0.051080737 -0.02352232
-0.060050882 -0.04847344 -0.048773296 -0.07482193 -0.013469625 -0.100908734 -0.007980892 0.041030746
-0.0014543446 0.04801185 -0.011869682 0.028669272 0.07424842 0.05993502 -0.018553596 -0.002706867
-0.002673774 0.031623527 -0.018424004 -0.07771121 -0.036041394 0.0557376 0.023328746 -0.011780929
0.06702818 0.03501119 0.03206092 0.033311095 -0.044691604 0.07034851 -0.061777517 0.037627954
00000000: 6ac0 7abd a891 4f3e 22b1 563e 4870 8f3e
00000010: 251b 82bc 46e3 113d 4494 babb 8614 cf3d
00000020: 830e 6cbb 00a7 cebd 9e30 b1bc eef6 b83d
00000030: fe9a 7fbd a0ff 8a3c 2c1f 7f3d f3b8 8dbc
00000040: 5d38 aa3d 19dc 62bd 64c1 4dbc 5af2 883d
00000050: 502d 10bd f9aa 4fbd 9fed 1ebc 8d35 14bd
00000060: 1bf3 323d 9a25 1c3e 1927 50bd 4ba4 f43b
00000070: e5b9 2dbd 017c b63b 5740 ecbc ed83 89bc
00000080: 60bc c63d f558 b1bc 7077 cd3c 80c4 9e3d
00000090: 7369 783d 9fcd 413d 41c4 cfbd e34b c9b9
000000a0: e782 83bd 0a22 41bd e026 c23c 3f93 f33c
000000b0: 6325 b6bc 01b0 e6bc b948 553d 9484 43bd
000000c0: d2db 81bd 069f d43c 8a62 aebb 9966 68bd
000000d0: 7aff 333d 3cfc 13be 5527 473d b0f4 cf3d
000000e0: b076 a4bd 909c 4e3e e81f f6bc 2008 9f3d
000000f0: 26de 9b3c d01b 9cbd 0c43 3b3d bd4a 9d3d
00000100: b2b7 273d 0312 6a3b 1c2d 653d a939 87bc
00000110: 07cd e4bc 26c9 50bd b608 d13d 3427 31bd
00000120: f318 b03d b233 c23d b999 8d3c 5339 a13b
00000130: bb1f 64bd a620 2e3c 5c2f afbb 6aeb 803c
00000140: 5804 c13b ae61 5b3c 718d 18bc bd78 4fbd
00000150: 1017 e9bc d8f6 c03d 4214 1fbd 6110 64bc
00000160: 452e a9bb 6237 8ebc 0a23 c93c 2c18 1c3d
00000170: 61ff 8bbd 634d 653c af67 b0bc 7177 053d
00000180: 863f 003e 8953 afbd 2c4d e5bc 2ac8 86bd
00000190: f57f 86bd 99a5 343d 3c4e 00bd d8f9 92bb
000001a0: 3334 e63c d0a0 db3c 86d6 713d bdd8 da3c
000001b0: 3c0f 533b ad44 bebd e6b3 0b3d 4b2d 42bd
000001c0: f71e e13c 08c3 32bc ce99 c43c 9e69 52bd
000001d0: 209a d83d a39a 853b f03d 61bc b122 a03d
000001e0: c8a5 0cbb 2c04 c3bd 760a 213d 061b 493c
000001f0: 4f2e 9a3c 6cfc 8b3d 2dd1 dc3a 4756 6dbd
00000200: ae9d cf3d f474 8ebd 0b6b b03d a311 6dbc
00000210: d623 7fbc 6bfe bb3c 82fb e6bc 5d61 89bd
00000220: 2d4a 5c3b 7e80 f2bd 56a8 0eba 4cce e53c
00000230: 1c6e 4e3c 1814 35bd e499 b43d b617 3dbc
00000240: ec14 c3bd fe36 b8bc 94dc 963d 52c8 863d
00000250: 73d2 86bd 3377 bb3c 7b82 763d da31 56bd
00000260: 71bb 933c 97e8 993d 0a6b 77bd 28e3 413c
00000270: 2926 2fbd f607 b9bc 100a 633d f951 e6bc
00000280: 1331 333e 887d fd3d 56f4 06be 6ebe 383e
00000290: c141 cdbd e1c3 ec3d 138d 9c3d 2cc8 27bd
000002a0: c07d 223d bfe1 4b3d 70eb 973c 1b4f 80bd
000002b0: 7402 c43c 6118 9a3c c897 c4bc 9f47 143e
000002c0: 7b04 d3bc 5ed9 3bbd 793e 10bd 168a 333d
000002d0: 59ac a0bc dda1 1bbc 6447 0c3d b10f 1ebd
000002e0: 4931 9dbc e062 77bd 265b ec3c 718e 3e3d
000002f0: c089 79bb f949 7dbd f89a c1bd a636 9c3d
00000300: 9bf6 773d dd96 d8bd 1f5b b8bb b784 34bc
00000310: e5c4 2f3d 995b 88bc 4c70 f3bc 3826 38bd
00000320: 9264 ddbd 4a0a cebd f89e 08bb f87d 633b
00000330: 75f1 c93d bdca 76bd c4f5 003d af0f 8b3d
00000340: 2337 6cba a2b4 093d aa90 b4bd 68ad 02bd
00000350: c066 d83b 5eb4 d13c 99b9 9a3b 7beb 053d
00000360: c584 b0bc b91e dbba 54db 72bd 3cc7 d93b
00000370: c7b9 8cbd 3f09 993c 093a 51bd e1b1 c0bc
00000380: eaf7 75bd 168c 46bd 82c6 47bd 3d3c 99bd
00000390: b4af 5cbc 3da9 cebd 4ac2 02bc db0f 283d
000003a0: b59f beba 13a8 443d 0e79 42bc d2db ea3c
000003b0: 8e0f 983d 6c7e 753d b6fd 97bc b165 31bb
000003c0: 7c3a 2fbb ac87 013d f0ed 96bc 0e27 9fbd
000003d0: 24a0 13bd 1c4d 643d ed1b bf3c cc04 41bc
000003e0: 1246 893d e567 0f3d 5052 033d 3771 083d
000003f0: 8b0e 37bd e112 903d 6c0a 7dbd c51f 1a3d

fc1.bias f4 [104]
0.06767738 0.069209546 0.08069219 0.018069386 -0.00808569 -0.013610116 -0.05940359 -0.029021125
0.06854188 0.03977397 0.013711582 0.086592644 0.058467563 -0.004708313 -0.07798239 -0.060082495
0.08041841 0.06517884 0.07153 0.0283303 0.07427546 -0.036255527 0.00084786135 0.006887289
0.013853566 -0.032809317 -0.009978394 -0.014553718 0.019882668 0.045842495 -0.08845851 0.007719183
0.081415765 -0.055625275 0.088582814 0.010217375 0.026120557 -0.07607434 -0.079413645 -0.019630337
-0.06302939 -0.01946798 -0.0708272 -0.009984276 0.055024844 0.018812332 0.0686603 -0.035783168
0.009808791 0.069997795 -0.005858908 -0.06705719 0.03118062 0.06326622 0.059099242 0.0138978325
0.061854944 0.013653619 0.048598092 -0.060202215 -0.0633489 -0.017776316 -0.003130257 -0.031597093
-0.011674023 0.0066423975 0.07167424 -0.036286596 -0.012691741 -0.037011568 -0.009122075 0.034821317
-0.07417166 -0.059386507 0.023092316 -0.05157425 0.048805665 0.014220613 0.02941882 -0.04283506
0.08310985 -0.035038162 0.075791016 -0.030140985 -0.0066406676 -0.08228369 -0.06300335 -0.050494418
0.07113511 -0.028473841 0.026145505 -0.03300169 -0.060197726 -0.0843037 0.08181804 -0.008407789
0.056235608 0.018686958 0.09084507 -0.066365846 0.073290884 0.019579161 -0.050475523 -0.047453944
00000000: 709a 8a3d bcbd 8d3d f241 a53d 4006 943c
00000010: d879 04bc f7fc 5ebc 2e51 73bd b6bd edbc
00000020: af5f 8c3d 08ea 223d 8ba6 603c 7c57 b13d
00000030: af7b 6f3d 3148 9abb 3bb5 9fbd 1019 76bd
00000040: 68b2 a43d 7c7c 853d 527e 923d f214 e83c
00000050: bb1d 983d ad80 14bd 0343 5e3a c5ae e13b
00000060: 11fa 623c 1063 06bd 6b7c 23bc b872 6ebc
00000070: fae0 a23c 57c5 3b3d bc29 b5bd 33f1 fc3b
00000080: 4fbd a63d 54d7 63bd e86a b53d c766 273c
00000090: c7fa d53c ddcc 9bbd 9fa3 a2bd cdcf a0bc
000000a0: 8e15 81bd 507b 9fbc da0d 91bd 1795 23bc
000000b0: bb61 613d 521c 9a3c c59d 8c3d 5f91 12bd
000000c0: 0db5 203c 015b 8f3d 15fc bfbb 4855 89bd
000000d0: 806e ff3c b891 813d 0c12 723d bcb3 633c
000000e0: 9c5b 7d3d 6eb3 5f3c cb0e 473d 9996 76bd
000000f0: 11bd 81bd a39f 91bc ff24 4dbb f46b 01bd
00000100: 6744 3fbc 78a8 d93b f2c9 923d 41a1 14bd
00000110: 05f1 4fbc 7199 17bd c174 15bc cca0 0e3d
00000120: 50e7 97bd 443f 73bd 192c bd3c 853f 53bd
00000130: 73e8 473d 93fd 683c bdff f03c d173 2fbd
00000140: 7f35 aa3d 2d84 0fbd 5238 9b3d 3aea f6bc
00000150: f599 d9bb 5a84 a8bd e607 81bd 3cd3 4ebd
00000160: 49af 913d f941 e9bc 192f d63c c82c 07bd
00000170: e491 76bd 6ba7 acbd 3790 a73d d3c0 09bc
00000180: 4f57 663d 6415 993c fb0c ba3d d1ea 87bd
00000190: 8819 963d 7a64 a03c 6cbf 4ebd 115f 42bd

fc2.weight f4 [52, 104]
-0.04797297 -0.0569114 -0.052919645 -0.17324877 -0.045427244 -0.085070305 0.17750238 -0.05357503
0.016518544 -0.015343759 -0.014966593 -0.101817966 0.10261859 0.040586565 -0.09270655 -0.103639625
-0.13097326 0.042021208 -0.10724143 -0.053555828 0.050037544 -0.064496145 0.0022652394 0.07872298
-0.021377875 0.020877523 -0.009897638 -0.093787014 -0.13158855 -0.048081994 -0.0011145883 -0.07503384
-0.009779675 0.097543925 -0.034874856 0.015092607 -0.09130462 0.06522039 -0.08940916 -0.08245381
-0.051982578 0.020387556 0.029906064 -0.0012188505 0.06748467 0.029379727 -0.027983226 -0.024988364
-0.08379314 -0.01896234 0.0030575332 0.0052409237 0.015972376 -0.092350364 -0.006497096 -0.073187284
0.024523005 -0.04897345 -0.019380042 -0.040030997 -0.022360198 -0.09304832 -0.004386279 0.06404585
-0.016493566 -0.07888371 -0.01008117 0.028708236 -0.0051354533 0.03098893 0.03810751 -0.018645106
-0.09225885 -0.050064534 -0.10829741 -0.10173171 -0.04451271 0.024876477 -0.0102095185 0.069568865
0.020129586 0.03597699 0.047087796 -0.12516673 0.09497482 0.049323674 -0.03075948 -0.07194153
-0.00518604 0.01348865 0.06062588 -0.035360504 -0.061499663 0.031452097 0.08942491 0.01991924
-0.0832149 -0.026925886 -0.051082477 -0.07684251 0.057877284 0.042357594 -0.014532936 -0.0366431
0.024680639 -0.023377197 -0.014310573 0.08664109 0.024218645 -0.03627907 0.1281789 0.07388334
-0.06815719 -0.13393727 0.010054817 -0.0033324831 0.12285776 0.018971635 -0.05493584 0.014040336
0.065832786 0.0021299997 0.036538567 -0.099918395 -0.10657278 -0.083367616 0.06426402 -0.06445876
0.058837235 -0.10762341 0.03316681 -0.022980176 -0.027126761 0.06706204 -0.0451829 -0.09612591
0.0450899 -0.14186792 0.038215067 -0.023377089 -0.06565988 0.042204272 -0.07360394 0.015026777
0.05880883 0.09146523 0.041758433 0.027303606 0.02134469 -0.03351133 -0.12470419 0.000742936
-0.0016100768 -0.06773483 0.0014075062 -0.0032236734 -0.117114745 -0.017477917 0.04251638 0.019382201
0.010380148 -0.044550207 -0.044052258 -0.06001627 -0.1042957 -0.045449875 -0.085353844 0.11368828
0.002328829 0.05743576 -0.02928132 -0.0040098047 0.05309359 -0.048782464 -0.019814627 -0.048971627
-0.084816374 -0.0110316975 -0.009019328 0.03696936 -0.03618635 0.07560982 -0.019641753 -0.016479345
-0.0075224703 0.021334467 0.00353308 -0.008497473 0.0095738955 0.08252527 0.009739969 -0.10597628
-0.011920695 -0.05865109 -0.0025769016 0.10524346 -0.14692636 -0.0138674155 0.01889878 0.026610877
0.017659592 0.028493175 -0.0036324062 -0.07570716 -0.037283514 0.118043736 0.007965067 0.059252236
-0.02916258 -0.03604681 0.06290687 0.022925954 0.16888838 -0.035592433 0.024155224 -0.057827905
-0.089030266 -0.038759027 -0.008789475 0.10209141 -0.055860765 0.08284608 -0.00596846 -0.085457385
0.044188116 -0.040101122 -0.02596684 -0.042141847 0.007289478 0.006389423 -0.034899253 -0.13515656
0.080453575 -0.09611007 -0.010241234 -0.010180707 0.0075015654 0.07118314 0.016760172 -0.013785938
-0.06048294 0.093096055 -0.01503056 -0.11399617 0.04128111 -0.045811303 0.008659223 -0.09338845
0.015815616 -0.04409323 -0.057432465 0.10277086 0.039191563 0.016805327 0.026674006 0.1310603
00000000: 4e7f 44bd ee1b 69bd 45c2 58bd 2068 31be
00000010: eb11 3abd 5739 aebd 2fc3 353e 7e71 5bbd
00000020: e651 873c 6464 7bbc 7136 75bc f085 d0bd
00000030: b229 d23d 193e 263d efdc bdbd 0341 d4bd
00000040: db1d 06be 6e1e 2c3d 65a1 dbbd 5b5d 5bbd
00000050: 2bf4 4c3d 8e16 84bd 6974 143b 8439 a13d
00000060: a720 afbc 5707 ab3c b429 22bc 6813 c0bd
00000070: 26bf 06be a0f1 44bd 6117 92ba 58ab 99bd
00000080: ee3a 20bc 1cc5 c73d f0d8 0ebd fb46 773c
00000090: ebfd babd 4592 853d 261c b7bd 8bdd a8bd
000000a0: afeb 54bd ce03 a73c 90fd f43c d6c1 9fba
000000b0: 6735 8a3d c1ad f03c 143d e5bc 66b4 ccbc
000000c0: bd9b abbd e956 9bbc e560 483b 0ebc ab3b
000000d0: 80d8 823c 3022 bdbd 97e5 d4bb 37e3 95bd
000000e0: 78e4 c83c 6298 48bd e5c2 9ebc 8bf7 23bd
000000f0: bc2c b7bc 1e90 bebd c6ba 8fbb 782a 833d
00000100: 841d 87bc c88d a1bd 7e2b 25bc 892d eb3c
00000110: 4e47 a8bb 7fdc fd3c 9f16 1c3d 9fbd 98bc
00000120: 35f2 bcbd 7810 4dbd 08cb ddbd b758 d0bd
00000130: f652 36bd c1c9 cb3c d345 27bc 1f7a 8e3d
00000140: cde6 a43c 9c5c 133d 22df 403d b52b 00be
00000150: 2982 c23d 9f07 4a3d 4efb fbbc 1556 93bd
00000160: a8ef a9bb 80ff 5c3c d852 783d 2dd6 10bd
00000170: 12e7 7bbd ead3 003d 6824 b73d ad2d a33c
00000180: 936c aabd ad93 dcbc dc3b 51bd 9b5f 9dbd
00000190: bb10 6d3d 287f 2d3d 8d1b 6ebc 1317 16bd
000001a0: 0d2f ca3c 8981 bfbc e576 6abc e270 b13d
000001b0: 2e66 c63c 5d99 14bd 5441 033e 2650 973d
000001c0: ff95 8bbd da26 09be f6bc 243c ca65 5abb
000001d0: d99c fb3d 676a 9b3c 6704 61bd 7009 663c
000001e0: 57d3 863d 7797 0b3b 77a9 153d 04a2 ccbd
000001f0: d442 dabd a4bc aabd db9c 833d f402 84bd
00000200: 50ff 703d aa69 dcbd ecd9 073d ec40 bcbc
00000210: f138 debc d357 893d b411 39bd a9dd c4bd
00000220: 30b0 383d d345 11be 6787 1c3d 4f81 bfbc
00000230: b078 86bd 63de 2c3d aabd 96bd df32 763c
00000240: 87e1 703d 1f52 bb3d e40a 2b3d d0ab df3c
00000250: 0fdb ae3c 2d43 09bd e964 ffbd 97c1 423a
00000260: 3609 d3ba 8fb8 8abd 127c b83a 4444 53bb
00000270: dbd9 efbd d92d 8fbc a825 2e3d 6cc7 9e3c
00000280: 7f11 2a3c 477a 36bd 2470 34bd 9fd3 75bd
00000290: fc98 d5bd a629 3abd ffcd aebd 67d5 e83d
000002a0: 449f 183b c241 6b3d 61df efbc ae64 83bb
000002b0: aa78 593d 1fd0 47bd 4952 a2bc 7996 48bd
000002c0: 35b4 adbd 4bbe 34bc cec5 13bc 2f6d 173d
000002d0: 2338 14bd 52d9 9a3d bee7 a0bc b1ff 86bc
000002e0: 0e7f f6bb 9fc5 ae3c 3f8b 673b fc38 0bbc
000002f0: d4db 1c3c 0203 a93d 6494 1f3c 180a d9bd
00000300: 054f 43bc 203c 70bd 3ce1 28bb e289 d73d
00000310: dd73 16be 2834 63bc 9dd1 9a3c 0eff d93c
00000320: d9aa 903c 856a e93c aa0d 6ebb 5b0c 9bbd
00000330: 99b6 18bd eac0 f13d ea7f 023c 79b2 723d
00000340: 5de6 eebc d2a5 13bd 51d5 803d 36cf bb3c
00000350: 13f1 2c3e 5fc9 11bd 2de1 c53c f4dc 6cbd
00000360: 8055 b6bd c9c1 1ebd bb01 10bc 4d15 d13d
00000370: 42ce 64bd 35ab a93d 1293 c3bb 4804 afbd
00000380: 99fe 343d 1341 24bd 69b8 d4bc ee9c 2cbd
00000390: 93dc ee3b 5d5e d13b 85f2 0ebd 7b66 0abe
000003a0: d8c4 a43d 5bd5 c4bd d9ca 27bc fbcc 26bc
000003b0: b1cf f53b 77c8 913d a14c 893c 6ade 61bc
000003c0: f6bc 77bd 25a9 be3d bd42 76bc d376 e9bd
000003d0: 6216 293d a2a4 3bbd 6adf 0d3c 7242 bfbd
000003e0: c08f 813c 1a9b 34bd 4e3e 6bbd 8779 d23d
000003f0: 5587 203d 53ab 893c 7283 da3c ac34 063e

fc2.bias f4 [52]
-0.087026194 0.077604726 -0.08875774 -0.026254008 -0.08521536 0.05144534 -0.04005536 0.08002492
0.045698322 0.057394847 -0.09397866 0.040860333 -0.012923275 -0.009634998 0.063049614 -0.028162947
0.04420185 -0.062233564 0.035809014 -0.049055487 0.010634075 0.091263674 0.025000665 0.04271922
0.056360386 0.017500121 0.0360842 -0.07995725 -0.09586355 -0.012130597 -0.036718566 0.07478478
-0.0009772115 0.031098256 -0.063964374 -0.024593418 0.07249416 -0.05839303 -0.045493793 0.04182888
-0.015775172 -0.012340324 0.040544003 0.0432808 -0.027729033 -0.072006896 -0.058962774 0.08914578
-0.04751591 0.0079640765 0.075138696 0.057826962
00000000: ca3a b2bd 3aef 9e3d 9ec6 b5bd a512 d7bc
00000010: 6485 aebd 59b8 523d 1711 24bd 1be4 a33d
00000020: 2a2e 3b3d dc16 6b3d e277 c0bd 2a5d 273d
00000030: 25bc 53bc 1cdc 1dbc 2820 813d fbb5 e6bc
00000040: 000d 353d 9fe8 7ebd 79ac 123d 68ee 48bd
00000050: 8b3a 2e3c 73e8 ba3d 32ce cc3c 59fa 2e3d
00000060: 26da 663d 6a5c 8f3c 07cd 133d a0c0 a3bd
00000070: 1c54 c4bd 69bf 46bc 3566 16bd c328 993d
00000080: c715 80ba c5c1 fe3c c1ff 82bd 2378 c9bc
00000090: d177 943d 882d 6fbd b357 3abd c254 2b3d
000000a0: ef3a 81bc 122f 4abc 7811 263d 3547 313d
000000b0: ff27 e3bc 5a78 93bd f382 71bd 1092 b63d
000000c0: 0ba0 42bd c27b 023c 51e2 993d f7db 6c3d

fc3.weight f4 [21, 52]
-0.1041343 0.008871128 -0.039668072 -0.111219294 0.2585132 -0.059744786 -0.05176692 0.031903986
-0.07957158 -0.044438764 0.0009192552 -0.037856493 0.100317664 0.21424024 -0.07114559 -0.09655001
0.030212887 -0.03874097 0.08302548 -0.023527427 -0.044959437 0.032294963 0.008829683 -0.06046547
-0.078559555 -0.033526372 0.31987944 -0.0296787 0.030834807 0.03600308 -0.077344485 0.10141353
-0.11642268 -0.0022803438 -0.07609804 0.00770261 0.07809785 0.0023089228 -0.06750799 -0.013488421
-0.026580172 -0.032855287 0.032136712 -0.045276735 -0.046566214 -0.066753134 0.041223656 0.040485688
0.011836735 -0.004086566 -0.026218368 -0.0432863 0.11233241 -0.0686251 -0.07682055 -0.029933007
0.061318215 -0.018487325 -0.06469898 -0.0013326575 -0.029585 -0.026775006 -0.051411986 -0.037538428
-0.00431312 -0.0033525138 0.088525414 -0.057119295 0.028127756 -0.036837097 -0.0110154385 0.045739867
-0.11039019 0.15868461 -0.09899623 -0.03684201 -0.0479794 -0.095333606 0.028465943 -0.004708719
-0.060998745 -0.045971997 0.20098737 -0.08557074 0.00983307 0.036159977 -0.026037939 0.025921954
-0.031178897 -0.07934999 -0.033581022 0.019492384 -0.0030849506 0.0035793097 -0.053499002 0.19798242
-0.1266352 0.1232097 0.037134968 -0.08284923 -0.09408361 -0.0915032 -0.066576704 0.0005987893
-0.05041481 -0.0762561 0.059586734 -0.067206256 -0.027482392 0.08453718 -0.06281144 -0.061207548
0.07239445 -0.052322812 -0.0971178 0.07678959 0.005190578 0.23071343 0.005455643 -0.012538745
0.05365691 -0.07673764 -0.18096265 -0.017920109 -0.15728223 0.06271132 -0.0825341 0.169641
-0.042098705 -0.038913712 -0.02886634 -0.017378066 -0.04419294 -0.024173226 -0.036542457 0.008486846
0.2684943 -0.13833533 -0.043471184 0.14443453 -0.07663836 -0.09697794 -0.0010033963 -0.05419618
-0.021956192 0.1032803 -0.038288586 -0.0070266942 -0.05181588 -0.06586064 -0.055375427 -0.044161353
0.03125251 0.11308441 -0.03543298 -0.016239261 0.12300608 0.13838379 0.007153204 -0.016055213
-0.01334841 0.013069571 -0.026235687 -0.033180367 0.09692605 0.028898759 0.00080305245 -0.032020245
-0.11270226 0.056149457 -0.07259194 0.013345726 -0.020297436 -0.088685706 -0.095710464 -0.053921476
-0.060489934 0.005484779 -0.034776542 -0.0049240817 -0.104806446 -0.022817992 -0.013560217 0.067626216
0.17855643 -0.0111013455 -0.007968698 -0.05653445 -0.006269146 0.19143146 0.11660387 -0.084620126
0.1762286 -0.024670228 -0.061706305 -0.064434536 -0.050590076 -0.0025181614 0.024607295 0.06731499
-0.016066492 -0.05221739 -0.035510477 -0.07033517 0.08488726 0.10586457 -0.04500846 -0.10418501
0.1072093 -0.0041863685 -0.11760933 -0.024365412 0.07131569 -0.09137977 -0.09954469 0.012289336
-0.058190394 0.10821918 -0.051495194 -0.012494995 -0.05924283 -0.023829965 -0.13573106 0.002890173
0.07533018 -0.08322676 0.011522507 0.061000284 0.0015172088 0.10049956 -0.064658724 -0.06959858
-0.03551287 0.02728002 0.050679766 0.06210732 -0.027332362 0.050106447 -0.06846752 -0.08130061
-0.110649355 0.03178233 -0.10717297 0.17840806 -0.14925098 0.1907734 0.03302941 -0.06056465
0.03471193 -0.08998799 -0.027852114 -0.03488731 -0.09460719 0.04473792 0.15777439 -0.053766116
00000000: 5d44 d5bd 3558 113c fd7a 22bd f1c6 e3bd
00000010: d85b 843e f3b6 74bd 8d09 54bd c1ad 023d
00000020: 6df6 a2bd 6c05 36bd 2cfa 703a 690f 1bbd
00000030: 5973 cd3d cb61 5b3e c7b4 91bd 03bc c5bd
00000040: 0481 f73c daae 1ebd 4309 aa3d 97bc c0bc
00000050: 6327 38bd b947 043d 60aa 103c a4aa 77bd
00000060: d5e3 a0bd f352 09bd 3dc7 a33e bf20 f3bc
00000070: 4799 fc3c f777 133d c966 9ebd e6b1 cf3d
00000080: 046f eebd d271 15bb 4ad9 9bbd 2d66 fc3b
00000090: c4f1 9f3d 4c51 173b a141 8abd 8afe 5cbc
000000a0: a9be d9bc 4493 06bd c9a1 033d 1974 39bd
000000b0: 37bc 3ebd deb5 88bd 23da 283d 52d4 253d
000000c0: ddee 413c 9ae8 85bb e7c7 d6bc fa4c 31bd
000000d0: 890e e63d 518b 8cbd 1854 9dbd 1136 f5bc
000000e0: cf28 7b3d bb72 97bc e680 84bd 91ac aeba
000000f0: 3e5c f2bc 4257 dbbc 6095 52bd e5c1 19bd
00000100: 1355 8dbb d9b5 5bbb d04c b53d ecf5 69bd
00000110: 2e6c e63c 7fe2 16bd 197a 34bc ba59 3b3d
00000120: 4014 e2bd 387e 223e 89be cabd a6e7 16bd
00000130: 0c86 44bd 443e c3bd 6931 e93c 994b 9abb
00000140: d2d9 79bd 224d 3cbd a2cf 4d3e b63f afbd
00000150: e31a 213c 7c1c 143d 844d d5bc 475a d43c
00000160: e36a ffbc 3f82 a2bd 418c 09bd 7eae 9f3c
00000170: e22c 4abb da92 6a3b c521 5bbd e7bb 4a3e
00000180: a8ac 01be 5e55 fc3d d61a 183d dbac a9bd
00000190: e8ae c0bd 0866 bbbd 5e59 88bd 12f8 1c3a
000001a0: c37f 4ebd 282c 9cbd 3811 743d 6fa3 89bd
000001b0: c122 e1bc d421 ad3d 49a3 80bd c4b4 7abd
000001c0: 8b43 943d 7250 56bd b2e5 c6bd dc43 9d3d
000001d0: b915 aa3b 2440 6c3e 40c5 b23b 4f6f 4dbc
000001e0: 59c7 5b3d a028 9dbd 464e 39be 31cd 92bc
000001f0: 980e 21be cb6e 803d a307 a9bd 5fb6 2d3e
00000200: b16f 2cbd fc63 1fbd 1a79 ecbc 725c 8ebc
00000210: a803 35bd ee06 c6bc 8bad 15bd 6a0c 0b3c
00000220: 1678 893e c7a7 0dbe d70e 32bd a5e6 133e
00000230: 93f4 9cbd 5f9c c6bd 6584 83ba d0fc 5dbd
00000240: 79dd b3bc 9f84 d33d 7ed4 1cbd 2f40 e6bb
00000250: e33c 54bd f1e1 86bd 58d1 62bd 89e2 34bd
00000260: a202 003d cd98 e73d 2c22 11bd 3308 85bc
00000270: 9dea fb3d 7bb4 0d3e 6d65 ea3b 3986 83bc
00000280: 4ab3 5abc c121 563c 39ec d6bc 23e8 07bd
00000290: 2a81 c63d 17bd ec3c f083 523a a927 03bd
000002a0: 71d0 e6bd f9fc 653d 15ab 94bd 08a8 5a3c
000002b0: cf46 a6bc daa0 b5bd d903 c4bd c4dc 5cbd
000002c0: 4bc4 77bd a9b9 b33b d971 0ebd 315a a1bb
000002d0: c3a4 d6bd ccec babc ac2b 5ebc 9d7f 8a3d
000002e0: 7fd7 363e 6be2 35bc 248f 02bc ab90 67bd
000002f0: 696d cdbb 9c06 443e 03ce ee3d 514d adbd
00000300: 4575 343e 3819 cabc c0bf 7cbd 41f6 83bd
00000310: 8a37 4fbd bd07 25bb 3d95 c93c 71dc 893d
00000320: e09d 83bc e7e1 55bd 6f73 11bd e30b 90bd
00000330: 5fd9 ad3d 86cf d83d ca5a 38bd f35e d5bd
00000340: 8d90 db3d ce2d 89bb 29dd f0bd f999 c7bc
00000350: f60d 923d 5125 bbbd 16de cbbd 3659 493c
00000360: 0d59 6ebd 04a2 dd3d a0ec 52bd cfb7 4cbc
00000370: 9ca8 72bd 0f37 c3bc 15fd 0abe 0f69 3d3b
00000380: b646 9a3d cb72 aabd e6c8 3c3c 6fdb 793d
00000390: 14dd c63a b7d2 cd3d cb6b 84bd b389 8ebd
000003a0: f175 11bd 597a df3c 9695 4f3d 3f64 7e3d
000003b0: 1ee8 dfbc 6b3c 4d3d b338 8cbd ef80 a6bd
000003c0: 219c e2bd 302e 023d 817d dbbd 9ab0 363e
000003d0: 40d5 18be 1a5a 433e d949 073d a312 78bd
000003e0: 192e 0e3d a04b b8bd 1e2a e4bc ffe5 0ebd
000003f0: 6ac1 c1bd 1c3f 373d 9c8f 213e dc39 5cbd

fc3.bias f4 [21]
-0.050595764 0.1045531 -0.10519666 -0.074865915 0.032528058 -0.10443735 0.08256438 -0.008092276
-0.018472344 -0.1047234 0.09640516 -0.10367706 -0.024102772 -0.00856493 -0.05049326 0.002821466
-0.090326644 -0.0500498 -0.13748746 0.08306936 -0.12625189
00000000: 813d 4fbd f01f d63d 5971 d7bd 4d53 99bd
00000010: 243c 053d 40e3 d5bd 8317 a93d 7795 04bc
00000020: 5053 97bc 3979 d6bd 1270 c53d a354 d4bd
00000030: 2d73 c5bc ec53 0cbc 05d2 4ebd 58e8 383b
00000040: 2dfd b8bd 0501 4dbd 83c9 0cbe 4520 aa3d
00000050: 2d48 01be

norm1.weight f4 [104]
0.9599897 1.0446985 0.97128296 0.98875844 0.98407435 0.9810753 1.0387027 0.9575218
0.98989993 1.0489655 0.95854497 0.95706004 0.9892024 1.0571568 0.99266106 1.0535102
1.0039428 0.93543565 1.0118276 0.9967979 0.98999727 1.0385336 0.99129677 1.0146602
0.9882383 1.0144639 1.0783551 1.0850005 1.0080159 0.9795292 0.9624978 1.0811037
1.0051353 1.019597 0.91991174 0.97088426 0.980141 1.028709 0.99675393 0.99960077
1.010164 0.9845797 0.9566424 1.0029775 1.0091219 1.0017599 1.0327375 1.0286604
1.0451955 0.9987862 1.0397732 0.98245627 1.0596076 1.0221674 1.005703 0.9843166
0.99890584 0.9692751 1.0032406 0.980517 0.9856621 1.0256705 0.9659516 1.0238905
1.0480148 0.970456 1.0241368 0.96422654 1.0074341 0.9675554 1.0065472 0.98623747
1.0572037 0.9881713 1.053572 1.0401249 0.9649389 0.9915975 1.0400251 1.0147184
0.9729548 0.98048896 0.98600966 1.0196263 1.0442107 1.0011675 0.9851342 0.9428762
1.0338875 0.95693266 0.9685801 0.9584332 0.95831037 0.94901377 1.0914434 0.98882884
1.0098051 0.96115035 0.9575371 0.9835127 0.9741533 0.98988724 0.9494998 0.98353225
00000000: e3c1 753f aeb8 853f 00a6 783f 461f 7d3f
00000010: 4cec 7b3f c027 7b3f 36f4 843f 2620 753f
00000020: 156a 7d3f 8044 863f 3463 753f e301 753f
00000030: 5e3c 7d3f ea50 873f 091f 7e3f 6cd9 863f
00000040: 3381 803f b678 6f3f 9183 813f 262e 7f3f
00000050: 7670 7d3f abee 843f a0c5 7d3f 63e0 813f
00000060: 2ffd 7c3f f4d9 813f 8a07 8a3f 4ce1 8a3f
00000070: aa06 813f 6dc2 7a3f 4166 763f 9b61 8a3f
00000080: 46a8 803f 2882 823f 567f 6b3f df8b 783f
00000090: 85ea 7a3f bdac 833f 442b 7f3f d6e5 7f3f
000000a0: 0e4d 813f 6a0d 7c3f 84e6 743f 9161 803f
000000b0: e82a 813f ab39 803f be30 843f 25ab 833f
000000c0: f7c8 853f 74b0 7f3f 4a17 853f 4182 7b3f
000000d0: 39a1 873f 62d6 823f e0ba 803f 2cfc 7b3f
000000e0: 4bb8 7f3f 6a22 783f 306a 803f 2a03 7b3f
000000f0: 5a54 7c3f 2c49 833f 9b48 773f d80e 833f
00000100: 5925 863f ce6f 783f ea16 833f 8dd7 763f
00000110: 9af3 803f b6b1 773f 8ad6 803f 0f7a 7c3f
00000120: 7352 873f cbf8 7c3f 73db 863f d022 853f
00000130: 3c06 773f 55d9 7d3f 8b1f 853f 4be2 813f
00000140: 9113 793f 5301 7b3f 216b 7c3f 1d83 823f
00000150: b2a8 853f 4226 803f c131 7c3f 5660 713f
00000160: 6d56 843f 8af9 743f def4 773f e15b 753f
00000170: d453 753f 91f2 723f 6bb4 8b3f e323 7d3f
00000180: 4b41 813f f30d 763f 2721 753f 7dc7 7b3f
00000190: 1c62 793f 4069 7d3f 6b12 733f c5c8 7b3f

norm1.bias f4 [104]
-0.045120444 -0.023755204 -0.099110134 -0.122024246 -0.13680841 -0.061599765 -0.00238157 -0.030068375
-0.0051292256 -0.092187576 -0.1775603 0.03193436 0.023070583 -0.027579654 -0.10720801 -0.045895133
-0.05408225 -0.17649908 0.12227568 -0.15181008 -0.027697299 0.05186404 0.07633392 -0.12564808
-0.11311816 -0.044766102 -0.028661553 -0.013415102 -0.08734165 0.08184745 -0.023112072 0.072923355
-0.010454424 -0.06500218 -0.11904794 0.021554872 -0.015573404 -0.0038396656 -0.012850338 -0.03993357
0.03386477 -0.055566307 -0.0074957563 -0.037655637 -0.055278525 -0.12944676 -0.0071224524 -0.08564094
-0.0064037736 0.023813708 -0.10827193 0.007092998 0.06145726 -0.1804418 -0.057560347 -0.0056530046
0.031141968 -0.085185744 -0.06590582 0.0074002356 -0.10571509 0.01935466 -0.005367672 0.0037877827
-0.012891132 -0.10420458 0.01874509 0.071951516 -0.114457875 -0.13586996 -0.004249344 -0.11592094
-0.13542765 -0.014043611 -0.035474017 -0.03787736 -0.0689771 -0.20420583 -0.009963849 0.059478603
-0.08065534 0.042074665 0.042617492 -0.109097965 0.0085746525 -0.04486978 0.058475804 0.025371168
-0.052995384 -0.045517005 -0.029308883 -0.099031575 -0.09652881 -0.116602406 -0.028963083 -0.07554119
-0.030885281 -0.044101845 -0.14155802 -0.055177756 -0.14121932 -0.047652937 -0.07646546 -0.10461593
00000000: 37d0 38bd 469a c2bc 41fa cabd d9e7 f9bd
00000010: 8117 0cbe 0950 7cbd 1d14 1cbb f451 f6bc
00000020: 1013 a8bb d7cc bcbd 5ed2 35be 9acd 023d
00000030: 85fe bc3c baee e1bc e08f dbbd 89fc 3bbd
00000040: 5985 5dbd 2dbc 34be ac6b fa3d 1a74 1bbe
00000050: 72e5 e2bc 636f 543d f554 9c3d e4a9 00be
00000060: 7eaa e7bd a95c 37bd a2cb eabc 04cb 5bbc
00000070: 2ee0 b2bd a39f a73d 8755 bdbc d758 953d
00000080: 0849 2bbc dd1f 85bd 68cf f3bd d893 b03c
00000090: 9727 7fbc e6a2 7bbb 398a 52bc 6291 23bd
000000a0: c9b5 0a3d 7f99 63bd f69e f5bb cc3c 1abd
000000b0: bc6b 62bd b18d 04be 7663 e9bb 8464 afbd
000000c0: bfd6 d1bb f714 c33c acbd ddbd 616c e83b
000000d0: 9cba 7b3d bcc5 38be 66c4 6bbd d73c b9bb
000000e0: 711d ff3c dd75 aebd a1f9 86bd ad7d f23b
000000f0: 2781 d8bd aa8d 9e3c 4ce3 afbb 733c 783b
00000100: 5435 53bc 3669 d5bd 4e8f 993c 515b 933d
00000110: e468 eabd 7f21 0bbe 153e 8bbb f567 edbd
00000120: 8cad 0abe 2c17 66bc 344d 11bd 4a25 1bbd
00000130: de43 8dbd 551b 51be 693f 23bc d69f 733d
00000140: a02e a5bd 7c56 2c3d ae8f 2e3d c16e dfbd
00000150: b37c 0c3c 60c9 37bd 5384 6f3d 32d7 cf3c
00000160: b011 59bd 0a70 3abd 2f19 f0bc 11d1 cabd
00000170: e6b0 c5bd 3ecd eebd fd43 edbc 57b5 9abd
00000180: 2103 fdbc 23a4 34bd 96f4 10be 1202 62bd
00000190: cc9b 10be ba2f 43bd ec99 9cbd e040 d6bd

norm1.running_mean f4 [104]
0.0795379 0.06824735 0.08161351 0.018739479 -0.01179628 -0.014277006 -0.07850225 -0.023625072
0.054731496 0.041091904 0.0011292303 0.07778648 0.036040697 -0.04004228 -0.08753642 -0.05045922
0.078511916 0.051847126 0.08514517 0.020635832 0.058436494 -0.044891123 0.024175102 0.03209827
-0.0021293615 -0.030589119 -0.015971681 -0.00013772375 0.002835582 0.051430978 -0.1204368 0.016743613
0.05020495 -0.059405006 0.079515524 0.014506657 0.034585685 -0.123765744 -0.044986133 -0.0017773656
-0.047823332 -0.07040258 -0.0650146 -0.0026301725 0.045261864 -0.045095965 0.09356951 -0.07173503
-0.026068749 0.09306415 -9.585156e-05 -0.055657458 0.03749199 0.038596008 0.057715144 -0.009146402
0.05823307 0.008810802 0.0596233 -0.049876608 -0.09710694 0.0033599706 0.0077419113 -0.027668033
0.005387909 -0.004875749 0.08807982 -0.02368724 -0.033048835 -0.059387628 0.006028363 0.02964946
-0.08553917 -0.058459304 0.032715887 -0.11136263 0.04203193 0.0035259977 -0.004934371 -0.011894324
0.06432154 -0.03983028 0.09581366 -0.008934337 -0.008437442 -0.1308772 -0.05906138 -0.04403471
0.05398197 -0.041910607 0.011259291 -0.045771483 -0.044447385 -0.09164418 0.092294395 -0.023808448
0.044075787 0.018368563 0.08743702 -0.071576476 0.062225252 0.0044767424 -0.06508193 -0.08448783
00000000: c4e4 a23d 44c5 8b3d fc24 a73d 8983 993c
00000010: 2f45 41bc 1aea 69bc cac5 a0bd 5e89 c1bc
00000020: 222e 603d fc4f 283d ae02 943a 854e 9f3d
00000030: 699f 133d 6003 24bd 4b46 b3bd 54ae 4ebd
00000040: dbca a03d a75d 543d 9760 ae3d 7a0c a93c
00000050: 1b5b 6f3d c1df 37bd dd0a c63c 7a79 033d
00000060: c28c 0bbb 0896 fabc 0bd7 82bc f069 10b9
00000070: 2cd5 393b 4aa9 523d 92a7 f6bd e729 893c
00000080: b5a3 4d3d aa52 73bd 09d9 a23d 54ad 6d3c
00000090: b8a9 0d3d e578 fdbd 6143 38bd 7ef6 e8ba
000000a0: 66e2 43bd 3a2f 90bd 6026 85bd f95e 2cbb
000000b0: 8164 393d 8cb6 38bd 5fa1 bf3d d1e9 92bd
000000c0: 218e d5bc 6b98 be3d ea03 c9b8 13f9 63bd
000000d0: 3391 193d d916 1e3d b766 6c3d cada 15bc
000000e0: cd85 6e3d 2f5b 103c 9037 743d 6a4b 4cbd
000000f0: 01e0 c6bd f432 5c3b dcaf fd3b 12a8 e2bc
00000100: 0e8d b03b bfc4 9fbb 3163 b43d be0b c2bc
00000110: 375e 07bd 7140 73bd 9389 c53b 6de3 f23c
00000120: 292f afbd 0673 6fbd 1801 063d 1712 e4bd
00000130: ac29 2c3d 6d14 673b 81b0 a1bb 69e0 42bc
00000140: 03bb 833d 1325 23bd f439 c43d 5361 12bc
00000150: 323d 0abc ac04 06be 58ea 71bd bd5d 34bd
00000160: 331c 5d3d 75aa 2bbd e478 383c e17a 3bbd
00000170: 760e 36bd f2af bbbd d804 bd3d ef09 c3bc
00000180: d088 343d ab79 963c 2e12 b33d b096 92bd
00000190: e8df 7e3d a3b1 923b ad49 85bd f507 adbd

norm1.running_var f4 [104]
0.006365037 0.0070955437 0.0068726046 0.0052653896 0.0076168124 0.006012602 0.009388164 0.004136755
0.006090503 0.007688987 0.0056521 0.010207109 0.006386645 0.009732268 0.005900955 0.0060641775
0.005784052 0.0052750558 0.0060812742 0.0071087983 0.0050856806 0.007889709 0.00683147 0.008864996
0.0056539015 0.00794531 0.0082807625 0.0048164926 0.0061899717 0.0060991254 0.0052419715 0.010346059
0.006027909 0.006288341 0.0049346443 0.0067721494 0.006871521 0.0055656713 0.007288525 0.005154435
0.0087093515 0.0070690503 0.0047549605 0.0054721083 0.0080403285 0.0086881295 0.00756321 0.008447549
0.007409059 0.007180169 0.007950903 0.0037840845 0.007432459 0.0073400694 0.005304722 0.008357982
0.0057901493 0.006382208 0.005094669 0.004377834 0.008731476 0.0058083343 0.005421429 0.0067955637
0.008193979 0.00481704 0.007639339 0.0042057494 0.0064097946 0.0071634566 0.007583937 0.0052841385
0.0054504774 0.0057885787 0.00445581 0.009686881 0.0064181136 0.008583405 0.010143683 0.006809067
0.008087086 0.005674571 0.0061446135 0.0048991237 0.0075700413 0.008633417 0.0062097297 0.0062297382
0.0056134122 0.004010179 0.0067785615 0.0049094455 0.006696195 0.005865331 0.009164116 0.0062730694
0.00774331 0.0060517783 0.0059646205 0.007166147 0.0070942566 0.0066325986 0.0064213313 0.007543082
00000000: cd91 d03b bc81 e83b 9633 e13b 4a89 ac3b
00000010: 7496 f93b 5c05 c53b d0d0 193c 9e8d 873b
00000020: d892 c73b e6f3 fb3b 4035 b93b b83b 273c
00000030: 1047 d13b 1774 1f3c cc5c c13b 02b6 c63b
00000040: 2588 bd3b 60da ac3b 6d45 c73b ecf0 e83b
00000050: c8a5 a63b d743 013c 86da df3b 7d3e 113c
00000060: 5d44 b93b 0c2d 023c 09ac 073c abd3 9d3b
00000070: 3fd5 ca3b 2cdb c73b d8c4 ab3b 8482 293c
00000080: c485 c53b 6d0e ce3b ccb2 a13b e8e8 dd3b
00000090: 7f2a e13b 3c60 b63b 94d4 ee3b 89e6 a83b
000000a0: abb1 0e3c 7ea3 e73b 80cf 9b3b 5f4f b33b
000000b0: 95bb 033c a858 0e3c ced4 f73b 9767 0a3c
000000c0: b1c7 f23b a047 eb3b 8144 023c 67fe 773b
000000d0: fc8b f33b f784 f03b 3cd3 ad3b ebef 083c
000000e0: 4bbb bd3b d721 d13b 2ef1 a63b ef73 8f3b
000000f0: 770e 0f3c d753 be3b 3ea6 b13b 52ad de3b
00000100: 0a40 063c 43d8 9d3b 6c53 fa3b 62d0 893b
00000110: 4109 d23b 6ebb ea3b ad82 f83b 9126 ad3b
00000120: eb99 b23b 1eae bd3b 0b02 923b b9b5 1e3c
00000130: 0a4f d23b 69a1 0c3c b131 263c 981e df3b
00000140: b27f 043c c0f1 b93b c158 c93b d488 a03b
00000150: 1c0e f83b 2d73 0d3c fd7a cb3b d522 cc3b
00000160: b7f0 b73b d267 833b b21e de3b 6adf a03b
00000170: c16b db3b f631 c03b 1725 163c 528e cd3b
00000180: 98bb fd3b ff4d c63b dd72 c33b 00d2 ea3b
00000190: f076 e83b 4556 d93b 086a d23b f52b f73b

norm2.weight f4 [52]
1.0460259 1.0580187 0.9096852 0.929137 0.96069044 0.95270514 0.9204139 0.987609
1.0012568 0.90210855 1.0961268 1.0289489 0.9957355 1.0521591 0.9726326 1.0473927
0.9412241 0.9883868 1.0363938 1.0303375 0.98727643 0.9926385 1.0481224 1.031883
0.93804795 0.9205929 0.9943507 0.91351926 0.9049329 0.9718733 1.0484287 1.0442691
1.0347711 1.0018432 1.0059003 0.99227005 1.015254 0.9978259 0.9901317 0.97991914
0.99627835 1.0009129 1.0001478 1.0536064 0.91304654 0.9889426 1.0581882 0.9211878
0.9959147 0.96979386 1.0526488 0.92418635
00000000: 2de4 853f 286d 873f 21e1 683f ecdb 6d3f
00000010: cfef 753f 7ce4 733f 3fa0 6b3f f2d3 7c3f
00000020: 2f29 803f 96f0 663f e24d 8c3f 99b4 833f
00000030: 86e8 7e3f 26ad 863f 73fe 783f f710 863f
00000040: 10f4 703f eb06 7d3f 8da8 843f 19e2 833f
00000050: 26be 7c3f 8f1d 7e3f e028 863f be14 843f
00000060: e923 703f faab 6b3f c48d 7e3f 66dc 693f
00000070: afa9 673f b0cc 783f e932 863f 9caa 853f
00000080: 6173 843f 663c 803f 57c1 803f 6905 7e3f
00000090: d8f3 813f 8571 7f3f 4579 7d3f fbdb 7a3f
000000a0: 190c 7f3f ea1d 803f d804 803f 93dc 863f
000000b0: 6bbd 693f 582b 7d3f b672 873f f7d2 6b3f
000000c0: 44f4 7e3f 6944 783f 32bd 863f 7a97 6c3f

norm2.bias f4 [52]
-0.066030316 -0.25792173 0.041126754 -0.12831165 -0.16574737 0.011887829 -0.015655905 -0.072028026
-0.12474261 0.1457229 0.026854437 0.16238852 -0.15636131 -0.17988689 0.10949474 -0.0790605
0.0668966 -0.15512717 -0.042176593 0.23056448 0.02832984 0.04648565 -0.12890624 -0.017581824
-0.19812065 0.05531666 -0.20402342 0.043233465 -0.14880367 0.004793782 -0.10636818 0.02954684
-0.14842549 0.03651417 0.0022430394 0.07822895 0.100248195 -0.042781204 -0.026208745 -0.28970024
-0.10537033 -0.1861735 -0.13089292 -0.67388034 -0.06771665 0.099479064 0.15281497 -0.2234636
-0.08336757 -0.09340814 -0.040982205 0.033559076
00000000: e73a 87bd 510e 84be 8774 283d 2164 03be
00000010: aeb9 29be 2bc5 423c d040 80bc 6e83 93bd
00000020: 0e79 ffbd 6238 153e d6fd db3c 2d49 263e
00000030: 2e1d 20be 4534 38be c73e e03d 79ea a1bd
00000040: 1601 893d a8d9 1ebe 5dc1 2cbd 1819 6c3e
00000050: fb13 e83c bd67 3e3d ffff 03be c207 90bc
00000060: 24e0 4abe b993 623d 84eb 50be 9315 313d
00000070: fd5f 18be 2815 9d3b 8fd7 d9bd 370c f23c
00000080: dafc 17be e28f 153d f5ff 123b 8036 a03d
00000090: ed4e cd3d 583b 2fbd b9b3 d6bc 9753 94be
000000a0: 66cc d7bd 44a4 3ebe cb08 06be 6c83 2cbf
000000b0: 07af 8abd aebb cb3d 877b 1c3e a4d3 64be
000000c0: 9ebc aabd c44c bfbd f5dc 27bd 3e75 093d

norm2.running_mean f4 [52]
-0.80120367 -0.18908922 -0.037811317 -0.967202 -0.004090635 -0.2089311 -0.2184554 -0.62048066
-0.040860582 0.043659043 -0.57653224 -0.96171147 -0.7410773 -0.7052614 -0.1428105 -0.19606778
0.008745735 -0.45932016 -0.06183474 -0.5109428 0.12813716 -0.7086498 -0.53925335 -0.54033464
-0.26570123 -0.62272143 -0.5835207 -0.5469406 -0.85926676 -0.38716644 -0.52522695 -0.4149789
-0.6210317 -0.44064698 -0.3880853 -0.85835 0.057469595 -0.59922284 -0.7284712 -0.66523504
-0.11196017 -0.5039342 -0.33259374 -0.052258138 -0.057941437 -0.8887753 -0.7110421 -0.62784797
-0.406533 -0.43774417 -0.69286275 -0.2181639
00000000: af1b 4dbf 9ba0 41be 0ae0 1abd 8d9a 77bf
00000010: bc0a 86bb 09f2 55be c6b2 5fbe d2d7 1ebf
00000020: 6d5d 27bd d3d3 323d 9e97 13bf b932 76bf
00000030: 3eb7 3dbf 038c 34bf ea3c 12be fec5 48be
00000040: 454a 0f3c 032c ebbe 6d46 7dbd 26cd 02bf
00000050: 6336 033e 136a 35bf 820c 0abf 5f53 0abf
00000060: fe09 88be ac6a 1fbf 9d61 15bf 4d04 0cbf
00000070: e8f8 5bbf ae3a c6be 4675 06bf 1d78 d4be
00000080: effb 1ebf 7b9c e1be 1eb3 c6be d3bc 5bbf
00000090: 3d65 6b3d ab66 19bf 177d 3abf d84c 2abf
000000a0: 604b e5bd d501 01bf ba49 aabe a10c 56bd
000000b0: 0054 6dbd c786 63bf db06 36bf a5ba 20bf
000000c0: 1825 d0be 0120 e0be 745f 31bf 5b66 5fbe

norm2.running_var f4 [52]
0.2612422 0.13129269 0.14485773 0.22740385 0.18138175 0.19368419 0.22553572 0.2437378
0.19098854 0.235493 0.39661175 0.24168342 0.33124277 0.2539086 0.24096991 0.34387416
0.24591792 0.21568713 0.21106182 0.19168562 0.2087189 0.3045593 0.241254 0.2879606
0.26572585 0.34575975 0.19542669 0.21897481 0.34326005 0.20625763 0.17621413 0.22790712
0.28157735 0.22882536 0.2717896 0.3124568 0.21598746 0.19318022 0.20881875 0.301391
0.21115045 0.1566165 0.19646251 0.51414955 0.24519546 0.2910549 0.391591 0.2952235
0.16793936 0.15395738 0.29120183 0.16734804
00000000: 8ac1 853e 9771 063e 9655 143e 8edc 683e
00000010: 23bc 393e 2655 463e d6f2 663e 6796 793e
00000020: 8092 433e 1425 713e b210 cb3e dc7b 773e
00000030: a798 a93e 4f00 823e d1c0 763e 4610 b03e
00000040: e8d1 7b3e 16dd 5c3e 9720 583e 3c49 443e
00000050: 68ba 553e 32ef 9b3e 4a0b 773e 926f 933e
00000060: 380d 883e 6c07 b13e ef1d 483e ef3a 603e
00000070: c8bf af3e 3335 533e 7a71 343e 7c60 693e
00000080: e82a 903e 3251 6a3e 0228 8b3e 56fa 9f3e
00000090: d12b 5d3e 09d1 453e 95d4 553e ec4f 9a3e
000000a0: d337 583e 1360 203e 782d 493e 4e9f 033f
000000b0: 8514 7b3e 2605 953e 9e7e c83e 8927 973e
000000c0: 4cf8 2b3e 01a7 1d3e 6818 953e 495d 2b3e

norm3.weight f4 [21]
1.3969388 1.4863225 2.1187522 1.3554752 1.9888496 1.9527982 1.4584662 2.3785284
1.4972713 2.3545165 1.539835 2.0995693 1.7569661 1.72776 2.5701492 2.597854
2.18247 1.7510273 1.9815214 1.5610157 1.9777215
00000000: e4ce b23f d13f be3f a399 0740 3680 ad3f
00000010: a092 fe3f 4bf5 f93f 05af ba3f cf39 1840
00000020: 96a6 bf3f 66b0 1640 5019 c53f 585f 0640
00000030: 44e4 e03f 3d27 dd3f 537d 2440 3d43 2640
00000040: 97ad 0b40 aa21 e03f 7ea2 fd3f 5dcf c73f
00000050: fa25 fd3f

norm3.bias f4 [21]
-5.3950334 -4.2157674 -4.632851 -5.5153594 -2.9824588 -3.724111 -4.9522943 -4.7402277
-4.0739417 -2.934514 -4.6735086 -4.408739 -5.2820582 -5.0661907 -4.77493 -3.603997
-3.7709413 -4.8471313 -3.5409794 -4.827489 -4.9699397
00000000: 1da4 acc0 91e7 86c0 5140 94c0 d37d b0c0
00000010: 9be0 3ec0 d657 6ec0 3279 9ec0 f2af 97c0
00000020: bb5d 82c0 14cf 3bc0 628d 95c0 6414 8dc0
00000030: 9f06 a9c0 3c1e a2c0 3acc 98c0 e3a7 66c0
00000040: 1a57 71c0 b31b 9bc0 689f 62c0 ca7a 9ac0
00000050: bf09 9fc0

norm3.running_mean f4 [21]
-0.15485121 -0.14721283 -0.29251164 -0.092417225 -0.08543835 -0.31512937 0.12442305 -0.21246691
-0.22818865 -0.25721458 -0.007511334 -0.3286523 -0.2896703 0.2993051 -0.1634917 -0.18922305
-0.4166875 -0.24261315 -0.5524246 -0.010289903 -0.21351779
00000000: 5191 1ebe f6be 16be 16c4 95be 3e45 bdbd
00000010: 4dfa aebd a358 a1be 83d1 fe3d ed90 59be
00000020: 49aa 69be a1b1 83be a321 f6bb 1d45 a8be
00000030: aa4f 94be 853e 993e 5e6a 27be b0c3 41be
00000040: 1058 d5be 956f 78be b36b 0dbf fb96 28bc
00000050: 68a4 5abe

norm3.running_var f4 [21]
0.061151057 0.15257894 0.27912453 0.07277405 0.32911658 0.2917392 0.15804267 0.25526893
0.22885932 0.41352004 0.17561145 0.18145898 0.13755788 0.09286758 0.05337549 0.5309441
0.31592607 0.20660375 0.32255435 0.1283403 0.14405216
00000000: 8879 7a3d a73d 1c3e 69e9 8e3e 900a 953d
00000010: f881 a83e d75e 953e f0d5 213e 9cb2 823e
00000020: 195a 6a3e e6b8 d33e 7dd3 333e 62d0 393e
00000030: f9db 0c3e 5c31 be3d 42a0 5a3d f4eb 073f
00000040: 10c1 a13e ef8f 533e d825 a53e a46b 033e
00000050: 6982 133e

exp_avg f4 [104, 128]
-2.3956063e-05 2.0823965e-05 4.017082e-05 6.9469286e-05 1.7735372e-05 8.236844e-05 5.8898837e-05 -2.2331444e-06
-4.2914362e-05 6.967091e-05 -2.2799033e-05 7.720199e-05 0.00011530992 0.00024495585 -2.0934898e-05 5.079353e-05
-0.00028166713 6.525474e-05 1.3089177e-05 0.00019351116 -2.9765948e-05 0.00020393191 0.00010251207 0.00019860023
7.046215e-06 6.935828e-05 0.00017520116 3.0333073e-05 3.998772e-06 -2.4358485e-05 -0.00014666296 -0.0004813897
-7.507165e-05 0.00062336633 6.543987e-05 -0.00031509233 0.00013876033 0.0004405003 -0.00038234887 -7.3423624e-05
-8.4502244e-05 -4.24811e-05 0.0002655821 2.6051068e-05 7.202274e-05 -0.00026234426 0.0003797235 0.00037014432
-0.0003564868 -0.000111204725 -0.00033739553 -0.00017295542 -0.0004419704 -3.9248338e-05 0.00011530467 -0.00039519
9.145789e-05 -0.00022494575 -0.0006837887 -0.00023062376 6.048396e-05 -0.0002976618 -0.00033872013 -0.00018955089
-0.00037717432 -7.310155e-05 9.8755285e-05 -4.457384e-05 0.00012706802 0.00018795172 0.0004603707 0.00025571606
4.3148226e-05 -0.0002344811 -3.8887858e-05 2.3833909e-05 -0.00010903391 -0.00013621025 0.0002826227 -0.00010580263
-0.00022460944 -4.2033143e-06 5.536664e-05 0.00026702002 -3.9734095e-05 0.00022808283 0.00027454668 0.00041287064
-0.00020401558 -5.4041797e-05 3.890529e-05 -9.2553164e-05 -0.00017876372 -0.00014959616 0.00019429512 -6.109742e-05
-0.00049636565 0.0003317578 5.320377e-05 -0.0003869783 -0.00021096137 0.00016017896 3.35165e-05 -9.170545e-05
3.0237497e-05 -0.00030800563 0.00047098246 0.00018739364 -0.00017709895 -8.515755e-05 0.00022470242 -0.00030438462
-0.0002968364 -0.00017104563 -0.00022171716 -0.0003720772 -0.00042276044 0.00021412702 0.00063127716 0.00012157182
-0.0001086961 -0.00013640302 0.00013286562 -0.00023339553 -0.00018550399 2.0644575e-05 -3.4825437e-06 -0.00049805944
-1.2812902e-06 -1.30340695e-05 -2.2407545e-05 7.9676454e-07 -4.01443e-05 0.0001227573 0.00030411655 -8.079795e-05
0.00031654423 0.00018865669 -1.5743095e-05 -0.000105708445 7.30241e-05 0.00024695715 0.00031472518 0.00013900075
3.797278e-05 0.00010686691 -0.0005331416 -0.0015229452 -0.0016061767 -4.36481e-06 -1.01721125e-05 0.00034413222
4.6706416e-05 -3.173764e-05 0.0005173662 7.730542e-05 -0.00016717431 1.6113057e-05 0.0001498885 -0.00082103023
-6.557729e-05 0.00028994575 -0.00021879221 -8.5223066e-05 -1.8114677e-05 -0.00025546757 -0.00022989293 -0.00056378735
-0.000682939 -0.00035751573 -0.00033377056 9.1873575e-05 -1.8292627e-05 0.00010684008 0.0007458034 1.7349194e-05
-9.630269e-05 -0.00050302007 -0.00036661568 0.00042443944 -0.00032378949 -4.9017744e-05 7.603082e-05 -0.00053874817
-0.000116710835 0.00027143236 -0.000628395 0.0008214692 -2.3601504e-05 -0.00033914484 -0.0006310115 1.3890627e-05
-0.00012657155 -0.0009874661 -6.809939e-05 -0.0006647473 8.459861e-05 2.3660212e-05 -0.00013837541 -0.00010015106
-0.00015235845 3.060551e-05 -0.00028324613 -2.9272984e-05 -0.0005904973 0.00010777085 -0.0004942124 -0.0003007037
-0.00021353086 -9.7790435e-05 0.0005554772 0.00040578825 0.00012394892 0.0003684352 0.0004962475 0.0003825685
-0.00012367376 -7.3922594e-05 0.0005325379 -0.0003286179 0.0002313218 -0.00039377486 0.000105495004 -0.0001198869
-0.00033200684 0.00031759613 0.00032493606 -0.00011268309 0.00037633325 -0.000114777 0.00019854645 -0.00021362129
-0.0003336086 0.000101640995 0.0006629343 0.000643628 -0.00013113274 -0.0003698117 -0.00046791864 -5.4914537e-05
-0.00041147228 -0.00031750064 2.32017e-05 -1.1613926e-05 -0.0005684148 0.00019793808 -7.213242e-05 0.00023574087
-0.00025907156 -0.00022124352 -4.3577715e-05 -0.00052629627 -0.00017193142 0.00026587475 -0.00029797843 -0.00018896665
00000000: 41f5 c8b7 20af ae37 177d 2838 0ab0 9138
00000010: 6cc6 9437 38bd ac38 250a 7738 21dd 15b6
00000020: f2fe 33b8 491c 9238 8d40 bfb7 81e7 a138
00000030: 8bd2 f138 6b6d 8039 5a9d afb7 230b 5538
00000040: b9ac 93b9 5fd9 8838 9699 5b37 42e9 4a39
00000050: e3b1 f9b7 8ed6 5539 c0fb d638 583f 5039
00000060: 876e ec36 7174 9138 34b6 3739 c773 fe37
00000070: 312d 8636 7355 ccb7 8ac9 19b9 0863 fcb9
00000080: c96f 9db8 6869 233a c33c 8938 fa32 a5b9
00000090: 3180 1139 f3f2 e639 ff75 c8b9 02fb 99b8
000000a0: cc36 b1b8 bc2d 32b8 d33d 8b39 3e88 da37
000000b0: ea0a 9738 408b 89b9 a015 c739 ee0f c239
000000c0: d9e6 bab9 9536 e9b8 76e4 b0b9 5e5b 35b9
000000d0: 43b8 e7b9 959e 24b8 b9cf f138 8131 cfb9
000000e0: 15cd bf38 6adf 6bb9 4840 33ba 98d3 71b9
000000f0: 28b0 7d38 7e0f 9cb9 3f96 b1b9 2ec2 46b9
00000100: 7bbf c5b9 194e 99b8 d71a cf38 ccf4 3ab8
00000110: 903d 0539 e814 4539 e95d f139 a111 8639
00000120: 0efa 3438 0adf 75b9 851b 23b8 eeee c737
00000130: 22a9 e4b8 a9d3 0eb9 fa2c 9439 5be2 ddb8
00000140: 2385 6bb9 320a 8db6 7a39 6838 d2fe 8b39
00000150: 29a8 26b8 8529 6f39 08f1 8f39 8f76 d839
00000160: 04ed 55b9 f0aa 62b8 3d2e 2338 1a19 c2b8
00000170: 8572 3bb9 eadc 1cb9 b3bb 4b39 6d21 80b8
00000180: 891e 02ba c7ef ad39 1d27 5f38 59e3 cab9
00000190: 8335 5db9 b6f5 2739 1194 0c38 fd51 c0b8
000001a0: 88a6 fd37 d17b a1b9 32ee f639 197f 4439
000001b0: a3b3 39b9 9d96 b2b8 199e 6b39 d095 9fb9
000001c0: b5a0 9bb9 b65a 33b9 bf7c 68b9 5b13 c3b9
000001d0: f2a5 ddb9 4987 6039 4b7c 253a 60f4 fe38
000001e0: c6f3 e3b8 6807 0fb9 d851 0b39 a3bb 74b9
000001f0: d983 42b9 e32d ad37 a5b5 69b6 3490 02ba
00000200: ccf8 abb5 e7ac 5ab7 d6f7 bbb7 3ee1 5535
00000210: 9d60 28b8 69b8 0039 d571 9f39 1272 a9b8
00000220: d9f5 a539 25d2 4539 0a10 84b7 caaf ddb8
00000230: 8424 9938 077a 8139 b301 a539 bbc0 1139
00000240: f644 1f38 bc1d e038 87c2 0bba 909d c7ba
00000250: 5986 d2ba 6f75 92b6 e4a8 2ab7 a56c b439
00000260: a2e6 4338 081e 05b8 dc9f 073a 081f a238
00000270: 834b 2fb9 872a 8737 632b 1d39 683a 57ba
00000280: 8a86 89b8 dc03 9839 966b 65b9 c9b9 b2b8
00000290: f9f4 97b7 47f0 85b9 6a0f 71b9 21cb 13ba
000002a0: 4307 33ba f370 bbb9 edfd aeb9 40ac c038
000002b0: 1e73 99b7 550f e038 0582 433a 1c89 9137
000002c0: 1df6 c9b8 1bdd 03ba 5336 c0b9 4c87 de39
000002d0: 4ac2 a9b9 6798 4db8 bc72 9f38 c73a 0dba
000002e0: a7c2 f4b8 094f 8e39 e0ba 24ba dd57 573a
000002f0: d8fb c5b7 40cf b1b9 776a 25ba ca0b 6937
00000300: 4bb8 04b9 dd6d 81ba 95d0 8eb8 7042 2eba
00000310: 886a b138 eb79 c637 de18 11b9 3108 d2b8
00000320: 69c2 1fb9 6b5e 0038 a780 94b9 418f f5b7
00000330: 9acb 1aba 0903 e238 088e 01ba c4a7 9db9
00000340: 41e7 5fb9 d714 cdb8 729d 113a fabf d439
00000350: 49f8 0139 892a c139 9b16 023a 7a93 c839
00000360: 6cae 01b9 e406 9bb8 039a 0b3a 594a acb9
00000370: f98e 7239 9173 ceb9 333d dd38 ca6b fbb8
00000380: 3411 aeb9 0883 a639 2e5c aa39 4650 ecb8
00000390: 984e c539 6fb4 f0b8 e830 5039 87ff 5fb9
000003a0: 30e8 aeb9 1828 d538 c5c8 2d3a 25b9 283a
000003b0: ad80 09b9 49e3 c1b9 fa52 f5b9 0954 66b8
000003c0: e0ba d7b9 3776 a6b9 45a1 c237 6fd9 42b7
000003d0: ac01 15ba 998d 4f39 cc45 97b8 3531 7739
000003e0: ffd3 87b9 9bfd 67b9 37c7 36b8 25f7 09ba
000003f0: 7d48 34b9 1b65 8b39 fd39 9cb9 5925 46b9
