models/best_AudioNet3.pth (torch, 529822 bytes, 42 tensors)

fc1.weight f4 [128, 256]
0	0x3d9b8fa4	0.07595757
1	0xbd8bb486	-0.068215415
2	0xbdc955b1	-0.098307975
3	0x3d318386	0.04333832
4	0xbc3c4fa6	-0.011493599
5	0xbd2ef9af	-0.042718586
6	0x3ccd4acf	0.025060086
7	0xbc7d56d6	-0.015462598
8	0x3d08b135	0.033372123
9	0xbd1e22bc	-0.038607344
10	0x3d19dcaa	0.037563957
11	0xbd8b9d18	-0.06817073
12	0xbc4251f0	-0.011860356
13	0x3b5627e9	0.0032677597
14	0x3c2c2249	0.010506221
15	0xbd3dc0e9	-0.04632655
16	0x3ca4a890	0.020099908
17	0xbda7df70	-0.08196914
18	0x3d672ce9	0.056439314
19	0x3d7dfc98	0.06200847
20	0x3cdf9d09	0.02729656
21	0xbcc559ce	-0.024090674
22	0x3d5e65c6	0.054296277
23	0x3cf9e7f3	0.03050611
24	0x3a4482cf	0.00074962986
25	0xbd448dfe	-0.047986977
26	0x3d3aa401	0.045566563
27	0x3c95b73f	0.018275855
28	0x3c7c3d05	0.015395408
29	0xbc7a2f1b	-0.01527002
30	0xbd3516c9	-0.044211183
31	0x3c5fa0ef	0.013649209
32	0x3e0ab630	0.13546062
33	0xbc927876	-0.017879706
34	0xbba1a7c9	-0.0049333316
35	0x3c2c7f80	0.010528445
36	0x3d12a2fc	0.035799965
37	0xbd4c3e35	-0.049864013
38	0xba815d18	-0.0009869663
39	0xbe0b18f2	-0.13583735
40	0xbda202a7	-0.07910662
41	0xbdbe9a5d	-0.09306786
42	0xba8f12bf	-0.0010915621
43	0x3da95b37	0.08269351
44	0x3c6d2b7c	0.0144756995
45	0xbd2bc1ed	-0.04193299
46	0xbc425185	-0.011860256
47	0x3c20b5d7	0.009808979
48	0xbda03426	-0.078224465
49	0xbd0fc34e	-0.035098366
50	0xbabdfdca	-0.0014495191
51	0xbd92dad6	-0.07170646
52	0x3c910983	0.01770473
53	0xbdc469be	-0.09590481
54	0x3c81563a	0.015788186
55	0xbd8db970	-0.06920135
56	0xbb480d35	-0.003052545
57	0xbcf143da	-0.0294513
58	0x3cea4bf7	0.028600676
59	0xbd3d2c44	-0.046184793
60	0xbc189915	-0.009313841
61	0x3d8a044e	0.06739102
62	0x3bb4a3c9	0.005512689
63	0xbdc3cb36	-0.09560244
64	0xbd0a01d9	-0.03369317
65	0xbc8407af	-0.016116945
66	0x3a8c30b2	0.0010695665
67	0x3b373aec	0.0027958704
68	0xbd52f1eb	-0.051500242
69	0x3c1d1130	0.009586617
70	0x3d6a9db0	0.05727929
71	0x3e0ec206	0.13941202
72	0xbcf21ae1	-0.029553832
73	0x3d806db5	0.06270925
74	0x3b140206	0.0022584214
75	0x3d1d3a96	0.03838595
76	0x3b72a548	0.0037024785
77	0x3c856ce6	0.016287278
78	0x3d6fbc1f	0.058529016
79	0x3ca180a2	0.019714657
80	0xbc791e12	-0.015204923
81	0x3cef5733	0.029216385
82	0xbbfe4743	-0.00775996
83	0xbc8bc900	-0.017063618
84	0x3db5a6a4	0.08869675
85	0x3ca3ec85	0.020010242
86	0xbd52ca1a	-0.05146227
87	0xbd1c255b	-0.038121562
88	0xbd584daa	-0.05280844
89	0xbca86229	-0.020554619
90	0xbd3f1af6	-0.04665657
91	0xbbf7dc23	-0.007564084
92	0x3d350a6b	0.04419939
93	0x3c387c91	0.011260168
94	0x3caef2f8	0.02135609
95	0x3ddacb79	0.106833406
96	0xbc74410a	-0.014908085
97	0xb80903a7	-3.2666747e-05
98	0xbd96567e	-0.07340716
99	0x3cb617cf	0.02222815
100	0x3bbcd7f3	0.005763048
101	0x3c35726b	0.011074643
102	0xbc02a0a4	-0.00797287
103	0xbb4601ee	-0.0030213553
104	0xbcf5c1bd	-0.029999608
105	0x3ca686d9	0.020327972
106	0x3d9b5661	0.07584835
107	0xbcabc1c2	-0.020966414
108	0x3c2101bf	0.009827076
109	0xbc8a1719	-0.016856717
110	0xbcc00f4e	-0.023444798
111	0xbe29252a	-0.16518083
112	0x3d329326	0.043597363
113	0xbcd7caa0	-0.026341736
114	0x3d1428c5	0.036171693
115	0xbc2a9b87	-0.010413057
116	0xbe3c9b32	-0.18418577
117	0x3c862323	0.016374176
118	0x3d95a430	0.07306707
119	0x3c1adad0	0.009451583
120	0xbdc0ad2a	-0.094080284
121	0x3e0471c6	0.12934026
122	0x3cd90a91	0.026494296
123	0x3c64399b	0.01392975
124	0x3dd76f97	0.10519331
125	0xbe25c98c	-0.16190165
126	0xbc98aa56	-0.01863591
127	0xbca08440	-0.019594312
128	0xbc77215a	-0.015083635
129	0xbacb188a	-0.0015494984
130	0xbdbed691	-0.09318269
131	0x3d60e502	0.0549059
132	0xbc6adfc8	-0.01433558
133	0xbc979351	-0.018502863
134	0x3d82faa0	0.06395459
135	0xbcc233eb	-0.023706397
136	0x3d434ea1	0.04768241
137	0xbd51332f	-0.051074203
138	0xbca7cb23	-0.020482605
139	0xbd1e341b	-0.03862391
140	0x3cc90f38	0.02454339
141	0x3b4e74ca	0.0031502717
142	0x3d56e73a	0.05246661
143	0xbd919d57	-0.07110088
144	0xbc725457	-0.014790616
145	0xbd932ef8	-0.07186693
146	0x3de7d7b4	0.11320439
147	0x3d0f5e8a	0.03500227
148	0x3c9ab894	0.018886842
149	0x3aaf7a4e	0.001338789
150	0x3ce2d763	0.027690595
151	0x3cfdf32d	0.030999744
152	0x3baabda8	0.005210597
153	0xbd1c9b5f	-0.03823411
154	0x3d5fbd65	0.05462398
155	0x3d473bc9	0.048641
156	0x3c42b825	0.011884724
157	0xbd938073	-0.07202234
158	0xbd5dbf25	-0.054137368
159	0x3c59486e	0.0132618975
160	0x3daeeb18	0.08540934
161	0xbd1ff419	-0.03905115
162	0xbbe5fa4b	-0.0070183626
163	0x3cc7dc24	0.024396963
164	0x3ce60d13	0.028082406
165	0xbd172fcf	-0.03691083
166	0x3b21cc51	0.0024688432
167	0xbddacbdc	-0.10683414
168	0xbe08a82d	-0.13345404
169	0xbdabfec5	-0.08398203
170	0xbd9db459	-0.07700414
171	0x3d2e381a	0.04253397
172	0xbce01682	-0.027354483
173	0xbd2f793c	-0.042840227
174	0xbcbd4a4f	-0.023106722
175	0xbc2d7131	-0.010586069
176	0xbd8d6f0e	-0.069059476
177	0xbdf71376	-0.12064259
178	0xbd0f07e8	-0.03491965
179	0xbb9315df	-0.004488691
180	0xbbf5cbb5	-0.0075010904
181	0xbd6dc860	-0.05805242
182	0x3ce12775	0.027484635
183	0xbd7398bc	-0.05947183
184	0x3d53fed1	0.051756684
185	0xbd0732e9	-0.033007536
186	0x3c8311cf	0.015999703
187	0xbd1c7c83	-0.03820468
188	0xbce5145b	-0.027963808
189	0x3d9cd151	0.076571114
190	0x3c4a77eb	0.012357692
191	0xbda09cfa	-0.07842441
192	0xbc6d704d	-0.014492107
193	0x3ba956ed	0.005167833
194	0x3caee052	0.021347199
195	0xbce064a4	-0.02739174
196	0xbccfde10	-0.025374442
197	0x3c9569f8	0.018239006
198	0xbcac182c	-0.02100762
199	0x3dd5ff69	0.10449106
200	0xbd917517	-0.07102411
201	0x3d51ec5c	0.0512508
202	0x3c2b0ea1	0.0104404995
203	0xbbe8a0e0	-0.007099256
204	0x3c60b0f8	0.013714068
205	0x3d8aefed	0.067840435
206	0x3d548afc	0.05189036
207	0x3b3f8151	0.0029221366
208	0xbc54c884	-0.01298726
209	0x3d2ea5bb	0.04263852
210	0xbb42e852	-0.0029740524
211	0xbde81314	-0.11331764
212	0x3d607919	0.054802988
213	0xbcacdcea	-0.021101434
214	0xbd03ed95	-0.032208998
215	0xbc7074d7	-0.014676294
216	0xbcbcc3ba	-0.023042548
217	0xbbf55d9b	-0.0074879653
218	0xbd38e530	-0.045140445
219	0xbc8ba220	-0.01704508
220	0x3c8af1b0	0.016960949
221	0x3ccb3cd1	0.024809273
222	0x3cdf5d4a	0.027266163
223	0x3dcb34cb	0.09922179
224	0x3c9e4e08	0.019324318
225	0x3d374811	0.044746462
226	0xbd546674	-0.05185552
227	0x3c0003e2	0.007813426
228	0x3d330de1	0.043714408
229	0xbc5a51ca	-0.013325164
230	0xbc393e95	-0.011306425
231	0x3d0ba573	0.03409333
232	0x3c8cca8e	0.01718643
233	0xbd5c77c5	-0.05382516
234	0x3d4c26d6	0.049841724
235	0xbd6c38b2	-0.057671256
236	0xbc622b2f	-0.013804241
237	0x3c84a8ee	0.016193833
238	0xbd575314	-0.052569464
239	0xbdad3f1f	-0.08459305
240	0xbbca56c8	-0.006174896
241	0xbcc52ab5	-0.024068216
242	0xbcd1ec8a	-0.025625486
243	0x3c97e25f	0.01854056
244	0xbe010344	-0.12598902
245	0x3ca10fc7	0.019660844
246	0x3d84c68c	0.06483182
247	0x3d5119f8	0.051050156
248	0xbd8e149b	-0.06937524
249	0x3cc43f2d	0.023955906
250	0x3c606f63	0.013698432
251	0x3ccd1eee	0.025039162
252	0x3d306544	0.043065324
253	0xbdff4ed5	-0.12466208
254	0xbcd06c1c	-0.025442176
255	0x3c823903	0.015896326

fc1.bias f4 [128]
0	0xbd6ae099	-0.0573431
1	0x3caf8664	0.021426387
2	0x3d008930	0.031380832
3	0xbcfb5826	-0.03068168
4	0xbcc666ef	-0.024219004
5	0x3c1e5b9b	0.009665395
6	0x3d5d6ab9	0.054056857
7	0xbcb2cf5e	-0.021827396
8	0x3d4b7353	0.04967053
9	0xbc29f509	-0.010373362
10	0xbd620431	-0.05517978
11	0x3cb73254	0.022362866
12	0x3cdffaac	0.02734121
13	0xbd5396e7	-0.051657584
14	0x3ccfdb34	0.025373079
15	0x3d1e44a9	0.0386397
16	0x3d585bea	0.05282203
17	0xbabc9707	-0.0014388271
18	0x3d446be0	0.04795444
19	0x3d70a86d	0.058754373
20	0xbcf87078	-0.030327067
21	0x3ce61297	0.028085036
22	0x3b4cb601	0.0031236412
23	0xb98860fb	-0.00026012197
24	0x3b512cf4	0.0031917663
25	0x3c2980f5	0.010345687
26	0xbd071f49	-0.03298882
27	0x3cc6467d	0.024203533
28	0xbd5a3e34	-0.053281978
29	0xbc3ef012	-0.011653917
30	0xbccf2b41	-0.02528918
31	0x3d3e8cf6	0.04652115
32	0x3d5a2694	0.053259447
33	0xbd13f56c	-0.036122724
34	0x3d5560dc	0.052094325
35	0xbd1f1068	-0.038834006
36	0x3ce5a144	0.028030999
37	0xbd004e52	-0.031324692
38	0x3cad5896	0.021160405
39	0x3c0b6cf4	0.008509863
40	0xbbf195b4	-0.0073725823
41	0xbd77c820	-0.06049359
42	0x3d60631d	0.05478202
43	0xbcb74f38	-0.022376642
44	0x3d1ebb4e	0.038752846
45	0xbcfab089	-0.030601757
46	0x3ce15b03	0.027509218
47	0x3d3d18cb	0.046166223
48	0xbca08a29	-0.01959713
49	0xbd30cfb1	-0.04316682
50	0x3d18edb2	0.03733606
51	0x3cca2a43	0.024678355
52	0x3d7fb27c	0.062426075
53	0xbd66639c	-0.05624734
54	0x3d14fa8c	0.036371753
55	0xbc7e2bd5	-0.01551338
56	0xbd1340af	-0.03595036
57	0x3cb20f31	0.02173576
58	0xbc98be44	-0.018645413
59	0xbcb10897	-0.021610541
60	0x3c9f730f	0.019464044
61	0xbd0e4209	-0.034730945
62	0x3ce2b1f4	0.027672745
63	0xbd472376	-0.048617803
64	0xb6829f0f	-3.8928188e-06
65	0xbd0d27f0	-0.034461915
66	0xbd385461	-0.045002345
67	0xbd3b71e0	-0.045762897
68	0x3d7df849	0.06200436
69	0x3c87fb96	0.016599458
70	0xbbade3b3	-0.005306685
71	0x3d07c7f4	0.033149675
72	0x3d486f37	0.048934188
73	0x3d02179c	0.031760797
74	0xbd3b9502	-0.0457964
75	0x3d1b9778	0.03798625
76	0x3c6b3adf	0.014357298
77	0xbc321475	-0.010869135
78	0x3d387fad	0.045043636
79	0x3d193f2f	0.037413772
80	0xbd3966f2	-0.045264192
81	0xbc6d96d2	-0.01450129
82	0xbd08bd9c	-0.03338395
83	0x3c136a6b	0.00899754
84	0xbce16c64	-0.027517505
85	0x3d6e0e9f	0.058119413
86	0xbcb96dc9	-0.022635357
87	0xbcf8fd9e	-0.030394372
88	0x3d295912	0.04134471
89	0xbd7403b4	-0.059573844
90	0x3c70c5aa	0.014695564
91	0xbd170f41	-0.03687978
92	0x3b40782f	0.002936851
93	0xbbb374cc	-0.0054765698
94	0xbd671047	-0.056412008
95	0xbd56dfc0	-0.05245948
96	0xbd3539a7	-0.044244435
97	0xbbf4d01a	-0.0074710967
98	0xba5b5bec	-0.00083678844
99	0xbc82751d	-0.015924985
100	0x3c549d89	0.012977012
101	0x3cfb40d7	0.030670566
102	0x3d22e755	0.039771397
103	0xbd4fb021	-0.05070508
104	0x3b8c8dc6	0.0042893616
105	0xbcd25ab7	-0.025678022
106	0xbd5da04d	-0.054107953
107	0xbbb3ae6b	-0.0054834387
108	0x3b12a7c2	0.0022377823
109	0x3d2cf284	0.04222347
110	0x3d347dda	0.044065334
111	0xbc42f224	-0.011898551
112	0xbd420496	-0.047367655
113	0x3c355f77	0.011070124
114	0xbcbe16b6	-0.023204189
115	0x3d081674	0.033224538
116	0x3cac267e	0.021014448
117	0xbd050fa9	-0.032485638
118	0xbc914b72	-0.01773617
119	0xbd65e538	-0.056126803
120	0x3d44593b	0.04793666
121	0xbb849cf4	-0.0040470306
122	0xbccabe99	-0.024749087
123	0x3d4d8102	0.05017186
124	0x3d312aac	0.043253586
125	0xbd0d0f30	-0.034438312
126	0x3cbf31e0	0.023339212
127	0x3cf9104e	0.030403282

fc2.weight f4 [64, 128]
0	0xbdae3a60	-0.08507228
1	0xbcce80aa	-0.025207836
2	0x3d27f798	0.04100761
3	0xbdc63e91	-0.09679902
4	0x3cf40567	0.029787732
5	0xbd39c3a7	-0.045352604
6	0x3c3d2db2	0.011546539
7	0xbd8cda1f	-0.06877541
8	0x3d907965	0.07054404
9	0xbb12d334	-0.002240372
10	0xbc06c417	-0.008225462
11	0xbd1bc7c2	-0.0380323
12	0x3d462cc7	0.048382547
13	0x3d813ac1	0.063100345
14	0x3d86707a	0.06564422
15	0x3b3d9d07	0.0028932707
16	0xbd65e442	-0.056125887
17	0xbc870bda	-0.016485143
18	0xb8fa7f00	-0.000119445845
19	0x3d5a32de	0.053271167
20	0xbc930d5b	-0.017950704
21	0x3c797df2	0.015227782
22	0x3c8a669a	0.016894627
23	0x3d5903b5	0.05298205
24	0xbd359d16	-0.044339262
25	0xbda8b35a	-0.082373336
26	0x3d1be08a	0.038055934
27	0x3c9d61ba	0.019211639
28	0x3cceebfa	0.025259007
29	0xbc8bd913	-0.017071282
30	0x3dbb6490	0.0915004
31	0x3d3159d3	0.043298554
32	0x3d8b8a4e	0.06813489
33	0xbc9a6ddc	-0.018851213
34	0xbc25f58e	-0.010129346
35	0x3dbf50e7	0.09341603
36	0x3d9313c3	0.071815036
37	0xbe306b79	-0.17228498
38	0xbc6c26cd	-0.014413548
39	0xbb27d192	-0.0025607091
40	0x3d204a9e	0.03913366
41	0x3c197466	0.00936613
42	0xbcec5c95	-0.02885274
43	0x3cd94f79	0.026527153
44	0x3dc62bc4	0.096763164
45	0xbd25e5c9	-0.040502343
46	0xbcddfcde	-0.027098116
47	0xbd81508a	-0.0631419
48	0xbd4b666f	-0.049658235
49	0x3da873d0	0.082252145
50	0xbdc8077a	-0.09767051
51	0x3d163611	0.036672655
52	0x3d086b0f	0.033305224
53	0xbda89993	-0.08232417
54	0x3da5daeb	0.08098396
55	0x3c055135	0.008137037
56	0xbd319af0	-0.04336065
57	0x3de395c4	0.1111255
58	0x3c3b552b	0.01143388
59	0x3bf4dbc0	0.0074724853
60	0xbd4ff37b	-0.05076931
61	0xbdc84d4e	-0.0978037
62	0xbd9eab47	-0.07747512
63	0xbd742d54	-0.05961354
64	0xbcc60786	-0.02417351
65	0x3d40faad	0.047114063
66	0x3b318d54	0.0027092295
67	0xbd1eb028	-0.038742214
68	0x3b256c8d	0.0025241703
69	0x3d90e8b7	0.07075637
70	0x3c4a6ef0	0.012355551
71	0xbce83186	-0.028343927
72	0xbb9e983c	-0.004839925
73	0xbd3dff11	-0.04638583
74	0x3d1b8aa9	0.037974034
75	0xbd3a9df8	-0.045560807
76	0xbd1b3d7a	-0.037900425
77	0x3dd2900b	0.1028138
78	0x3c8ffb5c	0.017575912
79	0xbc93ca26	-0.018040728
80	0x3e1851d4	0.14874965
81	0xbcb866f0	-0.022510022
82	0xbd8203d3	-0.06348386
83	0xbc9a88a5	-0.018863985
84	0xbdbd1a18	-0.092334926
85	0xbc9f88f6	-0.019474488
86	0x3d92e093	0.071717404
87	0xbcab3e17	-0.02090363
88	0x3d6a81b5	0.057252605
89	0xba2518ba	-0.0006297935
90	0xbd412f46	-0.047164224
91	0xbdbc710b	-0.09201249
92	0xbb430503	-0.0029757626
93	0x3d117211	0.035509173
94	0x3dacf0a2	0.084443346
95	0x3e0cf3b8	0.13764846
96	0x3cf99660	0.030467212
97	0xbda50b0b	-0.08058747
98	0xbde0cc76	-0.10976498
99	0xbdfc6835	-0.123245634
100	0xbc42dbd7	-0.011893234
101	0x3e08d415	0.13362153
102	0xbd46d131	-0.048539344
103	0xbd82ad34	-0.06380692
104	0x3d95d043	0.073151134
105	0xbd754259	-0.059877727
106	0x3d621e0e	0.055204444
107	0x3d9de16f	0.07709014
108	0x3d414631	0.04718608
109	0xbc9097bd	-0.01765048
110	0x3d769fed	0.06021111
111	0xbd125963	-0.035729777
112	0x3db0be0e	0.0863
113	0x3d26509d	0.040604223
114	0xbdef5cf4	-0.11687651
115	0x3c872cba	0.01650082
116	0x3dd97df4	0.10619727
117	0x3d83d460	0.06436992
118	0xbc1eef08	-0.009700544
119	0x3c0b3ba2	0.008498104
120	0x3d3c2244	0.045931116
121	0x3b8dc4c3	0.0043264343
122	0x3c4195ba	0.011815483
123	0xbcc4d83a	-0.024028886
124	0xbc18fdbe	-0.009337841
125	0xbd846256	-0.064640686
126	0x3d1388fc	0.03601931
127	0x3db2725c	0.087132186
128	0x3d81ec47	0.063438945
129	0x3c86f255	0.016472975
130	0xbc684503	-0.01417661
131	0xbb9ef3e0	-0.0048508495
132	0x3c65dccd	0.014029694
133	0xbc882c75	-0.016622761
134	0xbd161d69	-0.03664914
135	0x3d217970	0.039422452
136	0xbdaaa7cd	-0.08332787
137	0xbdc38357	-0.095465355
138	0xbd6e7792	-0.0582195
139	0x3d51a8d8	0.051186413
140	0xbd6cb2df	-0.057787772
141	0xbd9ce58a	-0.076609686
142	0x3caeaf38	0.021323785
143	0xbd8e734b	-0.06955584
144	0x3d029075	0.031876046
145	0x3d80da3c	0.06291625
146	0xbc2f659e	-0.01070538
147	0x3d157da1	0.036496762
148	0xbcb9cfb7	-0.022682054
149	0xbdd4bded	-0.10387788
150	0xb9c63f80	-0.00037812814
151	0xbe27201e	-0.16320845
152	0x3d0e4efc	0.034743294
153	0xbdf6559a	-0.12028046
154	0xbdb91d68	-0.09038812
155	0xbce5f36d	-0.028070176
156	0xbdc40eba	-0.09573121
157	0x3c777928	0.0151045695
158	0xbd72bf87	-0.059264686
159	0xbb6e1f99	-0.0036334752
160	0x3d5627c2	0.05228401
161	0x3c5ed4e4	0.013600562
162	0xbcbd3e41	-0.023100974
163	0x3ddd0f29	0.10793907
164	0xbda2c007	-0.079467826
165	0x3d5f2d7a	0.05448673
166	0x3cd095d6	0.025462072
167	0x3d8469f0	0.064655185
168	0xbb9476b8	-0.004530754
169	0xbd9c009e	-0.07617305
170	0xbd67a73c	-0.05655597
171	0xbc229ccc	-0.009925079
172	0xbd675e47	-0.056486394
173	0xbc268403	-0.01016331
174	0x3d5a303c	0.053268656
175	0x3c077d7c	0.008269664
176	0xbc7aa7b6	-0.0152987745
177	0xbd3e0615	-0.04639252
178	0xbddfcd01	-0.10927773
179	0xbdd5bab2	-0.10436
180	0xbc5a7666	-0.013333892
181	0xbe1bc757	-0.15212761
182	0x3a947950	0.0011327658
183	0xbd2a6f13	-0.041609835
184	0xbdaed414	-0.085365444
185	0x3d3fb08c	0.046799228
186	0xbc2034df	-0.00977823
187	0x3cebeed3	0.028800404
188	0xbd881559	-0.06644697
189	0x3d4fb2c4	0.050707594
190	0xbacb0e1a	-0.0015491873
191	0x3df52673	0.11970224
192	0x3ae72c7a	0.0017637156
193	0xbca61a4b	-0.02027621
194	0x3dd23bc5	0.102653064
195	0x3d17e826	0.03708663
196	0xbd3d3072	-0.04618878
197	0xbd7f03e6	-0.062259577
198	0xbc98179a	-0.018565942
199	0xbc8f3b89	-0.017484443
200	0xbd148e5c	-0.036268577
201	0xba261440	-0.0006335415
202	0x3d72de59	0.05929408
203	0x3b1e2cdf	0.0024135632
204	0xbc7fca00	-0.015612125
205	0x3d4013c3	0.046893846
206	0xbc15a7c8	-0.00913424
207	0x3dff8a38	0.12477535
208	0xbc17bcce	-0.009261323
209	0x3d3dae1c	0.04630862
210	0xbd5ab304	-0.05339338
211	0x3c7defc4	0.015499059
212	0x3d20cba0	0.039256692
213	0x3c8bd809	0.017070787
214	0x3c043928	0.008070268
215	0xbcb4da38	-0.022076711
216	0x3ab96827	0.001414542
217	0x3dd81a5f	0.10551905
218	0xbc6917b9	-0.014226847
219	0xbdab9f0e	-0.08379947
220	0x3d0169d5	0.03159507
221	0xbd29d07e	-0.0414586
222	0xbd5735ad	-0.052541424
223	0x3ba02793	0.00488753
224	0x3d331106	0.043717407
225	0xb9c2850d	-0.00037101694
226	0x3ce37ebd	0.027770394
227	0x3dbbd554	0.091715485
228	0x3d684080	0.056702137
229	0xbd49c582	-0.049260624
230	0x3c9c5a3e	0.019086
231	0x3d7439ea	0.059625544
232	0x3c5bca47	0.013414926
233	0xbc766c2c	-0.015040439
234	0x3dacc49f	0.0843594
235	0xbce61a85	-0.028088817
236	0x3d8f429b	0.06995126
237	0xbcc81197	-0.02442245
238	0x3bb4a29a	0.0055125477
239	0xbd43f632	-0.047842212
240	0x3d4c3cf6	0.049862824
241	0xbd35eaa9	-0.044413242
242	0x3ba7c4ff	0.0051199193
243	0x3c3e967e	0.01163256
244	0x3dc3def0	0.09564006
245	0x3d91b975	0.07115451
246	0xbd320742	-0.043463953
247	0x3cfa8015	0.030578652
248	0xbd56d203	-0.052446377
249	0xbc1215be	-0.008916317
250	0x3dbfba7b	0.0936174
251	0xbd98d88d	-0.07463179
252	0xbcaccded	-0.021094287
253	0xbd33e500	-0.043919563
254	0xbe042c50	-0.12907529
255	0xbd46f994	-0.04857786

fc2.bias f4 [64]
0	0xbd386fce	-0.0450285
1	0x3d886f2c	0.06661829
2	0xbc877355	-0.016534487
3	0xbd040007	-0.03222659
4	0x3acf4d9b	0.0015815975
5	0xbcf8918c	-0.03034284
6	0xbda828bc	-0.082108945
7	0x3d0e230c	0.034701392
8	0x3cd94fee	0.026527371
9	0xbd07793b	-0.0330746
10	0x3d1e8b3f	0.038707014
11	0xba919af7	-0.0011108805
12	0x3d8d3d82	0.06896497
13	0x3d9a824c	0.075443834
14	0x3d9bb443	0.076027416
15	0xbd1974c2	-0.037464865
16	0x3db06c5f	0.0861442
17	0xbcffc269	-0.031220632
18	0xbd5673f9	-0.052356694
19	0x3c9029da	0.017598081
20	0x3da296f1	0.07938946
21	0xbd55e980	-0.052224636
22	0xbd4cb946	-0.049981378
23	0xbc38787b	-0.0112591935
24	0x3bcc8a36	0.006242062
25	0xbd857e87	-0.06518274
26	0xbceb5815	-0.028728524
27	0x3ca57c64	0.020200916
28	0xbc05ee9c	-0.008174565
29	0xbd9951a2	-0.07486273
30	0x3da7cec4	0.08193734
31	0x3d245b79	0.040126298
32	0xbccc17a9	-0.024913626
33	0x3cea59ba	0.028607238
34	0xbd4e31b5	-0.050340373
35	0xbda5c810	-0.080947995
36	0xbce4c5ed	-0.02792641
37	0x3bdda47a	0.006763992
38	0xbd781d61	-0.060574893
39	0x3d4153db	0.04719911
40	0xbd94d52e	-0.07267223
41	0xbd5bca96	-0.053659998
42	0xbd871695	-0.06596104
43	0xbc2c605f	-0.0105210235
44	0xbbfb1285	-0.00766212
45	0x3d31369c	0.04326497
46	0x3d818317	0.063238315
47	0xbcf7b6a5	-0.030238459
48	0xbcc0b584	-0.023524053
49	0xbd87812b	-0.06616434
50	0xbae1ec86	-0.0017236627
51	0x3d905508	0.070474684
52	0xbd3490cc	-0.0440834
53	0xbd49744d	-0.04918318
54	0xbd9df609	-0.07712943
55	0xbd69f7f8	-0.057121247
56	0x3d9942c5	0.074834384
57	0xbda1efe4	-0.07907084
58	0x3cc763da	0.024339605
59	0xbd85b7ea	-0.065292194
60	0xbd31d96a	-0.043420233
61	0x3d4e57df	0.05037677
62	0x3d276a5f	0.040872928
63	0xbd0b8ff9	-0.03407285

fc3.weight f4 [21, 64]
0	0x3c3b82e9	0.011444786
1	0xbdb33e93	-0.087521695
2	0xbdd524a5	-0.1040738
3	0x3c2fc1a9	0.0107273245
4	0x3a93e4be	0.001128338
5	0xbd858608	-0.06519705
6	0x3d94b67b	0.07261368
7	0xbd216027	-0.03939834
8	0xbd3fc25e	-0.046816222
9	0x3c06b105	0.008220916
10	0x3dbd46cd	0.0924202
11	0x3cdfe5cc	0.027331255
12	0x3ccec5af	0.025240747
13	0xbd8a8670	-0.06763923
14	0xbc71ec53	-0.014765817
15	0xbd928100	-0.07153511
16	0xbd9f1dc6	-0.07769351
17	0x3ce67f56	0.02813689
18	0xbd1ea64c	-0.03873281
19	0xbe0a31e2	-0.13495591
20	0xbd21e64c	-0.03952627
21	0x3d652dc9	0.055951867
22	0xbd881453	-0.066445015
23	0xbd073866	-0.03301277
24	0xbc591e26	-0.013251817
25	0xbdadded9	-0.084897704
26	0x3e5f7b0e	0.21824285
27	0xbceec2fb	-0.029145708
28	0xbe216dc8	-0.15764534
29	0x3cbb6980	0.022877455
30	0xbe222ed7	-0.1583818
31	0xbd15935d	-0.03651749
32	0xbe0b3fee	-0.13598606
33	0xbe2328fa	-0.159336
34	0x3cb9e272	0.022690985
35	0x3caf6ff0	0.02141568
36	0xbd84f4f8	-0.064920366
37	0xbcb1b9ef	-0.021695105
38	0x3c8bd3c6	0.017068755
39	0x3dc0bb40	0.09410715
40	0xbd17983c	-0.037010416
41	0x3c86d1c2	0.016457442
42	0xbd90a276	-0.07062237
43	0x3d30ead1	0.04319269
44	0x3d905458	0.07047337
45	0x3cf3284b	0.0296823
46	0xbd1393ed	-0.036029745
47	0xbca0ac97	-0.019613547
48	0xbdbcb024	-0.09213284
49	0x3cd9ad90	0.026572019
50	0x3c5b8014	0.013397235
51	0xbd05a6e1	-0.03262985
52	0xbd8ae819	-0.0678255
53	0xbe85805b	-0.2607449
54	0xbd93177c	-0.07182214
55	0xbd55689a	-0.05210171
56	0x3d387c2a	0.045040287
57	0x3c60cf9a	0.013721371
58	0x3b068f44	0.002053217
59	0xbd43eb48	-0.047831804
60	0xbd620191	-0.055177275
61	0x3d1039e0	0.035211444
62	0x3df31cb2	0.118707076
63	0xbd4c9055	-0.049942333
64	0xbd25661a	-0.040380575
65	0xbd87b3a5	-0.06626061
66	0xbbde2f6c	-0.0067805555
67	0x3c5ed115	0.013599654
68	0xbd40b07a	-0.0470433
69	0xbb1d7509	-0.0024026057
70	0xbd755dfd	-0.059904087
71	0x3c9ed3a9	0.019388037
72	0xbd4f876f	-0.05066627
73	0xbdcf35ad	-0.1011766
74	0x3cd5f632	0.026118372
75	0x3c6e080f	0.0145282885
76	0xbd056310	-0.032565176
77	0xbd3b7ff9	-0.04577634
78	0xbbda28fb	-0.0066577173
79	0xbc2cc237	-0.010544351
80	0xbdc649d6	-0.09682052
81	0xbd290011	-0.04125983
82	0xbd097586	-0.033559345
83	0xbd348702	-0.044074066
84	0x3dc107eb	0.09425338
85	0xbd262b1e	-0.040568464
86	0xbd927ccf	-0.071527116
87	0x3c6be78c	0.014398467
88	0x3e1164f3	0.14198665
89	0xbc497c7a	-0.012297744
90	0xbdccb0bd	-0.09994648
91	0x3e030d0e	0.12797949
92	0x3d917274	0.07101908
93	0xbc8e3cca	-0.01736297
94	0xbdddb744	-0.10825971
95	0x3e3bf6c5	0.18355854
96	0xbd9c5533	-0.07633438
97	0xbd00484a	-0.03131894
98	0xbd7104be	-0.058842413
99	0x3d43c7bc	0.047797903
100	0xbd0e5e1d	-0.034757722
101	0xbc508743	-0.012727561
102	0x3e41e4a1	0.18934871
103	0xbd8294c7	-0.06376033
104	0x3cc3786a	0.023861129
105	0xbd99fa12	-0.075184
106	0xbe0d6bfa	-0.13810721
107	0xbda738b5	-0.08165113
108	0xbdd16ab0	-0.10225427
109	0x3b0163b8	0.0019743275
110	0xbdd43333	-0.10361328
111	0x3e098017	0.13427769
112	0xbd8ba63e	-0.068188176
113	0xbc6364fc	-0.013879057
114	0x3c54b086	0.01298154
115	0xbd127e6e	-0.035765104
116	0xbd3b0639	-0.04566023
117	0x3d29e6b9	0.0414798
118	0xbcebdf0c	-0.02879288
119	0xbe0a9bef	-0.13536046
120	0x3e33aadc	0.17545646
121	0xbca322e9	-0.019914107
122	0xbd899d09	-0.06719405
123	0xbddf4051	-0.10900939
124	0x3c9fe92f	0.01952037
125	0xbd5a0ba0	-0.053233743
126	0xbd3f42d8	-0.046694607
127	0xbd710d7b	-0.058850747
128	0x3d08fd68	0.033444792
129	0x3d05c24c	0.032656
130	0xbda72bda	-0.08162661
131	0x3dcf3113	0.10116782
132	0xbc0dd8d2	-0.008657651
133	0x3dd92ffb	0.10604855
134	0xbdaab842	-0.08335926
135	0xbdb45f73	-0.08807268
136	0xbd72423a	-0.05914519
137	0x3b1ec280	0.0024224818
138	0xbdc3c9a8	-0.09559947
139	0xbd3cfc88	-0.04613927
140	0x3c8a0070	0.016845912
141	0xbc143e70	-0.009048089
142	0x3d968a20	0.07350564
143	0xbc945ddf	-0.018111167
144	0xbdc2ddb6	-0.09514944
145	0x3d7c55eb	0.061605375
146	0xbd6538e4	-0.05596246
147	0xbd384ca1	-0.044994954
148	0xbd87e0fe	-0.06634711
149	0xbd12a1be	-0.03579878
150	0xbba72117	-0.00510038
151	0x3d858d7a	0.06521125
152	0x3da782de	0.08179258
153	0xbd9038f9	-0.07042117
154	0xbc781e3f	-0.01514393
155	0x3dd28dd7	0.1028096
156	0x3d459e05	0.048246402
157	0xbcfbe507	-0.030748857
158	0xbe1b1aae	-0.15146896
159	0xbd9b8b86	-0.07594971
160	0x3daec9ac	0.085345596
161	0xbe0282d6	-0.12745222
162	0xbd9703fd	-0.073738076
163	0xba333eb0	-0.0006837649
164	0xbd793122	-0.060837872
165	0xbd6becfe	-0.05759906
166	0xbe2a2c0e	-0.16618368
167	0x3da82cb1	0.08211649
168	0x3d05942e	0.03261202
169	0x3d8e4e3e	0.06948517
170	0xbc122de9	-0.008922079
171	0xbad4617e	-0.0016203371
172	0x3cad99fe	0.021191593
173	0xbe17c2d0	-0.14820409
174	0xbd83474b	-0.064100824
175	0xbcd2d797	-0.025737567
176	0xbddaa599	-0.106761165
177	0x3d2e73bd	0.042590845
178	0x3d3d0570	0.046147764
179	0xbb8fd1bf	-0.0043890174
180	0x3e558493	0.20851354
181	0xbd8e0035	-0.06933633
182	0xbe162899	-0.14663924
183	0xbd773b90	-0.060359538
184	0xbbf43de5	-0.0074536675
185	0xbca1750f	-0.019709138
186	0x3e2e202f	0.17004465
187	0xbd27016e	-0.040772848
188	0x3d934121	0.07190157
189	0xbe08c8b3	-0.1335781
190	0xbcd99b16	-0.026563209
191	0x3e1913b0	0.14948916
192	0xbdfc946c	-0.12332997
193	0x3e25b219	0.1618122
194	0xbd804f50	-0.06265128
195	0xbcac6d48	-0.021048203
196	0xbdf6614f	-0.12030279
197	0x3bccee0c	0.0062539633
198	0xbd91356e	-0.07090269
199	0xbdf92e61	-0.12167049
200	0x3d7f56a9	0.062338505
201	0xbbf7efae	-0.007566414
202	0xbdd42f4b	-0.10360583
203	0x3bf107f3	0.007355684
204	0xbcc6a6ce	-0.02424946
205	0x3dabb09a	0.083832934
206	0xbdc97e0e	-0.09838496
207	0xbd81160d	-0.06303034
208	0x3cc8444d	0.02444663
209	0xbd453659	-0.048147533
210	0xbdbd6e1e	-0.09249519
211	0x3cdac2c7	0.026704205
212	0x3d079f11	0.033110682
213	0xbd715ba5	-0.05892529
214	0xbab8e71b	-0.0014106961
215	0x3e195230	0.14972758
216	0x3d69ba25	0.057062287
217	0xbd6c473e	-0.05768513
218	0xbcafd9c5	-0.021466145
219	0x3db87585	0.0900679
220	0xbdbfe7ac	-0.0937036
221	0x3c0ccc9b	0.008593704
222	0xbd42614e	-0.04745608
223	0x3cd4c4ac	0.025972687
224	0xbdc76aac	-0.09737143
225	0x3ea238a8	0.3168385
226	0x3b853fcf	0.0040664445
227	0x3cf0cf94	0.029395856
228	0x3bb2d50d	0.0054575265
229	0xbca7d322	-0.020486418
230	0xbe05d1e8	-0.13068354
231	0x3cf0f85b	0.0294153
232	0x3cbd8d79	0.023138748
233	0x3cb1129e	0.021615323
234	0xbb99cd08	-0.004693631
235	0xbd71712d	-0.058945823
236	0xbce9aafa	-0.02852391
237	0x3d1964e0	0.037449718
238	0x3d1ee61a	0.03879366
239	0x3cb6cb96	0.022313874
240	0xbc996f34	-0.018729784
241	0x3c9125c0	0.017718196
242	0x3caddb9b	0.02122288
243	0xbd884750	-0.06654227
244	0xbd4d547e	-0.050129406
245	0xbd969f22	-0.07354571
246	0x3d295dad	0.0413491
247	0x3d9cdc71	0.07659233
248	0x3c9e7405	0.019342432
249	0xbd855ef4	-0.065122515
250	0xbd8d6d2a	-0.06905587
251	0xbd53c092	-0.05169732
252	0xbd891aaf	-0.066945426
253	0xbdeb1ba5	-0.11479882
254	0xbdd411e2	-0.103549734
255	0xbd41490d	-0.047188807

fc3.bias f4 [21]
0	0xbdea114b	-0.114290796
1	0xbc1a4af7	-0.009417287
2	0xbdec6601	-0.11542893
3	0xbdd6cb2f	-0.10487973
4	0x3b2890ea	0.002572114
5	0x3dac8ed8	0.08425683
6	0x3d5264b6	0.051365577
7	0xbd94a5b3	-0.07258167
8	0x3b0d7033	0.0021581769
9	0x3d8ca6a9	0.068677254
10	0xbcab4f75	-0.020911912
11	0x3d29e2c8	0.04147604
12	0x3dd9a9b8	0.106280744
13	0xbd158323	-0.036502015
14	0xbd18621e	-0.037202947
15	0xbde1d7f7	-0.1102752
16	0xbcc8971d	-0.024486119
17	0x3b5eb6f0	0.003398355
18	0x3cf748ad	0.030186022
19	0x3d3142e9	0.0432767
20	0x3c7f54ce	0.015584184

norm1.weight f4 [128]
0	0x3f7e948d	0.9944542
1	0x3f775861	0.9661923
2	0x3f799ef5	0.97508174
3	0x3f7f7092	0.99781144
4	0x3f71af94	0.94408536
5	0x3f82f696	1.0231502
6	0x3f7c1f68	0.9848542
7	0x3f8125bd	1.0089642
8	0x3f772e52	0.96555054
9	0x3f836406	1.02649
10	0x3f67ed67	0.9059662
11	0x3f67d707	0.9056248
12	0x3f7835d6	0.9695715
13	0x3f7c6f65	0.98607475
14	0x3f8a1830	1.0788631
15	0x3f78086c	0.9688785
16	0x3f7f6241	0.997593
17	0x3f7af5ac	0.98031116
18	0x3f85a77e	1.044174
19	0x3f803e2d	1.0018975
20	0x3f7aadc8	0.9792142
21	0x3f85510a	1.0415356
22	0x3f83d33d	1.029884
23	0x3f84612a	1.0342152
24	0x3f68d32d	0.9094723
25	0x3f885560	1.0651054
26	0x3f85382c	1.0407767
27	0x3f825449	1.0181972
28	0x3f76fa79	0.9647594
29	0x3f7ea522	0.9947072
30	0x3f820c02	1.0159914
31	0x3f791177	0.97292274
32	0x3f800156	1.0000408
33	0x3f883744	1.0641866
34	0x3f6c26c4	0.9224665
35	0x3f840b24	1.03159
36	0x3f8534ae	1.0406702
37	0x3f71c456	0.9444021
38	0x3f7c2c45	0.9850505
39	0x3f8137e0	1.0095177
40	0x3f745c60	0.95453453
41	0x3f81df17	1.0146207
42	0x3f80b22e	1.0054376
43	0x3f828199	1.01958
44	0x3f808892	1.0041678
45	0x3f7a87a1	0.97863203
46	0x3f727f76	0.9472574
47	0x3f881633	1.0631775
48	0x3f7351a1	0.9504643
49	0x3f8490ad	1.0356652
50	0x3f7490bf	0.95533365
51	0x3f7d7575	0.9900735
52	0x3f77af3d	0.9675177
53	0x3f82da2d	1.0222832
54	0x3f803a58	1.0017805
55	0x3f790bc0	0.97283554
56	0x3f80986a	1.0046513
57	0x3f828aed	1.0198647
58	0x3f849997	1.0359372
59	0x3f811dd5	1.0087229
60	0x3f6fc454	0.9365895
61	0x3f776190	0.96633244
62	0x3f7ea9d8	0.9947791
63	0x3f7cd23e	0.98758304
64	0x3f7f0eb8	0.99631834
65	0x3f8015de	1.0006673
66	0x3f883d9d	1.0643803
67	0x3f7c2582	0.9849473
68	0x3f86b0b9	1.0522681
69	0x3f7fd99e	0.9994143
70	0x3f7819af	0.9691419
71	0x3f6fb948	0.9364209
72	0x3f854d94	1.04143
73	0x3f7b4400	0.98150635
74	0x3f74ac9c	0.9557588
75	0x3f71c8ee	0.9444722
76	0x3f81679a	1.0109742
77	0x3f7437a1	0.9539738
78	0x3f6eb0be	0.9323844
79	0x3f84f2f0	1.0386639
80	0x3f7cec30	0.98797894
81	0x3f6e3978	0.9305644
82	0x3f847838	1.0349188
83	0x3f7cf999	0.98818356
84	0x3f772499	0.9654022
85	0x3f7de08c	0.99170756
86	0x3f8751cd	1.0571839
87	0x3f7c46bd	0.9854544
88	0x3f84108e	1.0317552
89	0x3f7d7cf3	0.9901878
90	0x3f75f5fa	0.96078455
91	0x3f830c7a	1.0238183
92	0x3f80b823	1.0056194
93	0x3f80a413	1.0050071
94	0x3f718898	0.9434905
95	0x3f893e6d	1.0722176
96	0x3f815265	1.010327
97	0x3f7d3128	0.9890313
98	0x3f801faa	1.0009663
99	0x3f8027d3	1.0012153
100	0x3f7a59f8	0.9779353
101	0x3f7f9f3f	0.99852365
102	0x3f7a6511	0.97810465
103	0x3f841359	1.0318404
104	0x3f84ef93	1.0385612
105	0x3f872da5	1.0560805
106	0x3f7a48d0	0.97767353
107	0x3f84d217	1.0376614
108	0x3f7ff2c9	0.99979836
109	0x3f6cf0df	0.9255504
110	0x3f743e00	0.95407104
111	0x3f81cd49	1.0140773
112	0x3f75d2ce	0.9602479
113	0x3f7c52ab	0.9856364
114	0x3f6e7467	0.93146366
115	0x3f7842ad	0.9697674
116	0x3f84bc49	1.036996
117	0x3f861d35	1.0477663
118	0x3f7c0f89	0.98461205
119	0x3f84e928	1.0383654
120	0x3f8181bf	1.011772
121	0x3f801cfe	1.0008848
122	0x3f8a679d	1.081287
123	0x3f831f8b	1.0244001
124	0x3f6ff051	0.9372607
125	0x3f7bf630	0.9842253
126	0x3f87dcb5	1.061423
127	0x3f7cd972	0.98769295

norm1.bias f4 [128]
0	0xbe215049	-0.15753283
1	0x3d3d546e	0.046223097
2	0xbc70e2ee	-0.014702542
3	0xbddcedab	-0.10787519
4	0xbe71fd7c	-0.23631853
5	0xbc2478a4	-0.010038529
6	0xbe36b570	-0.1784265
7	0xbd9ba965	-0.07600669
8	0xbd8b46b1	-0.06800593
9	0xbdeaf8f9	-0.11473269
10	0xbb07e637	-0.0020736584
11	0xbdc82955	-0.097735085
12	0xbe3960d4	-0.18103343
13	0xbd8a23eb	-0.06745132
14	0xbd875596	-0.06608121
15	0x3ca97e09	0.020689981
16	0x3d1957d9	0.037437294
17	0xbcec1fed	-0.028823817
18	0xbbdc8496	-0.0067296727
19	0xbdfa66bc	-0.12226626
20	0xbcec7095	-0.028862277
21	0xbd437ec2	-0.047728308
22	0xbcff03cf	-0.031129746
23	0xbbb79b5e	-0.005603238
24	0xbde2fb99	-0.11083145
25	0x3dc2d112	0.09512533
26	0x3d3f3b5a	0.04668746
27	0xbd8a6cc6	-0.06759028
28	0xbd9c7126	-0.07638769
29	0xbe25cbb4	-0.16190988
30	0x3c7e947e	0.015538333
31	0x3cfe9356	0.031076115
32	0xbe0cbbf6	-0.13743576
33	0x3cb209e6	0.021733236
34	0xbd9e7509	-0.077371664
35	0xbd88348a	-0.06650646
36	0xbda87d96	-0.082270786
37	0xbb4a9eee	-0.0030917483
38	0xbd117b7f	-0.035518166
39	0xbdbe0d10	-0.09279835
40	0xbd68df5e	-0.056853645
41	0xbde9423a	-0.11389585
42	0xbdc0de0f	-0.09417354
43	0xbda9ff5a	-0.083006576
44	0xbc7f8d42	-0.015597643
45	0x3c249a6a	0.010046581
46	0xbe37c3d9	-0.17945804
47	0xbdd6bdbb	-0.10485407
48	0xbdd69112	-0.10476889
49	0xbd8210c8	-0.06350857
50	0xbd8ec45f	-0.069710486
51	0xbe17e63a	-0.14833918
52	0xbe8b6796	-0.27227467
53	0xbdbf717f	-0.093478195
54	0xbda972bd	-0.08273838
55	0x3d32d50c	0.04366021
56	0xbc3472e8	-0.011013724
57	0xbdade821	-0.08491541
58	0xbcfb7e91	-0.0307
59	0xbdef5f3d	-0.11688087
60	0xbd92afc0	-0.07162428
61	0xbdc0b46e	-0.09409414
62	0xbd86ecb0	-0.06588113
63	0xbe295bd8	-0.16538942
64	0xbd7151ea	-0.05891601
65	0xbdbbf229	-0.09177048
66	0xbe3e1471	-0.18562485
67	0xbc835abb	-0.016034475
68	0xbc6e0c7f	-0.0145293465
69	0xbc7134b0	-0.014722034
70	0x3b8f36e2	0.004370556
71	0xbe1ee471	-0.15516831
72	0xbe19a0d0	-0.15002751
73	0xbd20026a	-0.039064802
74	0xbe24cfbc	-0.1609487
75	0xbba3d083	-0.004999222
76	0xbe2c03f0	-0.16798377
77	0xbe52c0c9	-0.20581354
78	0xbd20e8c0	-0.039284468
79	0xbdf79f59	-0.1209094
80	0x3c8c7259	0.017144369
81	0xbdac87d8	-0.08424348
82	0x3d755916	0.059899412
83	0x3d912eee	0.07089029
84	0x3c5d8bda	0.013522113
85	0xbd95e4c2	-0.07319023
86	0x3c77344a	0.01508815
87	0xbd9513ca	-0.07279165
88	0xbe456e70	-0.1928041
89	0xbe65b66a	-0.22432867
90	0xbb9674ed	-0.0045915754
91	0xbdc95e03	-0.098323844
92	0xb7a29b81	-1.9384317e-05
93	0xbb68dbd0	-0.003553141
94	0xbda1ba8e	-0.078969106
95	0xbdaff73c	-0.08592078
96	0xbd49df65	-0.04928531
97	0xbe3f3ca4	-0.18675476
98	0x3aa47ab2	0.0012548773
99	0xbd288507	-0.04114249
100	0xbd92bf90	-0.07165444
101	0xbe753108	-0.23944485
102	0xbd37820d	-0.04480176
103	0x3cd4d8d8	0.025982305
104	0xbe1bdf01	-0.15221788
105	0xbdd1c7ee	-0.10243212
106	0xbe244983	-0.16043667
107	0x3b2d2bca	0.0026423805
108	0xbc827927	-0.01592691
109	0xbd8708f9	-0.06593508
110	0xbda71567	-0.08158379
111	0xbd261021	-0.040542725
112	0x3c8ef6cb	0.017451664
113	0xbdad2dc7	-0.08455997
114	0x3baa6c60	0.0052009076
115	0xbe22e8fe	-0.15909192
116	0xbdef7e3e	-0.11694001
117	0xbde8db02	-0.113698974
118	0xbc5dc784	-0.013536338
119	0xbcfc666c	-0.030810557
120	0xbd4fa21f	-0.05069172
121	0x3d11fb45	0.03564002
122	0xbd69a25c	-0.057039604
123	0xbdb943c9	-0.09046132
124	0x3d910e7f	0.07082843
125	0xbdf93e46	-0.12170081
126	0x3d9ab5d0	0.07554209
127	0xbe312dbe	-0.17302606

norm1.running_mean f4 [128]
0	0xbe3eeec6	-0.18645772
1	0xbef3ae00	-0.4759369
2	0xbf111527	-0.566729
3	0x3f145f3c	0.57957816
4	0x3f0ba1ae	0.5454358
5	0xbf5a0cf8	-0.8517604
6	0xbdd885b5	-0.105723776
7	0xbe6d3d52	-0.23167923
8	0x3eeb9f89	0.46020153
9	0xbc8395c0	-0.016062617
10	0x3c751a13	0.01495983
11	0xbebc6928	-0.36798978
12	0xbe813800	-0.25238037
13	0xbe34fe04	-0.17675024
14	0xbe0f15d0	-0.13973165
15	0x3eb644fa	0.355995
16	0xbe594ddd	-0.21221109
17	0xbc435eff	-0.011924504
18	0xbd152076	-0.03640791
19	0xbe8dc8c1	-0.27692226
20	0x3e156377	0.14588724
21	0x3d49b123	0.049241196
22	0xbdf2b5f0	-0.11851108
23	0xbd9d57c4	-0.076827556
24	0xbdc97795	-0.098372616
25	0x3e9d5446	0.30728358
26	0xbe90c954	-0.282786
27	0x3e695cda	0.22789326
28	0x3d78eaad	0.06077068
29	0xbe92722b	-0.28602728
30	0xbe54d54a	-0.20784488
31	0xbdef5b98	-0.11687392
32	0x3d756518	0.059910864
33	0x3ee18430	0.44046164
34	0x3d036db4	0.032087043
35	0xbeace881	-0.33771136
36	0xbc4a8676	-0.01236116
37	0x3e71136d	0.23542567
38	0xbcca8b35	-0.024724582
39	0xbecc9926	-0.39960593
40	0xbda52f66	-0.08065681
41	0xbe8b8924	-0.27253067
42	0x3cfa671f	0.03056675
43	0xbf1e69f7	-0.6188044
44	0x3ce9ec32	0.02855501
45	0x3ecf8509	0.40531185
46	0xbeb75e0b	-0.35813937
47	0xbdcc6c3d	-0.09981582
48	0xbf3da01c	-0.7407243
49	0xbcb1ba94	-0.021695413
50	0xbe9ab5ae	-0.30216736
51	0xbe56d8eb	-0.20981185
52	0xbd947a9a	-0.07249947
53	0xbe2512ee	-0.16120502
54	0x3e34b364	0.17646557
55	0x3e057473	0.13032703
56	0xbd51ffd2	-0.05126936
57	0xbef3b135	-0.47596136
58	0xbe86b160	-0.263072
59	0x3eb8b16e	0.36072868
60	0x3e6e5f1a	0.23278466
61	0xbf0e1be0	-0.55511284
62	0xbe3c8e91	-0.1841376
63	0x3d409495	0.0470167
64	0xbee71cac	-0.45139062
65	0x3e705dcc	0.2347328
66	0x3e9fe282	0.312275
67	0xbeee9a09	-0.46601894
68	0xbe20bd21	-0.15697147
69	0xbe9cf73e	-0.3065738
70	0xbe57d2f2	-0.21076563
71	0xbe9f129f	-0.31068894
72	0xbf6c4631	-0.92294604
73	0x3ed84d5f	0.4224653
74	0xbf25383b	-0.64538926
75	0x3da1b7bc	0.07896373
76	0xbef8243c	-0.48465145
77	0xbec6c896	-0.3882491
78	0x3e2f062f	0.17092203
79	0xbf09ce40	-0.5383034
80	0x3e170a53	0.14750032
81	0xbec2c118	-0.38037944
82	0xbd9898e3	-0.07451036
83	0xbd133f90	-0.03594929
84	0xbde4db32	-0.11174621
85	0x3f0fb2e8	0.56132364
86	0xbdba7952	-0.09105171
87	0x3e3f2534	0.18666536
88	0xbe674f5f	-0.22588871
89	0xbeb6887b	-0.35651
90	0xbeff520d	-0.49867287
91	0x3d23648f	0.039890822
92	0x3ea522f6	0.32253236
93	0x3f13ce9b	0.5773713
94	0x3e8af8f8	0.27143073
95	0xbd9267d7	-0.07148712
96	0xbd7927de	-0.060829036
97	0xbeb8796e	-0.36030143
98	0x3e697868	0.22799838
99	0xbad4875e	-0.0016214659
100	0xbd75b5ef	-0.05998796
101	0xbeb9f92c	-0.36322916
102	0x3edabcee	0.42722267
103	0xbf49139d	-0.7854555
104	0x3c3a928c	0.011387479
105	0x3e815ae2	0.2526465
106	0xbee76db7	-0.45200893
107	0x3de14560	0.1099956
108	0xbe5f1481	-0.21785165
109	0x3e0996b5	0.13436396
110	0xbd963e26	-0.073360726
111	0xbe6e9b3f	-0.23301409
112	0xbe393fb0	-0.18090701
113	0xbee5a778	-0.4485433
114	0x3e94722e	0.28993362
115	0x3e7b0302	0.24512866
116	0x3e006638	0.12538993
117	0xbe52141c	-0.20515484
118	0xbeb9f3ba	-0.3631876
119	0xbce193f0	-0.027536362
120	0xbd8037db	-0.062606536
121	0x3da41644	0.08012059
122	0xbea32e00	-0.31871033
123	0xbe50257b	-0.20326798
124	0x3f0dc9ad	0.5538586
125	0xbe688ac0	-0.22709179
126	0x3bb04ecc	0.005380487
127	0xbf228372	-0.6348182

norm1.running_var f4 [128]
0	0x3f18b5dc	0.59652495
1	0x3f1ba301	0.607956
2	0x3e9cb74c	0.30608594
3	0x3eacbe79	0.3373907
4	0x3e6f6ff9	0.23382558
5	0x3f451d4b	0.7699782
6	0x3ea618e0	0.32440853
7	0x3ea40393	0.32033977
8	0x3eb025ea	0.34403926
9	0x3eaa4668	0.3325684
10	0x3eb9afec	0.3626703
11	0x3eb5a294	0.354756
12	0x3e91fec5	0.28514686
13	0x3e61b775	0.2204264
14	0x3eba6dae	0.36411804
15	0x3eafa88f	0.34308288
16	0x3ed00ef8	0.4063642
17	0x3f40f79c	0.7537782
18	0x3eedb1fc	0.46424854
19	0x3eb3544e	0.35025257
20	0x3e979f3e	0.2961368
21	0x3ea61829	0.32440308
22	0x3f27370f	0.6531839
23	0x3f02970a	0.5101172
24	0x3ef231dd	0.47303668
25	0x3ede4b40	0.43416786
26	0x3ec7ecc0	0.39047813
27	0x3ee3aa9a	0.44466096
28	0x3ec18269	0.37794808
29	0x3ebce1d7	0.36891052
30	0x3edee4e3	0.43534002
31	0x3ed76be6	0.42074507
32	0x3ef2d9b9	0.47431734
33	0x3f04507c	0.5168531
34	0x3ea6043c	0.32425106
35	0x3f7c8088	0.98633623
36	0x3edf377c	0.4359702
37	0x3f15f1be	0.58571994
38	0x3eb63fdb	0.35595593
39	0x3f2310a7	0.63697284
40	0x3e9c39e3	0.30512914
41	0x3ee5a076	0.44848984
42	0x3e995643	0.29948625
43	0x3ec8676c	0.39141405
44	0x3ed9ef1b	0.42565235
45	0x3f088a4c	0.53336024
46	0x3e897bca	0.26852256
47	0x3efdcb08	0.49568963
48	0x3f0d05a1	0.55086714
49	0x3ee84715	0.4536673
50	0x3ef1b7fe	0.47210687
51	0x3ebf6a23	0.37385663
52	0x3e85084f	0.259829
53	0x3eb1b8db	0.34711346
54	0x3ed02ee7	0.40660784
55	0x3eefe82b	0.46856818
56	0x3ee4dd25	0.4469997
57	0x3eb84897	0.35992882
58	0x3ebe591c	0.3717736
59	0x3ecc0c36	0.39853066
60	0x3ed0bf57	0.4077098
61	0x3ed730e5	0.4202949
62	0x3ee31a83	0.44356164
63	0x3e9e9ae3	0.30977544
64	0x3ec5847e	0.38577646
65	0x3ee7dcec	0.45285738
66	0x3edce9d9	0.43147162
67	0x3f14b06d	0.58081704
68	0x3f2dacd9	0.6784187
69	0x3ec75d21	0.3893824
70	0x3eaeb0da	0.34119302
71	0x3e60100f	0.21881126
72	0x3ef850de	0.48499197
73	0x3ec514aa	0.38492328
74	0x3eec0fe5	0.46105877
75	0x3eda2059	0.42602804
76	0x3ea1d3a8	0.31606793
77	0x3e7d9fff	0.24768065
78	0x3e97bea0	0.29637623
79	0x3f3fdfbc	0.74950767
80	0x3f020cfc	0.5080106
81	0x3f339e4e	0.7016343
82	0x3f03af71	0.5143958
83	0x3f02e8c2	0.5113641
84	0x3f552925	0.83265907
85	0x3f001e3a	0.5004612
86	0x3f1a9167	0.60378116
87	0x3f0e642c	0.556216
88	0x3f21ac97	0.63153976
89	0x3edb248c	0.4280132
90	0x3ec41219	0.38295057
91	0x3f0fc272	0.56156075
92	0x3f2a6696	0.66562784
93	0x3ed537b0	0.4164405
94	0x3ebf9ca1	0.37424186
95	0x3f1ef448	0.62091494
96	0x3f1360f0	0.5756979
97	0x3f03e7f2	0.51525795
98	0x3ef9f1b0	0.48817205
99	0x3ee4fdd8	0.44724917
100	0x3f4a89db	0.791166
101	0x3ef3f0fc	0.47644794
102	0x3f5e2e52	0.8678943
103	0x3f1f7fdc	0.6230447
104	0x3ea81cd1	0.32834485
105	0x3eba8694	0.364308
106	0x3f604986	0.8761219
107	0x3ed389da	0.4131611
108	0x3f08335a	0.53203356
109	0x3e91ee75	0.2850224
110	0x3f019460	0.5061703
111	0x3ea55af1	0.32295945
112	0x3eaaa043	0.33325395
113	0x3f118f96	0.5685972
114	0x3f05ad90	0.5221796
115	0x3ebb2ceb	0.36557707
116	0x3f00338b	0.5007865
117	0x3efbc6e8	0.4917519
118	0x3eca3e8f	0.39500853
119	0x3f10759a	0.56429446
120	0x3ee28d1c	0.44248283
121	0x3ebcf7eb	0.36907896
122	0x3ef1f7dd	0.47259417
123	0x3eea7857	0.45794937
124	0x3ee7ba4d	0.45259324
125	0x3e8fb51c	0.28067863
126	0x3f06d330	0.52665997
127	0x3eefa701	0.468071

norm2.weight f4 [64]
0	0x3f7f4a1d	0.9972246
1	0x3f887c1c	1.0662875
2	0x3f6d6a6c	0.9274051
3	0x3f7fb755	0.9988912
4	0x3f74ce2b	0.9562709
5	0x3f7c7420	0.9861469
6	0x3f7fa6fd	0.9986418
7	0x3f860f34	1.047339
8	0x3f796d83	0.97432727
9	0x3f789dd3	0.9711582
10	0x3f847362	1.0347712
11	0x3f71cfb8	0.9445758
12	0x3f69e4cb	0.91364735
13	0x3f7ec629	0.9952112
14	0x3f73b62e	0.9519986
15	0x3f7b6517	0.98201126
16	0x3f8424cd	1.0323731
17	0x3f630283	0.8867571
18	0x3f7bf471	0.98419863
19	0x3f82452b	1.0177358
20	0x3f78f717	0.9725203
21	0x3f7737a3	0.9656927
22	0x3f7f8d94	0.99825406
23	0x3f653e38	0.89548063
24	0x3f83f8e7	1.0310334
25	0x3f7a5aad	0.9779461
26	0x3f84e4cd	1.0382324
27	0x3f7ea55b	0.9947106
28	0x3f8215ea	1.0162938
29	0x3f6f0255	0.93362933
30	0x3f80ed97	1.0072507
31	0x3f800869	1.0002567
32	0x3f795bf1	0.97405916
33	0x3f808f51	1.0043737
34	0x3f77ca87	0.9679341
35	0x3f76aa1e	0.9635333
36	0x3f826213	1.018618
37	0x3f844f02	1.0336611
38	0x3f88e3bc	1.0694499
39	0x3f84c67f	1.0373076
40	0x3f7f2b01	0.99674994
41	0x3f79010c	0.9726722
42	0x3f869b16	1.0516078
43	0x3f7dd4a4	0.9915259
44	0x3f743e21	0.954073
45	0x3f7a0adb	0.97672814
46	0x3f852b7e	1.0403898
47	0x3f795864	0.974005
48	0x3f796158	0.9741416
49	0x3f7ff375	0.9998086
50	0x3f82c702	1.0216982
51	0x3f821a1c	1.0164218
52	0x3f813acf	1.0096072
53	0x3f7e7cc9	0.9940916
54	0x3f878d82	1.059006
55	0x3f885773	1.0651687
56	0x3f86eeb3	1.0541595
57	0x3f81e7d5	1.0148875
58	0x3f7eb8ba	0.9950062
59	0x3f80dc43	1.0067219
60	0x3f804e05	1.002381
61	0x3f7a8363	0.9785673
62	0x3f6a5d1a	0.9154831
63	0x3f83350b	1.0250562

norm2.bias f4 [64]
0	0x3da54e1c	0.08071539
1	0x3d5419a0	0.05178225
2	0x3d312629	0.043249283
3	0x3d82057c	0.06348702
4	0xbe0622fb	-0.13099281
5	0x3db3371c	0.08750746
6	0x3dd09c3e	0.10186051
7	0xbd80630e	-0.06268893
8	0x3daec148	0.08532959
9	0xbe843737	-0.25823376
10	0x3d889688	0.066693366
11	0xbdf84e90	-0.121243596
12	0xbcd72907	-0.02626468
13	0x3cbf4bda	0.023351599
14	0x3dc854b2	0.09781779
15	0xbdbb6e87	-0.09151941
16	0xbe278873	-0.16360645
17	0x3dcad03f	0.09903001
18	0xbdadac79	-0.08480162
19	0xbc9552b9	-0.018227922
20	0x3d8b2b88	0.06795412
21	0xbdd3ce6b	-0.103421055
22	0x3d81f452	0.063454285
23	0x3dbe6688	0.092969
24	0xbd5fe3f1	-0.05466074
25	0xbe496238	-0.19666374
26	0xbe1b4877	-0.15164362
27	0xbd87f9e0	-0.06639457
28	0xbda06dc9	-0.0783344
29	0xbe7d9fa8	-0.24767935
30	0xbd4739f4	-0.048639253
31	0xbdaa9eae	-0.08331047
32	0xbdd322e5	-0.1030939
33	0xbe0f6482	-0.14003184
34	0xbd886ea0	-0.06661725
35	0xbdc1bf37	-0.094602995
36	0xbd1d45af	-0.038396534
37	0x3d277ac3	0.04088856
38	0x3d858122	0.06518771
39	0xbce4d3b8	-0.027932987
40	0xbd837290	-0.064183354
41	0xbd640018	-0.055664152
42	0xbce1b869	-0.027553754
43	0xbe19f2e0	-0.15034056
44	0xbdb9592c	-0.09050211
45	0xbe8b831c	-0.27248466
46	0xbd99ea19	-0.07515354
47	0xbe01af31	-0.12664486
48	0xbebb4fff	-0.3658447
49	0xbd3e21ed	-0.046419073
50	0x3c806339	0.015672313
51	0xbe924973	-0.28571662
52	0xbe5bc406	-0.21461496
53	0x3dc56e94	0.09640232
54	0xbe694b2b	-0.2278258
55	0xbcc07c9d	-0.02349692
56	0x3d6d0fc0	0.05787635
57	0xbe63b529	-0.22237076
58	0xbd1daadb	-0.03849302
59	0x3c3a30f8	0.011364214
60	0x3d4096e4	0.0470189
61	0x3df60e94	0.12014499
62	0xbde2374a	-0.11045702
63	0xbe4f31da	-0.2023386

norm2.running_mean f4 [64]
0	0x3d6a4a3a	0.057199694
1	0xbe96dd1f	-0.29465577
2	0xbe3b29a4	-0.18277603
3	0xbe699bca	-0.22813335
4	0xbed7cbce	-0.42147678
5	0xbe6f1b99	-0.23350371
6	0xbf662bdd	-0.8991068
7	0xbeb2f246	-0.34950465
8	0xbe0b2238	-0.13587272
9	0xbf22459a	-0.63387454
10	0xbf2b7d31	-0.669879
11	0x3db157c6	0.086593196
12	0xbd291f02	-0.041289337
13	0xbee9501c	-0.4556893
14	0xbe0f8e9e	-0.14019248
15	0xbf1ccc3f	-0.61249155
16	0xbecb0136	-0.3964936
17	0xbf13dc7e	-0.5775832
18	0xbeb8bc51	-0.36081174
19	0xbf3ce780	-0.7379074
20	0xbf13b71d	-0.57701284
21	0xbd6937d4	-0.056938007
22	0xbd093040	-0.03349328
23	0xbf1323dc	-0.5747659
24	0xbee4e025	-0.4470226
25	0xbf35eda6	-0.7106575
26	0xbf358ef1	-0.70921236
27	0xbf253d1d	-0.64546376
28	0xbe42d6e1	-0.19027282
29	0xbbdb29d7	-0.0066883373
30	0xbf49528f	-0.786416
31	0xbf1ae65e	-0.6050776
32	0xbece7e55	-0.4033076
33	0xbe5ac53d	-0.21364303
34	0x3e7e9da1	0.24864818
35	0xbf40f69a	-0.75376284
36	0xbea087a5	-0.3135349
37	0xbf16e40c	-0.5894172
38	0xbefe0e47	-0.49620268
39	0xbf702c5f	-0.93817705
40	0xbedb19ee	-0.4279322
41	0xbf29b5f0	-0.6629324
42	0xbf6e6fe2	-0.9313947
43	0x3d3cc5f0	0.046087205
44	0xbf3ec88b	-0.74524754
45	0xbefceb37	-0.49398205
46	0xbf2b9e65	-0.67038566
47	0xbeb17b24	-0.3466426
48	0xbeed70dc	-0.46375167
49	0xbe3d7c5a	-0.18504468
50	0xbf204cf8	-0.62617445
51	0xbf3d11e6	-0.73855436
52	0xbed7274b	-0.42022166
53	0xbeb2c0eb	-0.3491281
54	0xbeea9be3	-0.45822057
55	0x3e82ee04	0.25572217
56	0xbf8642e0	-1.0489159
57	0xbf7605c6	-0.9610256
58	0xbf0561f1	-0.5210257
59	0x3cbfeb8e	0.02342775
60	0xbf92150f	-1.1412677
61	0x3e51f284	0.20502669
62	0xbef97026	-0.48718375
63	0xbea72763	-0.32647237

norm2.running_var f4 [64]
0	0x3ec2267d	0.3791999
1	0x3ea660f9	0.3249586
2	0x3ea39491	0.31949285
3	0x3eebab34	0.46029055
4	0x3e88c65f	0.26713845
5	0x3eb10b26	0.34578818
6	0x3ece05a7	0.40238687
7	0x3e8136df	0.25237176
8	0x3ee0c45c	0.4389981
9	0x3e7abcf6	0.24486145
10	0x3ec2254f	0.3791909
11	0x3e614985	0.22000702
12	0x3e740ce1	0.23833038
13	0x3f0ec60e	0.5577096
14	0x3ee4d441	0.44693187
15	0x3ea34d04	0.31894696
16	0x3ea86c89	0.32895306
17	0x3e803b9c	0.25045478
18	0x3eb82796	0.35967702
19	0x3f20ac30	0.6276274
20	0x3eabb09e	0.33533186
21	0x3e475c9d	0.19468923
22	0x3ef6110e	0.48059887
23	0x3eb62e2f	0.3558211
24	0x3eea3822	0.4574595
25	0x3e8ff7d0	0.28118753
26	0x3e9bb25d	0.30409518
27	0x3ead0225	0.337907
28	0x3ed20d55	0.41025797
29	0x3e628df2	0.2212446
30	0x3eb512f6	0.3536603
31	0x3efac4fd	0.48978415
32	0x3ed67d4e	0.41892475
33	0x3ea43b80	0.32076645
34	0x3e872c91	0.2640119
35	0x3e728c15	0.2368625
36	0x3ea89cce	0.32932132
37	0x3e892ec4	0.26793492
38	0x3ec29e02	0.38011175
39	0x3f0a9cca	0.5414549
40	0x3e7eafcf	0.24871753
41	0x3ea85276	0.32875413
42	0x3ecd16ba	0.40056401
43	0x3ee4033f	0.44533727
44	0x3e8d5c15	0.27609316
45	0x3e5bea5c	0.2147612
46	0x3ee7348a	0.45157272
47	0x3ee2fea4	0.443349
48	0x3e2bf49c	0.1679253
49	0x3ed6dbc6	0.4196455
50	0x3eb02871	0.34405854
51	0x3e78f755	0.243131
52	0x3e80f621	0.2518778
53	0x3f0e932a	0.55693305
54	0x3e958dc7	0.2920973
55	0x3ec17354	0.377833
56	0x3f30fc80	0.69135284
57	0x3e8c0d50	0.27353907
58	0x3e96f420	0.29483128
59	0x3ee7258b	0.4514583
60	0x3f16c2b8	0.5889087
61	0x3edd4df4	0.43223536
62	0x3e7fd030	0.24981761
63	0x3e4626bb	0.19350712

norm3.weight f4 [21]
0	0x3f3abb63	0.7294218
1	0x3f9b4efd	1.213348
2	0x3fb9475c	1.4474902
3	0x3f7e9887	0.9945149
4	0x3fb21322	1.3912089
5	0x3fcebde6	1.6151702
6	0x3f8cd989	1.1003886
7	0x3fb07acf	1.3787478
8	0x3f998660	1.1994133
9	0x3fecfcfd	1.8514706
10	0x3f9c30f2	1.2202437
11	0x3fa6bb23	1.302586
12	0x3fb6f533	1.4293579
13	0x3f941863	1.1569942
14	0x3fac5498	1.3463316
15	0x400d6bc9	2.2097037
16	0x3fe6989a	1.801532
17	0x3fb2f4eb	1.3980993
18	0x3fd5bf27	1.669896
19	0x3f94efc3	1.163567
20	0x3fb38940	1.402626

norm3.bias f4 [21]
0	0xc09468af	-4.6377788
1	0xc073ca66	-3.8092284
2	0xc07cf959	-3.952719
3	0xc0a3840e	-5.10987
4	0xc01e9223	-2.4776695
5	0xc05bdb85	-3.4352734
6	0xc090146c	-4.502493
7	0xc06f1260	-3.7354965
8	0xc068a6db	-3.635184
9	0xc02622ad	-2.5958664
10	0xc088301c	-4.2558727
11	0xc0646802	-3.5688481
12	0xc09fc4b9	-4.992764
13	0xc08dbfdf	-4.429672
14	0xc06d45ce	-3.7073855
15	0xc0574fde	-3.3642497
16	0xc0626817	-3.5376031
17	0xc08fb359	-4.490643
18	0xc050dbdd	-3.2634194
19	0xc088a44e	-4.2700567
20	0xc08cca4c	-4.3996944

norm3.running_mean f4 [21]
0	0xbf34f795	-0.7069028
1	0xbecc7077	-0.39929554
2	0xbed0c08b	-0.407719
3	0xbee16a19	-0.4402626
4	0xbeb4d5fb	-0.35319504
5	0x3daf269a	0.085522845
6	0xbc9e7f9a	-0.019347955
7	0xbeea80d4	-0.45801413
8	0xbf05eff4	-0.52319264
9	0xbec4773b	-0.38372216
10	0xbeb3ce41	-0.35118297
11	0xbd195984	-0.037438884
12	0xbcbac2c7	-0.022797955
13	0xbe83b494	-0.25723708
14	0xbed4612b	-0.41480383
15	0xbebdca34	-0.3706833
16	0xbe6f67a1	-0.23379375
17	0xbe97d4ec	-0.29654634
18	0xbedb8bd5	-0.4288012
19	0xbe8e5dd5	-0.27805963
20	0xbb56367f	-0.003268629

norm3.running_var f4 [21]
0	0x3dd4d887	0.10392862
1	0x3e45e374	0.19325048
2	0x3e358399	0.17725982
3	0x3d9533c1	0.07285262
4	0x3e88893b	0.266672
5	0x3ea1c6da	0.31597024
6	0x3e0dd384	0.13850218
7	0x3e395820	0.18100023
8	0x3e856e16	0.2606055
9	0x3ecea8d2	0.40363175
10	0x3e08c50a	0.13356414
11	0x3dfddea2	0.123959795
12	0x3da96dec	0.08272919
13	0x3dbeaa06	0.09309773
14	0x3e44f16d	0.19232722
15	0x3ed4685e	0.41485876
16	0x3ec298dd	0.3800725
17	0x3e7ba362	0.24574044
18	0x3eaeed4e	0.34165424
19	0x3dfa1098	0.12210196
20	0x3e04607c	0.12927431
