models/best_MixNet1.pth (torch, 99607 bytes, 6 tensors)

fc1.weight f4 [21, 384]
-0.1473821 0.17374094 -0.05660499 -0.10342823 0.23468308 0.14992945 0.21692725 -0.08497752
-0.41715637 0.0063452055 0.061568595 -0.103037834 0.098823644 -0.08666247 0.10526747 -0.27329007
0.13347606 0.14833365 -0.043400787 0.21206118 0.21584868 -0.10801157 -0.024721023 -0.03860031
-0.11218984 0.10153323 0.13382947 0.028114792 0.13498965 0.1445667 0.12052411 -0.09029669
0.06652897 -0.20644143 -0.02499246 0.17983854 0.22406314 0.18958928 0.018854167 -0.23650089
-0.15226784 -0.040503256 0.044694796 -0.20385376 -0.052157108 -0.10322754 0.05534624 0.16454475
0.040080328 0.016957186 0.058498148 -0.08859365 -0.01049361 -0.0025242434 -0.34039176 -0.029664783
-0.1608348 0.18972844 -0.031949427 -0.017873876 -0.053480685 0.030325633 0.07958167 0.06949917
0.097416215 -0.022458978 0.2917905 0.044842307 0.5098952 -0.045663025 -0.08980305 0.15155867
-0.16865742 -0.0067196223 0.05528814 0.14896704 -0.21782331 0.012805435 0.2156685 0.10935912
0.14828187 -0.08900287 0.031463075 0.11857394 -0.04898089 -0.1625358 0.2649747 0.14150272
-0.16087599 0.070810385 0.2071848 -0.10501414 -0.04149613 -0.07345326 -0.2935051 0.14115173
0.15557157 -0.004636121 -0.043456323 0.10083042 -0.0014456022 -0.032648426 -0.14099261 -0.03813561
-0.05000593 0.12656425 -0.24116722 -0.025972277 -0.24330327 -0.25811368 -0.06607922 -0.03410061
0.049506906 0.07735932 0.13869011 -0.08747055 0.060012937 0.00028003956 -0.018231012 -0.18285142
-0.032011557 -0.21386546 -0.056318734 -0.061042283 0.38647705 0.20462885 0.08194137 -0.044464875
-0.24589254 0.29547134 0.002345238 -0.040318243 0.2422305 0.16624665 0.09454435 -0.12618688
-0.42774096 0.013547471 0.017463524 -0.09771323 0.13298325 -0.037178237 0.16824774 -0.01348786
0.1462586 0.052719764 -0.014261177 0.13635044 0.32845628 -0.04471471 0.0513722 0.044443347
-0.16294862 0.11202074 0.14203298 -0.07598486 0.056848977 0.08533755 0.1553145 -0.19548498
0.051660445 -0.27149245 0.028974384 0.20007269 0.13800912 0.17553641 0.0974452 -0.2569896
-0.21870092 -0.0018298189 0.0712053 -0.1469499 -0.07897485 0.08992709 0.04589573 0.13624974
0.07881498 0.30561826 0.05224568 -0.08659296 0.017879184 -0.043946195 -0.26245126 -0.042921614
-0.051553924 0.2184988 -0.09723903 -0.021849902 0.03913926 0.017301586 -0.013926305 -0.065895036
0.086219154 -0.054367233 0.25956628 -0.0054144347 0.33194214 -0.10522971 -0.15987179 0.19293948
-0.10092063 -0.054814566 0.010955202 0.12991689 -0.15255594 0.0066707097 0.17083436 0.0731372
0.15040952 -0.05376928 0.039690826 0.18673153 -0.087654255 -0.13871378 0.28924602 0.111528866
0.11311844 0.10051428 0.2815031 -0.045902725 -0.05546987 -0.0018408976 -0.287734 0.15837298
0.2500884 0.0076697827 0.029607302 0.16317198 -0.01078983 -0.05105588 -0.15009004 0.0014053871
-0.09280262 0.19703913 -0.2115939 -0.03249954 -0.19398418 -0.22775656 -0.046045143 0.09217225
-0.026708748 0.06560777 0.08553425 -0.04997878 0.11002725 -0.088921264 0.009314894 -0.21854597
-0.029746126 -0.2554497 -0.022138804 -0.080577105 0.29590777 0.13376746 0.030523153 -0.022390742
00000000: 55eb 16be 25e9 313e a2da 67bd 2ed2 d3bd
00000010: c350 703e 1b87 193e 2d22 5e3e b208 aebd
00000020: 8595 d5be 71eb cf3b 5a2f 7c3d 8005 d3bd
00000030: 0d64 ca3d 187c b1bd 7996 d73d adec 8bbe
00000040: f3ad 083e c7e4 173e 06c5 31bd 9126 593e
00000050: 7007 5d3e 2c35 ddbd be83 cabc 5c1b 1ebd
00000060: c9c3 e5bd a7f0 cf3d 980a 093e fe50 e63c
00000070: ba3a 0a3e 4b09 143e 58d5 f63d 79ed b8bd
00000080: 5740 883d 6265 53be fdbc ccbc 9827 383e
00000090: cf70 653e b123 423e 0e74 9a3c 4a2d 72be
000000a0: 1aec 1bbe bee6 25bd e411 373d 0abf 50be
000000b0: b1a2 55bd f668 d3bd bdb2 623d 6b7e 283e
000000c0: 452b 243d cce9 8a3c c19b 6f3d 9670 b5bd
000000d0: 64ed 2bbc c76d 25bb d447 aebe 8f03 f3bc
000000e0: e1b1 24be 2c48 423e 67dd 02bd 3c6c 92bc
000000f0: 900e 5bbd 766d f83c b7fb a23d 9555 8e3d
00000100: 2782 c73d e4fb b7bc 9065 953e 91ac 373d
00000110: 7e88 023f 2709 3bbd a9ea b7bd 3232 1b3e
00000120: 88b4 2cbe 4730 dcbb d175 623d d18a 183e
00000130: 130d 5fbe e3cd 513c 34d8 5c3e adf7 df3d
00000140: 34d7 173e 2347 b6bd 6ddf 003d e5d6 f23d
00000150: 30a0 48bd c96f 26be c4aa 873e 17e6 103e
00000160: adbc 24be 0905 913d 4128 543e a711 d7bd
00000170: d9f7 29bd aa6e 96bd 4d46 96be 148a 103e
00000180: 274e 1f3e 9aea 97bb 42ff 31bd 2e80 ce3d
00000190: 5c7a bdba 5bba 05bd 5e60 10be 1634 1cbd
000001a0: 05d3 4cbd 0f9a 013e 8af4 76be d0c3 d4bc
000001b0: 7e24 79be 7a27 84be 8b54 87bd 15ad 0bbd
000001c0: c1c7 4a3d 906e 9e3d c804 0e3e c223 b3bd
000001d0: 20d0 753d 46d2 9239 3459 95bc 673d 3bbe
000001e0: 8d1e 03bd 8cff 5abe 79ae 66bd 7907 7abd
000001f0: 52e0 c53e 3a8a 513e e1d0 a73d cd20 36bd
00000200: 41cb 7bbe 0548 973e 91b2 193b be24 25bd
00000210: 460b 783e 903c 2a3e 78a0 c13d 2237 01be
00000220: dd00 dbbe 36f6 5d3c aa0f 8f3c e01d c8bd
00000230: c32c 083e 3548 18bd 2349 2c3e 2ffc 5cbc
00000240: d0c4 153e aef0 573d b6a7 69bc 739f 0b3e
00000250: 6c2b a83e c626 37bd a86b 523d 3a0a 363d
00000260: 01dc 26be 216b e53d 1871 113e f39d 9bbd
00000270: 79da 683d 74c5 ae3d c40a 1f3e 372d 48be
00000280: e799 533d 0f01 8bbe b05b ed3c dbdf 4c3e
00000290: 4352 0d3e d1bf 333e 5991 c73d 2494 83be
000002a0: 22f3 5fbe 89d6 efba 16d4 913d 097a 16be
000002b0: 91bd a1bd b22b b83d 29fd 3b3d 0d85 0b3e
000002c0: c069 a13d ff79 9c3e 91ff 553d a657 b1bd
000002d0: 5e77 923c ed00 34bd 0360 86be 93ce 2fbd
000002e0: 352a 53bd 26be 5f3e 4225 c7bd 91fe b2bc
000002f0: 7d50 203d 0ebc 8d3c 282b 64bc faf3 86bd
00000300: ab93 b03d 2db0 5ebd dfe5 843e 926b b1bb
00000310: 52f4 a93e ad82 d7bd 6eb5 23be ed91 453e
00000320: 7aaf cebd 3d85 60bd 737d 333c ef08 053e
00000330: a037 1cbe f895 da3b 34ef 2e3e f5c8 953d
00000340: f404 1a3e 2d3d 5cbd d992 223d 8d36 3f3e
00000350: 1384 b3bd fc0a 0ebe 0e18 943e 3f69 e43d
00000360: a4aa e73d 6eda cd3d 2d21 903e 7f04 3cbd
00000370: 6034 63bd 464a f1ba df51 93be 872c 223e
00000380: 960b 803e cd52 fb3b 038b f23c 8e16 273e
00000390: d4c7 30bc f81f 51bd 34b1 19be f734 b83a
000003a0: 4d0f bebd a0c4 493e 12ac 58be 3d1e 05bd
000003b0: caa3 46be 0439 69be d599 3cbd cec4 bc3d
000003c0: 4ecc dabc 5e5d 863d 952c af3d 8db6 4cbd
000003d0: f855 e13d 5a1c b6bd 7f9d 183c 84ca 5fbe
000003e0: 26ae f3bc 4eca 82be 705c b5bc 9c05 a5bd
000003f0: 3981 973e 56fa 083e b10b fa3c ca6c b7bc

fc1.bias f4 [21]
-0.27814227 -0.29984948 -0.24007711 -0.2965071 -0.3225419 -0.29350346 -0.35484147 -0.27973744
-0.30115706 -0.2655114 -0.2634954 -0.13689467 -0.33582288 -0.30515456 -0.16721837 -0.20482372
-0.23170726 -0.31643182 -0.20331597 -0.1654654 -0.40285832
00000000: aa68 8ebe df85 99be c6d6 75be c7cf 97be
00000010: 3624 a5be 1646 96be c8ad b5be bf39 8fbe
00000020: 4231 9abe 1cf1 87be dee8 86be 1e2e 0cbe
00000030: faf0 abbe 383d 9cbe 4b3b 2bbe 4fbd 51be
00000040: ab44 6dbe 5a03 a2be 1032 50be c36f 29be
00000050: 7243 cebe

exp_avg f4 [21, 384]
-6.4711244e-06 -9.221226e-06 2.0881249e-05 5.6698547e-05 -6.0260474e-05 -4.0521463e-05 -2.7809949e-05 0.00019309031
9.291129e-06 9.4699346e-05 -1.3591377e-05 0.00010310404 -4.831641e-05 1.3169658e-05 -5.5125733e-05 -1.24256385e-05
-6.118002e-05 -5.1272982e-05 2.9021772e-05 7.853218e-06 4.3820082e-06 2.6015398e-06 2.743007e-05 2.2066395e-06
5.4519372e-05 -1.4601806e-05 -2.7600778e-05 1.5642558e-05 -8.547005e-07 2.0702782e-05 -4.192397e-05 3.200594e-05
-1.2025612e-05 -1.4316224e-05 8.672044e-05 -5.254578e-05 -8.805405e-05 -9.681597e-06 1.612686e-05 1.0525965e-05
-1.7594164e-05 -3.649542e-05 -2.0484815e-05 -1.9941233e-05 -3.3779917e-05 3.3888613e-05 -6.726385e-05 -6.126827e-05
-1.6819833e-05 2.6107804e-05 -2.0743613e-05 -7.3313313e-06 6.135207e-05 1.2054158e-05 5.221022e-06 2.6816908e-05
-4.076029e-06 -8.438224e-05 -2.076686e-05 5.283025e-06 -2.816313e-05 -1.5439837e-05 -1.7618462e-05 -6.770253e-06
-6.8582114e-05 0.00019586048 -2.4907344e-05 2.875933e-06 1.5194056e-05 1.528261e-05 -1.2512413e-05 -5.583352e-05
-5.054289e-06 1.0885279e-05 -3.8571416e-05 -3.4050354e-05 1.4444631e-05 -4.072513e-05 -3.3726606e-05 -4.864067e-05
-3.665015e-05 8.147047e-05 -3.5663597e-05 -2.2843606e-05 -1.3074408e-05 2.0357824e-05 -5.0588267e-05 -6.3571047e-06
1.8660416e-05 -4.1733285e-05 2.8665113e-06 -2.2339675e-05 9.814232e-05 -4.3780266e-05 4.6459918e-05 -8.579246e-06
-3.4242942e-09 -1.5450152e-05 2.272183e-05 -7.697586e-05 2.8340932e-05 3.7667956e-05 1.1673226e-05 7.133839e-05
-2.0702946e-05 -2.1756752e-05 -6.452096e-06 4.3760876e-05 4.7119593e-05 2.3264685e-05 7.00031e-05 1.4256973e-05
-1.7167424e-05 -4.5590765e-05 -4.19922e-05 -2.9678082e-05 5.5067735e-06 8.344265e-05 1.9036339e-05 1.9650972e-05
-1.3906904e-05 -1.7013714e-05 -7.289908e-05 0.000106394626 -2.2948328e-05 2.070528e-05 9.025876e-05 -6.222974e-05
-1.3669263e-06 -3.055317e-05 2.3705052e-05 5.4744167e-05 -7.0510156e-05 -4.3254888e-05 -2.2170114e-05 0.00020500133
1.2240697e-06 9.99463e-05 -1.7613682e-05 0.000113216964 -4.3798507e-05 1.5955851e-05 -6.145774e-05 -2.769066e-05
-6.618752e-05 -5.508289e-05 7.855585e-06 1.8354292e-05 -2.393984e-06 2.4793746e-06 2.9899613e-05 4.3873993e-06
5.8736943e-05 -1.46376715e-05 -2.7175383e-05 2.3542127e-05 1.2354192e-06 2.3943689e-05 -4.2340318e-05 4.0287192e-05
-1.0967883e-05 -1.0851197e-05 7.6953685e-05 -7.032049e-05 -8.235738e-05 -8.314511e-06 1.4155452e-05 9.336223e-06
-1.6569184e-05 -4.6040852e-05 -1.7635422e-05 -2.3555562e-05 -2.696335e-05 1.8292649e-05 -6.613994e-05 -5.873922e-05
-1.1585958e-05 -1.2256662e-06 -2.1893087e-05 -4.4914073e-06 6.656391e-05 2.1767113e-05 1.00917105e-05 3.1405092e-05
-1.3780659e-05 -9.867358e-05 -2.1538117e-05 1.3510943e-05 -4.614624e-05 -2.8420402e-05 -1.4870036e-05 -5.1566235e-06
-6.8885776e-05 0.00020969482 -2.9349523e-05 5.2248497e-06 1.9426243e-05 1.531103e-05 -7.2471494e-06 -5.5092245e-05
-7.4964723e-06 1.4772536e-05 -4.2706706e-05 -3.2570035e-05 -3.0206544e-07 -4.820103e-05 -3.3781114e-05 -5.089305e-05
-3.6692007e-05 8.6132764e-05 -3.3163877e-05 -4.846092e-05 -1.25572205e-05 2.0316727e-05 -5.3579897e-05 -2.864877e-06
-1.1105041e-05 -5.171408e-05 -1.295404e-05 -2.6776564e-05 0.00010855446 -4.8108715e-05 5.1360254e-05 -8.245943e-06
-3.4242942e-09 -1.2028656e-05 1.4674916e-05 -8.594161e-05 3.4571436e-05 4.3955413e-05 1.8874403e-05 7.561717e-05
-2.449667e-05 -2.0911963e-05 -6.704515e-06 5.247943e-05 5.1770767e-05 2.0669375e-05 7.020859e-05 6.7765773e-06
-1.747975e-05 -6.0677077e-05 -4.2532276e-05 -2.7183161e-05 9.723557e-06 9.553201e-05 2.6298765e-05 2.5399646e-05
-1.3240962e-05 -2.0372501e-05 -7.937725e-05 0.00011753172 -2.3584776e-05 2.540245e-05 0.00010320139 -6.73153e-05
00000000: 8922 d9b6 ddb4 1ab7 242a af37 9acf 6d38
00000010: 31c0 7cb8 97f5 29b8 6949 e9b7 4978 4a39
00000020: 18e1 1b37 5399 c638 8506 64b7 8f39 d838
00000030: 5aa7 4ab8 40f3 5c37 ce36 67b8 b677 50b7
00000040: c64d 80b8 f20d 57b8 c873 f337 51c1 0337
00000050: 2a09 9336 1d96 2e36 a019 e637 c715 1436
00000060: bbab 6438 47fa 74b7 3888 e7b7 2338 8337
00000070: 926e 65b5 e3aa ad37 85d7 2fb8 1e3e 0638
00000080: 9cc1 49b7 b72f 70b7 afdd b538 9a64 5cb8
00000090: a8a9 b8b8 246e 22b7 2b48 8737 ad98 3037
000000a0: 2e97 93b7 a912 19b8 ced6 abb7 7947 a7b7
000000b0: e9ae 0db8 9f23 0e38 0110 8db8 277d 80b8
000000c0: 5118 8db7 1502 db37 9202 aeb7 a8ff f5b6
000000d0: 24aa 8038 373c 4a37 3d30 af36 dff4 e037
000000e0: d3c4 88b6 5ff6 b0b8 7e34 aeb7 d744 b136
000000f0: dc3f ecb7 cc84 81b7 5ccb 93b7 082c e3b6
00000100: bed3 8fb8 e65f 4d39 1df0 d0b7 2700 4136
00000110: f9e9 7e37 2833 8037 68ec 51b7 c92e 6ab8
00000120: 0398 a9b6 eb9f 3637 bec7 21b8 4ad1 0eb8
00000130: 3857 7237 46d0 2ab8 ab75 0db8 8603 4cb8
00000140: cdb8 19b8 20db aa38 7f95 15b8 45a0 bfb7
00000150: 285a 5bb7 18c6 aa37 bd2e 54b8 1d4f d5b6
00000160: f088 9c37 c60a 2fb8 4a5e 4036 1666 bbb7
00000170: c2d1 cd38 b4a0 37b8 f5dd 4238 95ef 0fb7
00000180: d250 6bb1 f39a 81b7 c29a be37 1a6e a1b8
00000190: b0bd ed37 a9fd 1d38 20d8 4337 829b 9538
000001a0: 3dab adb7 4582 b6b7 157f d8b6 e28b 3738
000001b0: 47a2 4538 8828 c337 a1ce 9238 3c31 6f37
000001c0: c302 90b7 b638 3fb8 c820 30b8 32f5 f8b7
000001d0: d3c6 b836 eefd ae38 3ab0 9f37 24d8 a437
000001e0: b351 69b7 acb8 8eb7 65e1 98b8 2e20 df38
000001f0: 2981 c0b7 40b0 ad37 4e49 bd38 5681 82b8
00000200: 3b77 b7b5 3726 00b8 36da c637 1a9d 6538
00000210: dade 93b8 956c 35b8 f5f9 b9b7 a0f5 5639
00000220: b74a a435 439a d138 18c1 93b7 e56e ed38
00000230: 4ab4 37b8 eed8 8537 dfe2 80b8 3d49 e8b7
00000240: 27ce 8ab8 ce08 67b8 7bcb 0337 8bf7 9937
00000250: 55a8 20b6 5563 2636 eed0 fa37 7937 9336
00000260: 505c 7638 5294 75b7 b1f6 e3b7 557c c537
00000270: aed0 a535 aeda c837 9296 31b8 0bfa 2838
00000280: b302 38b7 890d 36b7 3262 a138 0779 93b8
00000290: 48b7 acb8 8e7e 0bb7 347d 6d37 c6a2 1c37
000002a0: 0dfe 8ab7 fd1b 41b8 c8ef 93b7 2f99 c5b7
000002b0: 5a2f e2b7 2a73 9937 9cb4 8ab8 c25e 76b8
000002c0: 5061 42b7 9281 a4b5 0ca7 b7b7 e5b4 96b6
000002d0: 3a98 8b38 8598 b637 914f 2937 f6b8 0338
000002e0: 7b33 67b7 faee ceb8 c1ac b4b7 0fad 6237
000002f0: 268d 41b8 5968 eeb7 517a 79b7 0f07 adb6
00000300: c576 90b8 86e1 5b39 9f33 f6b7 1e51 af36
00000310: 8af5 a237 3070 8037 8a2c f3b6 d912 67b8
00000320: 358a fbb6 8fd7 7737 fa1f 33b8 cf9b 08b8
00000330: 8f2b a2b4 762b 4ab8 32b0 0db8 ff75 55b8
00000340: bee5 19b8 2da2 b438 7119 0bb8 8442 4bb8
00000350: daac 52b7 d76d aa37 faba 60b8 3642 40b6
00000360: ca4f 3ab7 92e7 58b8 2e55 59b7 3c9e e0b7
00000370: bba7 e338 57c8 49b8 a76b 5738 0e58 0ab7
00000380: d250 6bb1 afce 49b7 4934 7637 8d3b b4b8
00000390: cc00 1138 c45c 3838 7954 9e37 a994 9e38
000003a0: 337e cdb7 196c afb7 58f7 e0b6 5c1d 5c38
000003b0: 7024 5938 2563 ad37 f33c 9338 5b62 e336
000003c0: 7aa1 92b7 847f 7eb8 af64 32b8 6507 e4b7
000003d0: 5c22 2337 5b58 c838 2b9c dc37 5311 d537
000003e0: 8025 5eb7 9de5 aab7 5677 a6b8 5d7b f638
000003f0: ecd7 c5b7 5917 d537 d36d d838 a02b 8db8

exp_avg_sq f4 [21, 384]
9.78349e-09 2.8035311e-08 4.7810296e-08 6.231712e-08 3.47434e-08 2.251534e-08 2.8216755e-08 3.2670053e-07
2.2064583e-08 9.393417e-08 1.1657912e-08 1.0248063e-07 4.403054e-08 3.0544687e-08 2.7634398e-08 1.5895479e-08
3.9499184e-08 3.6547956e-08 4.8894037e-08 2.2451523e-08 1.5537145e-08 1.480775e-08 3.3080358e-08 3.4850107e-08
5.0642466e-08 1.855857e-09 5.9840692e-09 2.3322102e-08 1.04090505e-08 2.8947634e-08 1.8506496e-08 5.6719152e-08
1.4823832e-09 9.737846e-09 9.5955315e-08 3.8186084e-08 1.0347113e-07 2.726679e-08 2.2363135e-08 2.5468713e-08
9.841882e-09 2.7187069e-08 2.0902586e-08 6.480409e-09 1.8665853e-08 2.2068797e-08 4.371663e-08 3.4127304e-08
1.5977799e-08 2.306694e-08 1.27633415e-08 1.5249336e-08 7.8727275e-08 9.524019e-09 9.414429e-09 5.2086214e-08
2.0701165e-08 5.2119614e-08 7.937412e-09 2.5193815e-08 3.3257475e-08 2.257748e-08 3.0080163e-09 4.8662545e-09
4.6298588e-08 3.4928405e-07 1.0260559e-08 2.6627385e-08 2.2329527e-08 5.5268647e-08 1.3944599e-08 2.5782048e-08
2.4702656e-08 1.4373061e-08 2.4655142e-08 1.8090105e-08 4.579607e-08 2.7552264e-08 1.0392574e-08 3.324701e-08
1.7835362e-08 1.3707077e-07 1.5046954e-08 2.2717819e-08 1.9900244e-09 6.163474e-08 3.0089957e-08 2.1855074e-08
1.9192255e-08 4.5109427e-08 2.1103114e-08 1.2903537e-08 1.348006e-07 1.1211957e-08 2.4302558e-08 1.3292363e-09
9.073883e-17 1.1722201e-08 2.7777535e-08 7.9356454e-08 2.7879631e-08 3.720549e-08 2.5455464e-08 1.1795843e-07
2.186121e-08 2.6711685e-08 1.5832557e-08 4.6692083e-08 5.8533015e-08 1.6483959e-08 8.506109e-08 2.5133842e-08
2.8769305e-09 3.4414615e-08 1.368791e-08 1.761845e-08 1.5365895e-08 9.6167675e-08 1.9460282e-08 2.1887175e-08
9.465686e-09 6.532806e-09 5.214353e-08 1.6259956e-07 1.5991779e-08 2.9440349e-08 1.3854859e-07 4.7486477e-08
1.1134483e-08 3.115916e-08 5.631889e-08 6.206886e-08 4.045438e-08 2.4400524e-08 2.8454485e-08 3.5916332e-07
2.1907637e-08 1.0308965e-07 1.4715263e-08 1.1393745e-07 4.2332076e-08 3.4846412e-08 3.0616114e-08 1.7555072e-08
4.2840284e-08 3.8752525e-08 3.9814598e-08 2.7003622e-08 1.8564249e-08 1.6475418e-08 3.6061913e-08 4.2066585e-08
5.98245e-08 1.8196844e-09 5.935725e-09 2.7161533e-08 1.1948253e-08 3.1633494e-08 1.8726295e-08 6.331844e-08
1.4455679e-09 1.1223719e-08 8.5984716e-08 5.4957717e-08 9.810932e-08 2.806085e-08 2.3689424e-08 2.8704523e-08
1.0629488e-08 3.290153e-08 2.108119e-08 7.3643527e-09 1.9187759e-08 1.3440534e-08 4.5781572e-08 3.2956574e-08
1.5699422e-08 2.1806219e-08 1.3136551e-08 1.5532674e-08 8.628784e-08 1.0581002e-08 1.101468e-08 5.980591e-08
2.1563459e-08 6.788265e-08 8.045597e-09 2.9196864e-08 3.6514983e-08 2.695046e-08 2.9238116e-09 5.2813744e-09
5.3013885e-08 3.9807716e-07 1.3355829e-08 3.2375958e-08 2.5728285e-08 5.6042055e-08 1.4814481e-08 2.5013438e-08
2.6117384e-08 1.5455514e-08 2.784686e-08 1.752632e-08 3.1530316e-08 2.9014283e-08 1.0927194e-08 3.2007446e-08
1.80399e-08 1.6304739e-07 1.5056763e-08 3.3791327e-08 2.0141506e-09 7.090328e-08 3.3484994e-08 2.3066578e-08
8.024993e-09 5.8679895e-08 2.1306526e-08 1.4190912e-08 1.5350892e-07 1.3342472e-08 2.9397619e-08 1.4329269e-09
9.073883e-17 1.2414131e-08 2.3771776e-08 9.02972e-08 3.2021152e-08 4.1551125e-08 2.81161e-08 1.3195002e-07
2.2422341e-08 2.8981093e-08 1.7858714e-08 5.185696e-08 7.00266e-08 1.5289574e-08 8.4662695e-08 2.3675737e-08
2.9984855e-09 4.6254122e-08 1.3452766e-08 1.8260646e-08 1.7622197e-08 1.15857056e-07 2.3006454e-08 2.6137442e-08
9.734921e-09 6.914838e-09 6.1311056e-08 1.992863e-07 2.0465702e-08 3.2694526e-08 1.5645449e-07 5.027401e-08
00000000: 3e14 2832 4dd2 f032 fa57 4d33 33d3 8533
00000010: c638 1533 c267 c132 4d61 f232 6165 af34
00000020: 8888 bd32 dbb8 c933 0a48 4832 5213 dc33
00000030: 171c 3d33 3d30 0333 af60 ed32 878a 8832
00000040: d0a5 2933 e7f8 1c33 90ff 5133 6cdb c032
00000050: 8b76 8532 2c65 7e32 3d14 0e33 19ae 1533
00000060: fb81 5933 2a11 ff30 6e9c cd31 d855 c832
00000070: 7dd3 3232 85a8 f832 37f8 9e32 5e9b 7333
00000080: b9bc cb30 804b 2732 fe0f ce33 0b02 2433
00000090: db33 de33 4e38 ea32 0e19 c032 4bc6 da32
000000a0: 0e15 2932 ff88 e932 468d b332 48aa de31
000000b0: a556 a032 cc91 bd32 f1c2 3b33 5e93 1233
000000c0: 8d3f 8932 bd24 c632 c545 5b32 a5fd 8232
000000d0: c710 a933 149f 2332 19bd 2132 66b5 5f33
000000e0: 58d2 b132 1fda 5f33 1b5d 0832 c969 d832
000000f0: fbd6 0e33 67f0 c132 95b5 4e31 0734 a731
00000100: d6d9 4633 3c85 bb34 6a46 3032 3dba e432
00000110: 26cf bf32 8560 6d33 ff90 6f32 5377 dd32
00000120: b731 d432 64ed 7632 3bc9 d332 9064 9b32
00000130: 50b1 4433 12ac ec32 068b 3232 79cb 0e33
00000140: 6034 9932 ba2d 1334 9a40 8132 0325 c332
00000150: e1c0 0831 0f5c 8433 423c 0133 d1bb bb32
00000160: 37dc a432 57be 4133 3d46 b532 5bae 5d32
00000170: b5bd 1034 b59e 4032 e4c1 d032 58b0 b630
00000180: c03a d124 c962 4932 729b ee32 ac6a aa33
00000190: f57b ef32 decb 1f33 28a9 da32 5550 fd33
000001a0: 4fc9 bb32 9e73 e532 2900 8832 7d8a 4833
000001b0: bb65 7b33 9c98 8d32 d4aa b633 e7e5 d732
000001c0: 7fb3 4531 45cf 1333 1128 6b32 6257 9732
000001d0: f6fd 8332 bd84 ce33 9d29 a732 6802 bc32
000001e0: 879e 2232 2b77 e031 6bf4 5f33 0797 2e34
000001f0: 4b5e 8932 03e4 fc32 f2c3 1434 eff3 4b33
00000200: f949 3f32 dcd3 0533 46e3 7133 b74a 8533
00000210: 10c0 2d33 5299 d132 136c f432 08d3 c034
00000220: 672f bc32 2262 dd33 69ce 7c32 c7ad f433
00000230: 9cd0 3533 09aa 1533 c67e 0333 03cc 9632
00000240: 64ff 3733 da70 2633 9d00 2b33 98f5 e732
00000250: 3777 9f32 d485 8d32 7ee2 1a33 b3ac 3433
00000260: de78 8033 7418 fa30 30f3 cb31 d850 e932
00000270: f944 4d32 65dd 0733 8fdb a032 aef9 8733
00000280: 66ad c630 70d2 4032 99a6 b833 a60a 6c33
00000290: 2bb0 d233 760a f132 987d cb32 ea91 f632
000002a0: fc9c 3632 9d4f 0d33 0716 b532 8809 fd31
000002b0: 54d2 a432 18e8 6632 5fa1 4433 238c 0d33
000002c0: 65db 8632 6250 bb32 2aaf 6132 b66c 8532
000002d0: 3e4d b933 bdc7 3532 133b 3d32 a66e 8033
000002e0: 8c3a b932 e2c6 9133 e938 0a32 95cc fa32
000002f0: a6d4 1c33 b080 e732 3dec 4831 7677 b531
00000300: 62b1 6333 4fb7 d534 8f73 6532 be0d 0b33
00000310: 1901 dd32 e4b2 7033 c782 7e32 22dd d632
00000320: bc58 e032 09c3 8432 e533 ef32 c98c 9632
00000330: f36b 0733 153b f932 4fba 3b32 8f78 0933
00000340: 29f6 9a32 2012 2f34 2c56 8132 f521 1133
00000350: 5069 0a31 7e43 9833 24d1 0f33 f123 c632
00000360: 4bde 0932 3a07 7c33 8c05 b732 4acc 7332
00000370: 36d4 2434 d038 6532 0c86 fc32 a2f0 c430
00000380: c03a d124 ed45 5532 b032 cc32 69e9 c133
00000390: a187 0933 f275 3233 f583 f132 25ae 0d34
000003a0: 409b c032 19f2 f832 ba67 9932 55b9 5e33
000003b0: 8861 9633 2156 8332 cfcf b533 7f5f cb32
000003c0: ea0d 4e31 f2a8 4633 e41d 6732 96db 9c32
000003d0: 9f5f 9732 17cd f833 ba9f c532 d884 e032
000003e0: a33e 2732 8f97 ed31 1caa 8333 67fb 5534
000003f0: 8ecc af32 036c 0c33 e2fd 2734 dcec 5733

exp_avg f4 [21]
0.0001748682 0.00047681437 3.9573035e-05 -1.8017803e-05 -0.0003484915 0.00031030294 0.00023205242 -0.0001380384
-0.00016456106 -0.00015994279 -1.9704396e-06 -0.00030527153 0.00016616852 2.5093334e-05 -0.00016914925 0.00041256013
4.426716e-05 0.00019994056 0.00049209676 0.00021203677 3.5688878e-05
00000000: d35c 3739 f1fc f939 39fb 2538 f024 97b7
00000010: bdb5 b6b9 28b0 a239 1953 7339 67be 10b9
00000020: 068e 2cb9 51b6 27b9 e53b 04b6 da0c a0b9
00000030: 863d 2e39 867f d237 a85d 31b9 e24c d839
00000040: 80ab 3938 23a7 5139 0e00 013a 3056 5e39
00000050: a4b0 1538

exp_avg_sq f4 [21]
2.3663145e-07 1.6999142e-06 4.5413026e-07 1.4580392e-07 4.2729034e-06 2.2602196e-06 5.464477e-07 2.8269488e-07
1.7321282e-06 4.0442906e-06 7.7833715e-07 8.994312e-07 1.12311014e-07 3.142885e-07 3.484463e-07 1.8033656e-06
1.6298521e-06 4.853352e-07 2.738998e-06 6.917575e-07 2.3701497e-07
00000000: c214 7e34 9b28 e435 30cf f334 478e 1c34
00000010: f65f 8f36 47ae 1736 9aaf 1235 4ac5 9734
00000020: 797b e835 31b4 8736 ecee 5035 7170 7135
00000030: a22f f133 7cbb a834 1812 bb34 2c0b f235
00000040: 4bc1 da35 fb47 0235 a1cf 3736 37b1 3935
00000050: 2e7e 7e34
