models/best_UsageNet2.pth (torch, 323823 bytes, 18 tensors)

fc1.weight f4 [104, 128]
0.09591563 -0.09249951 -0.52555436 -0.34046254 0.13502209 0.38989624 0.43794665 -0.10609045
0.2480385 0.10472293 -0.10026281 0.13606808 0.42710724 -0.0064174705 -0.1068288 0.27236134
-0.070496164 -0.11637777 0.3150911 -0.10135508 0.04591067 0.17543201 0.09359898 -0.16083975
-0.12401951 -0.09365479 0.08273866 0.08645204 -0.011352587 -0.044484857 -0.24767257 -0.08897285
0.06422674 -0.24983759 0.43042833 -0.29582116 -0.0649813 -0.50108576 0.051551625 -0.10690571
-0.22094454 -0.036624286 -0.44308773 0.40126908 -0.09158607 -0.0060221665 -0.011014463 -0.1817838
-0.031116916 0.19896436 0.10649699 0.07105076 0.27005738 0.3643359 0.44751748 0.05668617
0.33681616 -0.16903837 -0.07452554 -0.21779972 -0.05952039 0.26782897 -0.07254133 -0.20415577
-0.1312447 0.15099183 -0.11748572 -0.2273541 0.043921135 0.10383615 -0.15056813 0.112186275
0.22491129 0.09577154 -0.049624287 -0.11427388 0.028349081 0.37749177 -0.16603222 -0.29218763
-0.022600254 0.29224378 0.2926885 0.011157715 0.12044916 0.0019039278 0.26760787 -0.016764939
-0.13457721 -0.12641415 0.026733696 -0.075943686 -0.13814443 0.01771536 -0.13263598 -0.062993966
-0.035102773 0.29238164 0.021804366 0.03010484 0.12550893 -0.102545656 -0.22906142 -0.11194668
-0.1338589 -0.18760818 0.083513245 -0.008697951 0.2814589 0.13596344 0.10999137 -0.2888039
-0.1303458 -0.16613995 0.17324305 0.23202634 -0.013995823 0.19642165 -0.01982182 0.20701014
-0.16501775 -0.098858476 0.17560907 -0.10312877 -0.10404645 -0.016247649 0.31179023 0.15356325
-0.3620346 -0.4034622 -0.44305956 -0.59215057 0.29150096 0.017350715 -0.2926554 -0.07982485
0.17831577 -0.04800358 -0.14225677 0.13027819 0.04512581 -0.16734487 -0.05563552 -0.087748446
0.03868673 -0.35007176 -0.021087117 0.03911477 -0.032280833 -0.33529824 0.1653184 -0.17461498
-0.3117976 0.16266319 0.021267494 0.30802476 0.25828502 0.005364767 -0.22632931 0.19661787
0.02635072 -0.017150484 0.0073048426 0.18853024 -0.27745536 -0.14905426 -0.08125881 0.0019614978
-0.16647592 -0.15563281 0.1604211 -0.0889581 0.092015624 0.039548147 0.28622338 -0.13386017
0.14153422 0.24415524 0.04116709 0.16461691 0.21309666 0.31265336 -0.011184691 0.3209002
-0.15058553 -0.14040034 -0.26459584 0.09859029 -0.0025229831 0.06433051 0.10235371 -0.073400185
0.068097815 0.24706928 0.17322616 0.00088551105 0.1409054 -0.08670305 0.22028702 0.14339417
0.062614135 -0.09050112 -0.051140744 -0.029411789 -0.09643849 -0.103852496 -0.18285899 -0.035926234
0.04507999 0.119617365 0.030485064 -0.10087947 0.132747 0.09853905 0.10872228 -0.012500364
0.13747124 -0.045652203 0.059488952 0.13325436 0.101891 0.09864151 -0.023488635 -0.16730355
0.28217387 0.1977104 0.049021572 0.020432165 0.07084038 -0.09074897 0.12746526 -0.08655655
0.02729451 -0.31669912 -0.12979804 -0.15313132 -0.029689912 0.34636122 0.19315255 -0.03094604
0.00060050166 -0.021224666 -0.07983076 -0.03827206 -0.08393668 0.14839756 0.2092245 -0.16810445
-0.0111217005 0.18059957 -0.0091041755 -0.15684482 -0.17718598 0.04864741 0.087099284 0.17712373
00000000: 6a6f c43d 6270 bdbd bb8a 06bf 1b51 aebe
00000010: 3b43 0a3e 7ba0 c73e 8b3a e03e f345 d9bd
00000020: cefd 7d3e fa78 d63d 9756 cdbd 6e55 0b3e
00000030: cdad da3e a549 d2bb 0fc9 dabd f272 8b3e
00000040: 4b60 90bd 7857 eebd 9f53 a13e 4193 cfbd
00000050: d40c 3c3d 73a4 333e d2b0 bf3d 2db3 24be
00000060: f1fd fdbd 15ce bfbd e372 a93d c40d b13d
00000070: 3300 3abc c135 36bd e19d 7dbe 6637 b6bd
00000080: 4f89 833d 6dd5 7fbe 1a61 dc3e df75 97be
00000090: ea14 85bd 2847 00bf cc27 533d 62f1 dabd
000000a0: 493f 62be 5903 16bd 65dc e2be 2473 cd3e
000000b0: 7a91 bbbd 9855 c5bb 0276 34bc 8825 3abe
000000c0: e7e8 febc 50bd 4b3e 181b da3d 1083 913d
000000d0: f644 8a3e 3c8a ba3e 0321 e53e c22f 683d
000000e0: 2b73 ac3e 6518 2dbe d9a0 98bd e406 5fbe
000000f0: a7cb 73bd e120 893e 8c90 94bd 360e 51be
00000100: 0365 06be 9a9d 1a3e 5a9c f0bd 83cf 68be
00000110: a6e6 333d 0ca8 d43d 882e 1abe ebc1 e53d
00000120: 254f 663e df23 c43d d642 4bbd 6d08 eabd
00000130: 553c e83c 9a46 c13e 5a04 2abe 9e99 95be
00000140: 2b24 b9bc faa0 953e 44db 953e d9ce 363c
00000150: 0dae f63d 378d f93a e603 893e a056 89bc
00000160: 9cce 09be b672 01be a000 db3c 5d88 9bbd
00000170: bc75 0dbe cd1f 913c bad1 07be fb02 81bd
00000180: edc7 0fbd 0cb3 953e 129f b23c 6d9e f63c
00000190: 6a85 003e 7503 d2bd 148f 6abe 4d44 e5bd
000001a0: 4f12 09be 5c1c 40be fe08 ab3d da81 0ebc
000001b0: 621b 903e 003a 0b3e 2843 e13d 1bde 93be
000001c0: 5f79 05be 9720 2abe a066 313e 5098 6d3e
000001d0: bd4e 65bc c222 493e 5f61 a2bc 77fa 533e
000001e0: 6afa 28be 5076 cabd ddd2 333e 2d35 d3bd
000001f0: 4e16 d5bd ca19 85bc f8a2 9f3e af3f 1d3e
00000200: 995c b9be 9992 cebe b4d8 e2be 2e97 17bf
00000210: 9d3f 953e 1623 8e3c eed6 95be 367b a3bd
00000220: 6998 363e 679f 44bd c2ab 11be a567 053e
00000230: d7d5 383d 745c 2bbe 12e2 63bd 75b5 b3bd
00000240: fa75 1e3d 9b3c b3be e4be acbc cf36 203d
00000250: e838 04bd 36ac abbe 3a49 293e 45ce 32be
00000260: efa3 9fbe 2e91 263e 2b39 ae3c 6cb5 9d3e
00000270: ef3d 843e edca af3b dfc2 67be 3256 493e
00000280: 77dd d73c 2c7f 8cbc 765d ef3b 120e 413e
00000290: a10e 8ebe aea1 18be 056b a6bd 798c 003b
000002a0: aa78 2abe 355e 1fbe 6e45 243e aa2f b6bd
000002b0: b072 bc3d 3dfd 213d df8b 923e a412 09be
000002c0: 59ee 103e d503 7a3e d39e 283d 5691 283e
000002d0: 0336 5a3e 1a14 a03e ff3f 37bc 084d a43e
000002e0: 1833 1abe 1bc5 0fbe 1b79 87be b5e9 c93d
000002f0: a258 25bb b7bf 833d d29e d13d d652 96bd
00000300: de76 8b3d bbff 7c3e 3362 313e a421 683a
00000310: 8149 103e 5e91 b1bd ec92 613e ecd5 123e
00000320: d73b 803d a758 b9bd f578 51bd fef0 f0bc
00000330: 8b81 c5bd 9eb0 d4bd 633f 3bbe 6327 13bd
00000340: cca5 383d f3f9 f43d d0bb f93c e599 cebd
00000350: d4ee 073e d7ce c93d c9a9 de3d 54ce 4cbc
00000360: 43c5 0c3e cefd 3abd b0aa 733d d573 083e
00000370: 3bac d03d 8f04 ca3d 3d6b c0bc 9f51 2bbe
00000380: 1879 903e 9874 4a3e d8ca 483d 5b61 a73c
00000390: c314 913d 99da b9bd 4186 023e 8f44 b1bd
000003a0: bc98 df3c 6326 a2be c7e9 04be 75ce 1cbe
000003b0: 4238 f3bc 4256 b13e c8c9 453e 8d82 fdbc
000003c0: fc6a 1d3a 5adf adbc 4f7e a3bd 2ac3 1cbd
000003d0: fee6 abbd 88f5 173e f33e 563e 9323 2cbe
000003e0: cb37 36bc 18ef 383e ae29 15bc ee9b 20be
000003f0: 3e70 35be 8242 473d 1c61 b23d ec5f 353e

fc1.bias f4 [104]
0.023468139 0.03005868 0.07804924 0.10446229 0.17785278 0.14575431 0.07241803 0.076253906
0.23170581 0.08062149 0.17877185 0.11739695 0.099021666 0.04803364 0.060380206 0.080334105
0.075679965 0.049589876 0.103077605 0.12330098 0.10512441 0.075973414 0.12963124 0.11436463
0.13295734 0.04152144 0.108613655 0.08480057 0.12643576 0.11007117 0.09984329 0.13688777
0.11093711 0.06074397 0.14812002 0.077777565 0.14689374 0.07704431 0.04668112 0.06145589
0.13272524 0.0063289786 0.11870922 0.15403576 0.09208629 0.14319842 0.09682006 0.3054211
0.06655873 0.16048212 0.199326 0.049540147 0.08489894 0.11369778 0.06912938 0.12543774
0.09413615 0.098105185 0.13275424 0.070490964 0.057753 0.10499393 0.12292927 0.064109355
0.069507495 0.0694281 0.08648396 0.15269846 -0.014172342 0.084327765 0.06837278 0.12539792
0.2432204 0.054818887 0.15518758 0.11473885 0.1565104 0.1780956 0.16302168 0.16802134
0.12380219 0.11483419 0.0361175 0.116555 0.07760151 0.18022433 0.14687885 0.09445651
0.14093626 0.052901153 0.05502 0.10494701 0.027484253 0.09306195 0.19065072 0.14490044
0.056778703 0.10890653 0.11789246 0.06366412 0.15483989 0.029351082 0.09740472 0.08820063
00000000: 4140 c03c 9f3d f63c 48d8 9f3d 53f0 d53d
00000010: 0a1f 363e 9e40 153e e74f 943d 022b 9c3d
00000020: 4a44 6d3e e11c a53d f80f 373e d06d f03d
00000030: dfcb ca3d ecbe 443d 3c51 773d 3586 a43d
00000040: 19fe 9a3d c11e 4b3d 5a1a d33d 3985 fc3d
00000050: 774b d73d f397 9b3d 0dbe 043e 0138 ea3d
00000060: f825 083e 6312 2a3d d670 de3d ecab ad3d
00000070: 6078 013e fe6c e13d a47a cc3d 4f2c 0c3e
00000080: ff32 e33d abce 783d c6ac 173e d849 9f3d
00000090: 506b 163e 68c9 9d3d b434 3f3d 2cb9 7b3d
000000a0: 20e9 073e 5263 cf3b d21d f33d 8dbb 1d3e
000000b0: bd97 bc3d 9ba2 123e 9849 c63d 2860 9c3e
000000c0: f24f 883d 6d55 243e 1d1c 4c3e 9cea 4a3d
000000d0: 7fdf ad3d 62da e83d b493 8d3d c072 003e
000000e0: 74ca c03d 5feb c83d baf0 073e 915d 903d
000000f0: 698e 6c3d 0f07 d73d 57c2 fb3d c44b 833d
00000100: f259 8e3d 5230 8e3d 811e b13d fc5c 1c3e
00000110: 1c33 68bc 09b4 ac3d 0707 8c3d 5068 003e
00000120: c50e 793e c589 603d 7ee9 1e3e 34fc ea3d
00000130: 4344 203e b15e 363e 28ef 263e c90d 2c3e
00000140: 018c fd3d 302e eb3d f2ef 133d 63b4 ee3d
00000150: 8aed 9e3d ba8c 383e 6967 163e 6a72 c13d
00000160: 9851 103e e1ae 583d a75c 613d 75ee d63d
00000170: a826 e13c 4397 be3d f139 433e c860 143e
00000180: c990 683d 630a df3d 9a71 f13d 5662 823d
00000190: 598e 1e3e ae71 f03c 207c c73d 88a2 b43d

fc2.weight f4 [104, 104]
-0.19487695 -0.11463071 -0.08507858 0.2460293 -0.40651968 -0.0883285 0.03937707 0.058266904
0.2254106 0.2849073 -0.15800579 -0.031111581 -0.14024003 -0.34749347 -0.17231362 -0.33914512
0.25174057 0.021944828 0.100480534 0.38501087 0.07254287 0.14396738 0.0473547 0.20965728
0.12517397 -0.25697768 0.505351 0.40237772 0.090457015 -0.078182206 0.13681683 -0.07611684
0.17431073 -0.15129855 0.12346484 0.1450314 0.14572614 -0.16759183 -0.15926935 0.18217115
-0.1772217 -0.2870778 -0.057415236 -0.15024574 0.05535032 0.08075321 0.5384942 -0.035292923
-0.22189999 0.14445944 0.05904338 -0.47800186 0.30956715 -0.09631476 -0.12231121 -0.27572173
-0.5010686 0.6182034 0.51724845 0.02738144 0.3226298 -0.34379515 -0.18270372 -0.092633024
0.21970692 0.05246705 -0.22740118 -0.118068606 -0.26702484 0.296277 0.23869635 0.36068004
-0.084765494 0.16705655 0.046669487 -0.03853317 0.6256946 0.27209115 -0.2610865 0.22963005
0.47273842 -0.35484207 0.146746 -0.07259129 0.20390068 0.49836376 -0.25027785 0.06091576
-0.1606576 -0.29806462 -0.2805927 -0.21466139 -0.10928772 -0.16445206 -0.024581088 0.04705042
-0.27333096 0.066889 0.34366265 -0.009051901 0.11912401 0.094121605 0.01096666 0.19603354
0.3646204 0.0075164903 -0.08580351 0.04506734 -0.10179617 0.14269124 0.03864384 -0.24311498
-0.17614964 0.13475485 0.022521969 0.08881389 -0.09594945 -0.023774274 -0.30358008 0.033850532
-0.06180336 0.10948797 -0.14902677 0.011900025 0.13831194 0.23518594 -0.021131285 0.26065204
0.30601418 0.103673875 0.1648853 0.12331598 -0.33132407 0.17207643 0.20806332 -0.21525662
-0.2744134 0.15257734 0.015381302 0.32748803 0.04121524 -0.085451506 0.114513196 0.0647771
-0.018568704 -0.34342912 0.059962194 -0.03234503 -0.1689793 -0.090285264 0.30320606 -0.41747463
0.06551777 -0.029294372 -0.07329309 -0.07671495 0.11522051 0.060996518 -0.036923278 -0.42638826
-0.18439227 0.24205159 0.29452708 0.2651211 -0.029831 0.017141465 -0.45844617 0.07034589
0.340381 0.2578824 -0.01606414 -0.047315363 0.07892893 -0.12031815 0.1096539 0.09062103
-0.14992012 0.0518092 0.13574898 0.059543867 0.14494888 0.24212565 -0.37991098 -0.28569254
-0.23013388 0.2403757 0.3699553 0.30272993 0.08453865 0.13478808 -0.22784942 0.28046873
0.02160546 -0.15225248 -0.14823444 -0.08485348 0.18759017 -0.23314103 -0.057878062 0.09584216
0.041675348 0.22767147 0.10098961 0.14782009 0.16050267 0.12993047 -0.14763615 0.29278174
0.07844048 0.23744884 -0.10332021 0.054474987 -0.014246255 -0.16387983 -0.45760468 0.41878498
0.13179125 0.15164553 0.10670881 -0.29856357 0.27111024 -0.25240216 0.15644059 0.014350099
0.157807 -0.27241728 0.07223503 0.05984452 0.07772623 -0.08773561 -0.31931463 -0.3205125
-0.1310363 0.13518335 0.5009501 0.15735438 0.59971356 -0.16947311 -0.03718958 0.24776812
0.2684868 -0.15183055 -0.12306607 0.103908084 0.13077472 -0.020790266 -0.11644396 0.110195026
0.19915853 -0.14328206 0.1528685 0.06164106 -0.11038757 0.39915854 0.12149702 -0.040184114
00000000: d38d 47be 81c3 eabd ae3d aebd 1bef 7b3e
00000010: 5923 d0be 93e5 b4bd da49 213d 47a9 6e3d
00000020: 09d2 663e 5fdf 913e 45cc 21be b7dd febc
00000030: 159b 0fbe aaea b1be fb72 30be 6ea4 adbe
00000040: 24e4 803e a4c5 b33c bdc8 cd3d 2520 c53e
00000050: 5b91 943d 2f6c 133e 00f7 413d 66b0 563e
00000060: 9b2d 003e 9492 83be af5e 013f 7404 ce3e
00000070: 8741 b93d fe1d a0bd b619 0c3e 25e3 9bbd
00000080: 837e 323e 02ee 1abe 22db fc3d 1c83 143e
00000090: 3c39 153e 319d 2bbe 8117 23be 138b 3a3e
000000a0: 9b79 35be ddfb 92be 3d2c 6bbd 05da 19be
000000b0: 04b7 623d f061 a53d c2da 093f 508f 10bd
000000c0: c039 63be 2ded 133e 79d7 713d a9bc f4be
000000d0: 967f 9e3e ac40 c5bd 4d7e fabd 662b 8dbe
000000e0: 0846 00bf 9442 1e3f 656a 043f 0b4f e03c
000000f0: bc2f a53e eb05 b0be af16 3bbe 62b6 bdbd
00000100: dafa 603e b0e7 563d dbdb 68be f4cd f1bd
00000110: 7bb7 88be 9eb1 973e d16c 743e 0eab b83e
00000120: 8899 adbd df10 2b3e 8128 3f3d f5d4 1dbd
00000130: 852d 203f 884f 8b3e 21ad 85be 2424 6b3e
00000140: c50a f23e dcad b5be 9544 163e beaa 94bd
00000150: 57cb 503e 8929 ff3e 6b24 80be ce82 793d
00000160: 6d83 24be ed9b 98be d9a9 8fbe 32d0 5bbe
00000170: 3dd2 dfbd 1f66 28be 475e c9bc f1b7 403d
00000180: 09f2 8bbe 1afd 883d 8df4 af3e 6d4e 14bc
00000190: 4af7 f33d d4c2 c03d 82ad 333c 04bd 483e
000001a0: 86af ba3e e44c f63b c0b9 afbd 8898 383d
000001b0: 837a d0bd a71d 123e 0149 1e3d 22f3 78be
000001c0: 9260 34be 2dfd 093e fe7f b83c 0fe4 b53d
000001d0: 2581 c4bd 44c2 c2bc d96e 9bbe dba6 0a3d
000001e0: 8525 7dbd 3b3b e03d 799a 18be 53f8 423c
000001f0: a5a1 0d3e 95d4 703e 841b adbc 2f74 853e
00000200: e4ad 9c3e f852 d43d b1d7 283e 178d fc3d
00000210: 4fa3 a9be ce34 303e 8d0e 553e 3b6c 5cbe
00000220: ea7f 8cbe 3c3d 1c3e db01 7c3c 83ac a73e
00000230: 50d1 283d 3301 afbd e585 ea3d dba9 843d
00000240: 651d 98bc f1d5 afbe eb9a 753d 397c 04bd
00000250: e908 2dbe 7be7 b8bd d33d 9b3e 3cbf d5be
00000260: 2e2e 863d c0fa efbc b01a 96bd ba1c 9dbd
00000270: bbf8 eb3d 7cd7 793d dd3c 17bd 904f dabe
00000280: 54d1 3cbe 5fdc 773e 41cc 963e f4bd 873e
00000290: 2460 f4bc 426c 8c3c 75b9 eabe 8211 903d
000002a0: 6b46 ae3e 2909 843e f198 83bc c1cd 41bd
000002b0: 7ea5 a13d 5d69 f6bd 3992 e03d 8597 b93d
000002c0: a984 19be e235 543d c801 0b3e 45e4 733d
000002d0: 7b6d 143e c9ef 773e b183 c2be 4b46 92be
000002e0: 37a8 6bbe 0c25 763e c86a bd3e 6bff 9a3e
000002f0: 9a22 ad3d e305 0a3e 5c51 69be 9999 8f3e
00000300: effd b03c 13e8 1bbe c5ca 17be a9c7 adbd
00000310: a317 403e 86bc 6ebe 8c11 6dbd e548 c43d
00000320: c5b3 2a3d b622 693e a4d3 ce3d 265e 173e
00000330: d05a 243e 7e0c 053e ee2d 17be 7de7 953e
00000340: 67a5 a03d ca25 733e 8c99 d3bd 2a21 5f3d
00000350: 2069 69bc 1dd0 27be 294b eabe fc6a d63e
00000360: 49f4 063e f748 1b3e 268a da3d 53dd 98be
00000370: f6ce 8a3e db3a 81be f631 203e ad1c 6b3c
00000380: 2998 213e 477a 8bbe f6ef 933d 871f 753d
00000390: ee2e 9f3d baae b3bd 357d a3be 371a a4be
000003a0: 612e 06be 816d 0a3e 443e 003f 8221 213e
000003b0: d486 193f 5c8a 2dbe 1a54 18bd edb6 7d3e
000003c0: 1a77 893e 7879 1bbe 100a fcbd c3cd d43d
000003d0: cfe9 053e 5950 aabc 2c7a eebd eead e13d
000003e0: 37f0 4b3e 88b8 12be 8f89 1c3e 567b 7c3d
000003f0: e112 e2bd 825e cc3e 6ed3 f83d 1998 24bd

fc2.bias f4 [104]
0.0697453 0.019278869 -0.032956842 0.056409907 0.021171253 -0.11684881 -0.002748259 0.08468439
-0.039775338 -0.019290678 0.08581873 -0.018225554 0.014274928 -0.120758064 0.03349165 -0.07569058
0.040129084 0.05977986 0.10053413 -0.05454671 0.095542595 0.038548525 -0.036359508 0.081199445
0.10178017 -0.04250054 0.05492486 -0.048957627 0.14432392 0.0717945 0.10435912 -0.018001208
-0.09291852 -0.068044454 -0.070110336 0.029921116 -0.027936526 -0.0233845 8.7738445e-06 0.02608625
0.07088736 0.11106592 0.003915489 0.018336896 0.032401893 -0.030228378 0.1619129 0.016706737
0.09925904 -0.016803171 0.0018101129 0.09182148 -0.011921168 0.0537659 0.07683195 0.0621528
0.09000058 0.0477782 0.022547508 0.012491527 0.08995083 -0.04870087 0.011320553 -0.039704405
0.046286114 0.0716433 0.047536004 0.10699759 -0.0017073624 0.084556036 0.022202507 0.14145595
-0.04284891 0.096169904 -0.040675398 0.023766436 0.01907376 0.01966064 -0.09758337 -0.029578725
0.072853334 0.049931593 0.038810533 -0.09682764 -0.023858864 -0.104024276 -0.057462342 0.08592344
0.023890264 0.010712516 0.087470464 -0.053101357 -0.043770496 -0.027448358 0.06685572 -0.04846692
-0.027429806 0.04078898 -0.028644223 -0.037657037 0.013923926 -0.031523094 0.06392714 -0.0410389
00000000: a0d6 8e3d b8ee 9d3c c1fd 06bd 130e 673d
00000010: 566f ad3c 6e4e efbd 231c 34bb 026f ad3d
00000020: 77eb 22bd 7c07 9ebc bbc1 af3d c24d 95bc
00000030: 63e1 693c 0150 f7bd 8a2e 093d aa03 9bbd
00000040: 655e 243d badb 743d d7e4 cd3d 5f6c 5fbd
00000050: d6ab c33d 0fe5 1d3d b5ed 14bd e54b a63d
00000060: 1f72 d03d 0c15 2ebd e4f8 603d cb87 48bd
00000070: a6c9 133e ff08 933d 3cba d53d 4577 93bc
00000080: 114c bebd e45a 8bbd 0296 8fbd 211d f53c
00000090: 24db e4bc da90 bfbc 6033 1337 d5b2 d53c
000000a0: 642d 913d 8776 e33d 814d 803b 4237 963c
000000b0: d9b7 043d 81a1 f7bc 7fcc 253e 91dc 883c
000000c0: 5348 cb3d cea6 89bc 4f41 ed3a e60c bc3d
000000d0: 0151 43bc a239 5c3d 125a 9d3d ef93 7e3d
000000e0: 3952 b83d 13b3 433d 8db5 b83c 43a9 4c3c
000000f0: 2438 b83d 907a 47bd d779 393c 16a1 22bd
00000100: 8296 3d3d b9b9 923d 1db5 423d 8d21 db3d
00000110: 93c9 dfba b72b ad3d 08e2 b53c d4d9 103e
00000120: 5782 2fbd baf4 c43d 3f9b 26bd d4b1 c23c
00000130: 9340 9c3c 5a0f a13c cad9 c7bd 154f f2bc
00000140: 2134 953d 1285 4c3d cbf7 1e3d 924d c6bd
00000150: aa73 c3bc ae0a d5bd a25d 6bbd a1f8 af3d
00000160: 84b5 c33c 8c83 2f3c b723 b33d cf80 59bd
00000170: b148 33bd 61db e0bc a7eb 883d 4085 46bd
00000180: 79b4 e0bc 5812 273d 4aa7 eabc 443e 1abd
00000190: 2e21 643c 5c1e 01bd 3bec 823d 6818 28bd

fc3.weight f4 [21, 104]
0.2540992 -0.007574926 0.20402455 0.11581943 -0.34697813 0.044834703 -0.31840414 -0.06285072
-0.6991811 0.022403752 -0.16905919 -0.17039573 -0.16706297 -0.3437215 0.28894514 -0.24226978
0.16945164 -0.45726472 0.20527078 -1.0273297 0.35837388 0.051457517 -0.0069796355 -1.0630411
-0.1301699 0.098615244 0.018298088 -0.006546087 0.07410115 0.019740889 -0.18090278 0.15869947
-0.44255275 -0.52771133 0.1463146 -0.5454463 -0.046494205 0.0021513384 0.0482934 0.06903992
0.18964891 0.03591852 0.001986642 -0.070907265 0.23618636 -0.045486514 0.21942595 -0.20781341
-0.7027764 -0.1869438 -0.28586048 -0.7634916 -0.13319105 -0.32261142 -0.034606274 -0.016854007
0.097290605 0.23707813 0.12846617 -0.35638207 -0.17123972 -0.07332674 -0.28904867 -0.69027674
-0.27284724 0.03658214 0.3903202 0.03737428 -0.46479112 -0.42005134 0.029623548 -0.12620723
-0.5579386 0.12036148 -0.054455265 -0.28566086 -0.50412923 0.047023185 0.007453914 -0.25738537
-0.55266577 -0.100166485 -0.48674506 0.0033508493 0.01552482 -0.056185145 -0.47224522 -0.007380817
-0.0088927 -0.75731736 -0.08141077 -0.14978486 -0.3780555 -0.21968481 0.15795115 -0.2258974
-0.52572376 -0.30924407 0.06545831 -0.5548196 -0.04753434 -0.27348652 -0.1444511 0.3716388
0.02011525 0.1666027 -0.42619392 -0.52202934 -0.06057509 -0.08062583 0.007313804 -0.22789672
-0.1294276 -0.031380985 0.061961405 0.037300173 0.044046603 -0.084435426 -0.19869004 -0.2434551
-0.32246533 -0.1072179 -0.08089486 0.099140145 -0.28839687 -0.34847334 0.05099372 -0.019252725
0.072078995 -0.08107063 -0.33383656 -0.29642704 0.07295828 0.07122771 -0.034266286 0.05201464
0.108378515 -0.25542554 -0.15536998 -0.29715 -0.03488387 -0.6764087 0.02879898 -0.0652491
-0.026279243 0.056514863 0.08344554 -0.18654187 0.12499006 -0.0824325 -0.014234917 -0.05663841
0.03330273 -0.1152822 0.046153955 -0.114870004 -0.08007673 0.11112025 -0.6789851 -0.10357638
0.030634953 -0.03298966 -0.50671256 0.12344907 -0.4641947 -0.06710233 -0.012214623 -0.29157478
-0.053215753 0.061864868 -0.09996596 -0.22192164 0.08877615 -0.21179497 0.011770151 -0.36416543
-0.15446538 0.09643422 0.079501055 -0.16389607 -0.16672681 0.0023044532 0.007261169 0.018841105
-0.005699163 -0.1056522 -0.3618553 -0.29352114 0.009018209 0.06838262 -0.2402483 -0.12663823
-0.45003518 -0.10729435 0.07299182 -0.5650969 -0.09580402 -0.08327976 -0.28141212 -0.26478678
-0.09633773 -0.26700127 0.06787127 -0.022694312 0.12701428 0.15603663 -0.2364183 -0.3763059
0.14696135 -0.13732612 0.1037219 0.03256246 -0.1297568 -0.044483926 -0.36136442 -0.08359523
0.05807122 -0.07340727 0.08073656 -0.37926596 -0.37169102 0.08250381 0.037311897 -0.31594026
-0.26243824 -0.25979754 0.16063331 0.23173416 -0.11340648 0.075465806 0.1012707 -0.07992637
-0.47451398 0.18897308 -0.28904098 -0.120775215 -0.4066101 -0.30290624 -0.28437096 0.07871251
-0.3985839 -0.21261832 0.064732045 0.0057586757 0.0067279176 -0.08866407 -0.44323683 0.031033512
0.012806829 -0.41190225 0.19797088 0.0570741 0.14264116 0.23108408 -0.4020796 -0.00063630065
00000000: 4a19 823e 1637 f8bb d0eb 503e bd32 ed3d
00000010: 1ea7 b1be 98a4 373d de05 a3be e1b7 80bd
00000020: 88fd 32bf 1388 b73c da1d 2dbe 387c 2ebe
00000030: 8e12 2bbe 44fc afbe 9ef0 933e 9215 78be
00000040: bb84 2d3e 9a1e eabe 8132 523e 8a7f 83bf
00000050: c87c b73e 1ec5 523d 6db5 e4bb bb11 88bf
00000060: 424b 05be caf6 c93d dfe5 953c 8f80 d6bb
00000070: 58c2 973d a5b7 a13c 943e 39be 1d82 223e
00000080: 4696 e2be 1718 07bf 7fd3 153e 5ea2 0bbf
00000090: b570 3ebd 78fd 0c3b 4dcf 453d cd64 8d3d
000000a0: 5333 423e 4c1f 133d 5232 023b d437 91bd
000000b0: d6da 713e 1150 3abd 32b1 603e 0acd 54be
000000c0: 27e9 33bf 326e 3fbe 4e5c 92be 2f74 43bf
000000d0: 3c63 08be 532d a5be 4fbf 0dbd 6a11 8abc
000000e0: 4c40 c73d 9cc4 723e a38c 033e b677 b6be
000000f0: 7759 2fbe 542c 96bd 30fe 93be fab5 30bf
00000100: a2b2 8bbe 27d7 153d 0dd8 c73e c615 193d
00000110: 1af9 edbe f810 d7be 15ad f23c 783c 01be
00000120: 10d5 0ebf 1480 f63d 7c0c 5fbd 2442 92be
00000130: 9d0e 01bf 629b 403d f63f f43b 04c8 83be
00000140: 817b 0dbf 1624 cdbd a636 f9be ec99 5b3b
00000150: d15b 7e3c 6522 66bd 20ca f1be c8da f1bb
00000160: b0b2 11bc 8ddf 41bf b1ba a6bd 3461 19be
00000170: 7e90 c1be 0ef5 60be f2bd 213e a651 67be
00000180: d595 06bf 3d55 9ebe 020f 863d a808 0ebf
00000190: 5eb3 42bd 6d06 8cbe fdea 13be 7147 be3e
000001a0: bdc8 a43c e699 2a3e 1736 dabe b7a3 05bf
000001b0: 961d 78bd 281f a5bd a2a8 ef3b c25d 69be
000001c0: ab88 04be 5989 00bd 3ecb 7d3d 11c8 183d
000001d0: 366a 343d 7bec acbd 6775 4bbe 4b4c 79be
000001e0: 2d1a a5be 0f95 dbbd 34ac a5bd fd09 cb3d
000001f0: c1a8 93be 196b b2be cade 503d e4b7 9dbc
00000200: 279e 933d 5c08 a6bd a0ec aabe 49c5 97be
00000210: 276b 953d d5df 913d ce5a 0cbd 4e0d 553d
00000220: 8ef5 dd3d 23c7 82be 4f19 1fbe 0b24 98be
00000230: 64e2 0ebd 1f29 2dbf d7eb eb3c 52a1 85bd
00000240: 9147 d7bc 217c 673d 7fe5 aa3d d504 3fbe
00000250: cafa ff3d 5fd2 a8bd 9239 69bc adfd 67bd
00000260: 7268 083d 1319 ecbd ee0b 3d3d f740 ebbd
00000270: 45ff a3bd 0393 e33d f8d1 2dbf da1f d4bd
00000280: 27f6 fa3c 2a20 07bd eab7 01bf ded2 fc3d
00000290: edaa edbe f26c 89bd d81f 48bc 4a49 95be
000002a0: c3f8 59bd 0466 7d3d f4ba ccbd 6d3f 63be
000002b0: 45d0 b53d c8e0 58be 97d7 403c e473 babe
000002c0: 2c2c 1ebe 4e7f c53d 73d1 a23d 5fd4 27be
000002d0: 6fba 2abe 4f06 173b 1aef ed3b a958 9a3c
000002e0: 0bc0 babb 2e60 d8bd 1945 b9be 6748 96be
000002f0: 1cc1 133c 300c 8c3d a603 76be 74ad 01be
00000300: 036b e6be 24bd dbbd bc7c 953d 31aa 10bf
00000310: e634 c4bd 948e aabd 4015 90be 2292 87be
00000320: b74c c5bd 64b4 88be 1800 8b3d 6ce9 b9bc
00000330: 0810 023e 11c8 1f3e a417 72be 2bab c0be
00000340: 097d 163e 389f 0cbe 266c d43d 3760 053d
00000350: f7de 04be c734 36bd c204 b9be fa33 abbd
00000360: 16dc 6d3d 8d56 96bd 3659 a53d 262f c2be
00000370: 494e bebe c2f7 a83d 5cd4 183d ecc2 a1be
00000380: 4e5e 86be 2f04 85be 0f7d 243e b84b 6d3e
00000390: a841 e8bd d18d 9a3d 0367 cf3d 70b0 a3bd
000003a0: 7ff3 f2be 2982 413e 2efd 93be ff58 f7bd
000003b0: 332f d0be 8716 9bbe 1299 91be 0634 a13d
000003c0: 3013 ccbe 9eb8 59be 3c92 843d 46b3 bc3b
000003d0: dd75 dc3b 8295 b5bd f0ef e2be fe39 fe3c
000003e0: bcd3 513c dae4 d2be e1b8 4a3e 88c6 693d
000003f0: 8610 123e 4ea1 6c3e 61dd cdbe 6acd 26ba

fc3.bias f4 [21]
0.106943056 -0.08492405 0.00083952124 -0.008979751 -0.13819858 0.044555396 -0.15050349 -0.06342894
-0.0025066785 0.15159668 -0.03549777 -0.085730016 -0.028056318 -0.1456554 -0.0003454092 -0.005382229
-0.12044255 0.078304365 -0.07975204 0.062661126 -0.036617458
00000000: f604 db3d a9ec adbd 5113 5c3a ce1f 13bc
00000010: ee83 0dbe b87f 363d 961d 1abe 08e7 81bd
00000020: 1647 24bb 293c 1b3e 1c66 11bd 3893 afbd
00000030: 5dd6 e5bc b026 15be 0a18 b5b9 695d b0bb
00000040: 95aa f6bd 0a5e a03d 0a55 a3bd 7a54 803d
00000050: 30fc 15bd

exp_avg f4 [104, 128]
-4.6668847e-06 3.0953645e-06 1.01680025e-05 -1.10695655e-05 -9.293529e-06 -4.75314e-06 7.4312634e-06 2.5904306e-05
1.7117782e-05 2.6019616e-05 -1.68956e-05 3.2110423e-05 -2.5448682e-05 4.449923e-05 1.0628785e-05 -6.51599e-05
-2.7693457e-05 -5.740843e-06 4.7217272e-06 -4.5053883e-05 6.2574785e-05 -4.1639378e-05 -3.270875e-05 -1.5834126e-05
7.496736e-05 -2.2341177e-05 0.0003177332 -0.00013006001 -8.880311e-05 -5.6377045e-05 -3.7912596e-05 -7.317837e-05
-5.9062575e-05 8.556101e-06 2.4261266e-05 -1.28037445e-05 -6.322928e-06 7.5597554e-06 4.7130226e-05 2.2140408e-05
7.7389275e-05 -6.5882534e-07 5.455554e-05 2.8772372e-05 -6.93638e-06 8.325056e-05 -8.80525e-05 2.4821948e-05
-7.5900694e-05 -0.00012005765 -7.434851e-05 3.332941e-05 -8.62282e-06 1.8053935e-05 -2.9326462e-05 1.2272591e-05
4.5678593e-05 -6.177885e-05 4.154005e-06 1.2509436e-05 -4.9014656e-05 2.4320765e-05 3.420453e-05 -2.8469081e-05
3.900969e-05 -6.9779686e-05 4.2000403e-05 8.078328e-07 -8.710723e-07 0.00011794129 -0.00021174758 -0.00015558476
2.016818e-05 0.00021525865 0.00012010655 6.130934e-05 -2.1173602e-05 -4.647417e-05 0.0001230906 7.903095e-05
-6.3986755e-07 -9.5110845e-05 -3.0313591e-05 -2.258905e-05 -6.222945e-05 9.189696e-05 -5.9631882e-05 -7.373408e-05
-7.0619535e-05 -2.2036482e-05 -1.9903748e-05 -6.2027044e-05 2.4907758e-05 2.0708443e-05 8.6313e-05 -3.1134772e-05
-5.9026534e-05 3.593757e-05 2.1102811e-05 -1.0197799e-06 0.00010263877 7.9247984e-05 -5.4874006e-05 5.0645034e-05
-0.00013476187 -4.901806e-05 -9.54575e-05 -1.3612109e-05 -3.3646767e-05 1.541781e-05 -6.631929e-05 -7.547109e-05
-8.3718885e-05 -4.0726823e-05 -3.2778702e-05 -1.5058564e-05 -0.0001069908 -2.2704715e-05 1.59885e-05 4.9249415e-06
-7.751076e-05 5.6373963e-05 -2.6228041e-05 5.9022565e-05 -4.012828e-05 4.9698454e-05 -6.5155524e-05 -7.0859416e-05
-6.7123765e-05 0.000121059216 1.856148e-05 5.2690375e-05 0.00026007975 -0.0001000645 -3.551747e-05 0.000488939
-0.00010713281 5.2965635e-05 -0.00031553727 -4.7920203e-05 0.00016415026 0.00022784367 0.00032449956 0.00026994752
0.00020082807 0.00021944918 0.00060221186 -2.0065918e-05 -0.00016126563 0.0008141769 -0.00015342745 0.00038841224
-0.0005805606 0.0004686328 7.8534045e-05 0.0004161694 -8.744872e-05 -0.00030623804 -0.00031649103 -0.00018642283
-0.0001547308 5.2553478e-05 0.0004336705 -7.5091804e-05 0.00061582675 -0.00030727332 -0.00033149403 -0.00066813413
1.891133e-06 -0.00070565863 0.00022456265 -0.0011925878 0.00051904103 0.00026395379 -0.00033304282 0.00024532469
0.00019275377 -0.0006584015 0.00077759125 -7.942386e-05 7.890409e-05 3.358583e-05 0.00045829124 -0.0009077112
0.00021290618 0.000354565 0.000701039 -0.00072250783 -0.00039616652 -0.00043283933 0.00046290673 0.0012658117
0.0001601825 0.00039389206 -0.001332631 -0.0006144918 0.0004719595 0.0001121737 -0.00021424374 -0.00031922292
0.00061396876 1.336594e-05 0.0007141173 -0.00039429122 0.0005205789 -0.00027043698 0.00013729224 -0.0006530947
-0.000104096354 0.00014342324 -0.00035464548 0.00052271766 -2.3073091e-05 0.00015266857 -0.0005336924 0.00036190858
-0.0005822481 0.000101179314 0.0001888942 -0.0006613413 -0.0002694901 -0.00027871408 0.00043530192 0.00022393823
0.001068635 0.00044676085 -0.0006918841 0.00022691333 0.0007087787 -0.00051189767 -0.0007633529 -0.0010133673
-0.00012924161 -0.0004394569 0.001165124 -5.7543566e-05 0.00072824757 -0.0005116766 0.0010408835 0.00014232562
-0.0003074354 0.0016607244 -0.00066254166 -0.0007457275 0.00080752646 9.712083e-05 -0.00048779973 0.0028369331
0.00097075367 0.0013631932 -0.00028845013 -0.0013116929 -0.00036743865 0.0006427049 -0.0004072764 -0.0005181643
00000000: 3c98 9cb6 f5b9 4f36 3d97 2a37 6cb7 39b7
00000010: 67eb 1bb7 297d 9fb6 115a f936 134d d937
00000020: 2898 8f37 b344 da37 06bb 8db7 4eae 0638
00000030: a17a d5b7 afa4 3a38 4952 3237 74a6 88b8
00000040: 3f4f e8b7 77a1 c0b6 546f 9e36 3df8 3cb8
00000050: 953a 8338 f1a5 2eb8 c130 09b8 87d3 84b7
00000060: cc37 9d38 5069 bbb7 6e95 a639 b860 08b9
00000070: cf3b bab8 6476 6cb8 5704 1fb8 5777 99b8
00000080: f5b9 77b8 2d8c 0f37 ac84 cb37 aacf 56b7
00000090: 8a29 d4b6 cea9 fd36 b2ad 4538 2aba b937
000000a0: 0d4c a238 22da 30b5 91d2 6438 335c f137
000000b0: 0dbf e8b6 ce96 ae38 d3a8 b8b8 ba38 d037
000000c0: e02c 9fb8 76c7 fbb8 8deb 9bb8 2ecb 0b38
000000d0: bbaa 10b7 8872 9737 1902 f6b7 61e6 4d37
000000e0: 0497 3f38 448f 81b8 a262 8b36 9edf 5137
000000f0: 1695 4db8 7204 cc37 d676 0f38 e3d0 eeb7
00000100: 569e 2338 af56 92b8 9729 3038 d9d9 5835
00000110: a2d3 69b5 3f57 f738 8f08 5eb9 7724 23b9
00000120: d62e a937 0eb7 6139 b7e1 fb38 3493 8038
00000130: f79d b1b7 43ed 42b8 e211 0139 6bbd a538
00000140: 5dc3 2bb5 3f76 c7b8 f149 feb7 9e7d bdb7
00000150: 2e81 82b8 ceb8 c038 3f1d 7ab8 afa1 9ab8
00000160: 9319 94b8 fcda b8b7 f9f6 a6b7 8414 82b8
00000170: 01f1 d037 0bb7 ad37 f002 b538 b596 02b8
00000180: 4293 77b8 acbb 1638 f105 b137 5fdf 88b5
00000190: c53f d738 f031 a638 8428 66b8 b16b 5438
000001a0: dd4e 0db9 be98 4db8 5b30 c8b8 905f 64b7
000001b0: f11f 0db8 7f55 8137 e614 8bb8 3c46 9eb8
000001c0: 3c92 afb8 18d2 2ab8 dd7b 09b8 0aa4 7cb7
000001d0: 4060 e0b8 0176 beb7 0b1f 8637 ed40 a536
000001e0: 468d a2b8 1573 6c38 4a04 dcb7 ff8e 7738
000001f0: 6a4f 28b8 4f73 5038 1ba4 88b8 5c9a 94b8
00000200: ccc4 8cb8 2ce1 fd38 7ab4 9b37 dcff 5c38
00000210: 505b 8839 b8d9 d1b8 98f8 14b8 242c 003a
00000220: 7dac e0b8 6b27 5e38 b26e a5b9 edfd 48b8
00000230: c01f 2c39 52e9 6e39 9821 aa39 be87 8d39
00000240: 6095 5239 f11b 6639 c1dd 1d3a 3b53 a8b7
00000250: 6a19 29b9 7d6e 553a 5ee1 20b9 cfa3 cb39
00000260: c330 18ba d4b2 f539 a5b2 a438 5031 da39
00000270: ad64 b7b8 938e a0b9 b5ee a5b9 7f7a 43b9
00000280: 3c3f 22b9 de6c 5c38 455e e339 9b7a 9db8
00000290: 6f6f 213a 8719 a1b9 60cc adb9 b925 2fba
000002a0: d6d2 fd35 f3fb 38ba 9478 6b39 9b50 9cba
000002b0: 4110 083a 4763 8a39 409c aeb9 ec9e 8039
000002c0: f21d 4a39 9498 2cba 44d7 4b3a 5c90 a6b8
000002d0: 5079 a538 83de 0c38 cf46 f039 78f3 6dba
000002e0: 913f 5f39 e9e4 b939 eec5 373a ae66 3dba
000002f0: 92b4 cfb9 b6ee e2b9 4ab2 f239 98e9 a53a
00000300: aaf6 2739 4c83 ce39 adab aeba d915 21ba
00000310: 5571 f739 cc3e eb38 9ea6 60b9 605d a7b9
00000320: bff2 203a 463e 6037 9a33 3b3a dfb8 ceb9
00000330: 7577 083a 70c9 8db9 1bf6 0f39 7234 2bba
00000340: 4e4e dab8 e263 1639 b6ef b9b9 fd06 093a
00000350: 168d c1b7 a815 2039 7ee7 0bba 8cbe bd39
00000360: 02a2 18ba 3b30 d438 e711 4639 dd5d 2dba
00000370: 594a 8db9 5f20 92b9 3c39 e439 f6d0 6a39
00000380: 7111 8c3a 3a3b ea39 8e5f 35ba 95ef 6d39
00000390: 55cd 393a df30 06ba bf1b 48ba f7d2 84ba
000003a0: 0885 07b9 e866 e6b9 13b7 983a ef5a 71b8
000003b0: dee7 3e3a 0922 06ba 416e 883a 3e3d 1539
000003c0: 482f a1b9 aaac d93a 6bae 2dba ed7c 43ba
000003d0: 2fb0 533a 59ad cb38 5fbf ffb9 d7eb 393b
000003e0: 2d7a 7e3a 2cad b23a 1f3b 97b9 1ced abba
000003f0: c8a4 c0b9 327b 283a b787 d5b9 6bd5 07ba

exp_avg_sq f4 [104, 128]
3.7963754e-10 7.9484186e-10 2.3412081e-09 2.331472e-09 2.7679226e-09 1.2480163e-08 9.732651e-09 2.3543016e-08
2.475172e-08 1.1716721e-08 2.6147486e-08 9.792588e-09 8.5279616e-08 2.2085208e-08 1.5297706e-08 8.6956696e-08
5.457072e-08 7.658791e-09 2.8451922e-08 7.210619e-08 3.2561015e-08 2.609376e-08 1.5056168e-08 3.900971e-08
3.188626e-08 1.2938813e-08 3.4119782e-07 1.1093186e-07 9.619099e-08 4.133024e-08 3.8952347e-08 3.3037392e-07
2.0637613e-08 1.17702896e-07 8.6322615e-08 5.7255697e-08 3.3829e-08 3.659528e-08 2.7432185e-08 1.9480758e-07
3.0427827e-07 1.0640455e-07 6.194797e-08 4.5751996e-08 3.0628186e-08 1.9276293e-07 4.2143412e-08 7.8629185e-08
6.276425e-08 3.0219212e-07 1.916078e-07 1.0712862e-07 1.4693377e-07 2.4006267e-08 4.9364356e-08 5.991302e-08
4.6467825e-08 4.4443272e-08 1.2715918e-07 7.419729e-08 5.36343e-08 3.2289464e-08 9.2432515e-08 5.560614e-08
8.9308195e-08 6.556155e-08 5.6736344e-08 4.7025893e-08 9.845001e-08 1.4408437e-07 1.8831264e-07 9.039363e-08
3.0212868e-07 1.3139976e-07 7.687761e-08 1.5460377e-07 6.749361e-08 5.295283e-08 7.0343674e-08 7.403058e-08
1.2225401e-07 2.3094555e-07 4.5298123e-08 6.099932e-08 9.5144145e-08 7.443596e-08 7.390617e-08 1.04272395e-07
9.2087696e-08 5.311993e-08 8.240033e-08 9.100429e-08 6.9197e-08 9.568517e-08 7.67739e-08 4.6287944e-08
5.0806943e-08 6.975894e-08 8.826399e-08 5.7544078e-08 8.009746e-08 5.5181907e-08 7.055067e-08 6.726198e-08
7.440666e-08 7.039588e-08 5.494783e-08 9.204251e-08 7.159059e-08 7.9953004e-08 5.8928595e-08 8.408685e-08
8.071892e-08 8.058747e-08 7.2820704e-08 6.267363e-08 1.0713386e-07 6.467809e-08 7.956543e-08 7.559429e-08
9.411163e-08 5.729558e-08 5.270333e-08 7.983593e-08 5.5351e-08 5.5612784e-08 9.81293e-08 7.155631e-08
7.6557e-10 2.2695934e-09 1.890306e-09 2.71204e-09 1.0034359e-08 1.234211e-08 2.8989215e-08 4.6491625e-08
1.3856776e-08 2.643845e-08 4.0592138e-08 8.308934e-09 1.7013416e-07 1.10095684e-07 5.5709382e-08 1.3326006e-07
8.373957e-08 1.3155752e-08 4.9436665e-08 1.216184e-07 5.9006098e-08 1.1130253e-07 2.0220204e-08 5.561895e-08
6.995636e-08 3.447152e-08 1.7558817e-07 3.6764174e-08 1.5426533e-08 3.350633e-08 3.9763414e-08 1.1935784e-07
2.271153e-08 1.4673682e-07 4.3027846e-08 8.565411e-08 6.1152186e-08 5.2517755e-08 4.3616105e-08 2.606584e-07
2.4773868e-07 1.593103e-07 1.2931464e-07 1.8825648e-07 5.4988753e-08 1.954275e-07 5.897127e-08 9.96731e-08
7.4096214e-08 3.3749026e-07 2.4716505e-07 1.5681515e-07 2.418711e-07 3.124443e-08 6.840003e-08 1.4414208e-07
4.79061e-08 6.6987596e-08 1.3050732e-07 1.3401917e-07 7.069827e-08 6.470426e-08 1.2038035e-07 2.296176e-07
7.930433e-08 8.5981426e-08 2.3917758e-07 8.10238e-08 1.0045121e-07 1.2052752e-07 1.5714498e-07 8.5134495e-08
2.8672557e-07 6.311081e-08 1.04662554e-07 1.5340514e-07 8.107828e-08 6.370495e-08 5.9162165e-08 1.0971965e-07
9.533859e-08 2.0755209e-07 5.4984483e-08 8.594512e-08 1.0141967e-07 6.624712e-08 7.365139e-08 1.01861126e-07
1.1278225e-07 5.3114984e-08 6.539819e-08 1.13228765e-07 8.273293e-08 9.558012e-08 9.379293e-08 5.332933e-08
1.4179658e-07 7.7788016e-08 1.2659805e-07 5.4995887e-08 1.2701328e-07 8.7671765e-08 1.3370847e-07 1.7105832e-07
6.508799e-08 7.7004955e-08 1.8348771e-07 8.2346496e-08 1.3024018e-07 9.2793954e-08 1.4957655e-07 1.08992694e-07
8.390305e-08 3.804685e-07 1.2662476e-07 1.1078827e-07 1.6566156e-07 7.8872155e-08 1.096704e-07 8.9321736e-07
2.0681306e-07 2.39194e-07 6.702388e-08 2.5267528e-07 6.868545e-08 8.256993e-08 1.323709e-07 9.547778e-08
00000000: 3cb5 d02f 067c 5a30 f8e2 2031 b037 2031
00000010: cf35 3e31 5668 5632 a734 2732 a43b ca32
00000020: 9c9d d432 af4a 4932 ee9a e032 423c 2832
00000030: f722 b733 e3b5 bd32 0368 8332 f3bc ba33
00000040: 2461 6a33 b893 0332 7066 f432 ccd8 9a33
00000050: 37d9 0b33 c924 e032 dd54 8132 a18b 2733
00000060: 50f3 0833 8049 5e32 df2d b734 6f39 ee33
00000070: 8e91 ce33 1483 3133 8f4c 2733 3f5e b134
00000080: 9746 b132 dac3 fc33 5c60 b933 4ee9 7533
00000090: 614b 1133 f02c 1d33 03a4 eb32 4d2c 5134
000000a0: b05b a334 8580 e433 4208 8533 da80 4433
000000b0: 0c8c 0333 45fa 4e34 2c01 3533 dada a833
000000c0: 03c9 8633 f83c a234 c0bc 4d34 950e e633
000000d0: d9c4 1d34 5736 ce32 af04 5433 88a9 8033
000000e0: ea93 4733 e5e1 3e33 4089 0834 6456 9f33
000000f0: 895b 6633 a4ae 0a33 507f c633 99d3 6e33
00000100: b3c9 bf33 d8ca 8c33 45ae 7333 84f9 4933
00000110: 776b d333 9cb5 1a34 fc32 4a34 6c1e c233
00000120: 4034 a234 e416 0d34 ea17 a533 2901 2634
00000130: 01f1 9033 416e 6333 d80f 9733 befa 9e33
00000140: ed44 0334 d4f9 7734 d08d 4233 bbfe 8233
00000150: 0c52 cc33 9ad9 9f33 59b6 9e33 5bec df33
00000160: bfc1 c533 fb25 6433 0ff4 b033 236e c333
00000170: 7499 9433 7a7b cd33 e6de a433 22ce 4633
00000180: d336 5a33 62ce 9533 a48b bd33 6226 7733
00000190: 0b02 ac33 2601 6d33 a481 9733 aa71 9033
000001a0: 7ec9 9f33 8b2c 9733 c7ff 6b33 e8a8 c533
000001b0: 58bd 9933 a1b2 ab33 ad18 7d33 3c93 b433
000001c0: b257 ad33 6e0f ad33 9b61 9c33 3197 8633
000001d0: 7611 e633 28e5 8a33 8fdd aa33 6756 a233
000001e0: 6a1a ca33 2815 7633 ed5b 6233 4472 ab33
000001f0: 11bb 6d33 e7da 6e33 27bb d233 7faa 9933
00000200: 3370 5230 1cf7 1b31 9de6 0131 b65e 3a31
00000210: 9463 2c32 2c09 5432 f503 f932 15ae 4733
00000220: bf0e 6e32 c41a e332 8757 2e33 14bf 0e32
00000230: 1fae 3634 be6d ec33 1d45 6f33 3f16 0f34
00000240: 51d4 b333 9c03 6232 3054 5433 3696 0234
00000250: e46d 7d33 3705 ef33 b3b0 ad32 afe1 6e33
00000260: ea3a 9633 d60d 1433 4f89 3c34 a3e6 1d33
00000270: 4e83 8432 99e8 0f33 56c8 2a33 d528 0034
00000280: 2f17 c332 b68e 1d34 9ecd 3833 d8f0 b733
00000290: c552 8333 e28f 6133 6a54 3b33 9ef0 8b34
000002a0: f200 8534 e20e 2b34 bdd9 0a34 8c23 4a34
000002b0: c62c 6c33 b4d6 5134 9947 7d33 de0b d633
000002c0: d31e 9f33 4f30 b534 1bb2 8434 0561 2834
000002d0: 83da 8134 9d31 0633 50e3 9233 79c5 1a34
000002e0: 50c1 4d33 d2da 8f33 9421 0c34 e9e6 0f34
000002f0: c9d2 9733 8bf3 8a33 e641 0134 ce8c 7634
00000300: 044e aa33 caa4 b833 5168 8034 4eff ad33
00000310: a3b7 d733 5a6a 0134 afbb 2834 2fd3 b633
00000320: 43ef 9934 8987 8733 d9c2 e033 afb7 2434
00000330: 411d ae33 2bce 8833 7d19 7e33 049f eb33
00000340: f2bc cc33 7cdb 5e34 1428 6c33 d490 b833
00000350: 0ecc d933 bd43 8e33 482a 9e33 bfbe da33
00000360: b332 f233 8b20 6433 0971 8c33 2c28 f333
00000370: e9aa b133 ba41 cd33 356b c933 380c 6533
00000380: bf40 1834 6a0c a733 02ef 0734 9e34 6c33
00000390: 2561 0834 1046 bc33 8191 0f34 27ac 3734
000003a0: 80c6 8b33 ec5d a533 b804 4534 77d6 b033
000003b0: 26d8 0b34 0446 c733 4a9b 2034 5e0f ea33
000003c0: 312e b433 3143 cc34 59f6 0734 7fea ed33
000003d0: b4e0 3134 6d60 a933 f183 eb33 6ec5 6f35
000003e0: 5710 5e34 936a 8034 c5ee 8f33 6da7 8734
000003f0: 3a80 9333 4d51 b133 d621 0e34 7709 cd33

exp_avg f4 [104]
-0.00088901323 -0.008045183 -0.00064204785 0.008334856 0.004313917 0.0020020336 0.012378585 -0.016212216
-0.0019299844 0.002203899 7.421623e-05 0.012094636 4.2895126e-06 -0.004188689 0.0007990435 0.0014568745
0.0008566922 0.005007457 0.0002808908 0.0043320013 -0.00038130837 0.0032518518 0.015404961 0.0010447688
0.000638994 -0.0024804953 -0.0025792373 0.002626645 -0.0041523143 0.00036850554 0.0029685586 -0.008011549
-0.0004507144 -0.0005963129 0.0005058503 -0.0003927484 -0.0019743983 0.0004211387 0.0012496961 0.006017586
-0.00285278 -0.0054481816 -0.0019425525 -0.006525015 0.0031136076 -0.003125832 0.008978656 -0.001807542
-0.0037223662 0.0016270581 0.0014251018 0.00015941774 0.0083664805 -0.0001368525 -0.0022945334 0.0070310496
-0.0030605977 0.012244752 0.015854944 0.0048727924 -0.00097076665 0.00051915285 -0.016158642 -0.005451422
0.0056295 0.010487897 -0.000643781 0.010623551 -0.0008205413 -0.00033717375 -0.011340223 0.006187136
-0.0016477765 0.0030638273 0.00811866 0.007935103 0.012797802 0.0015337575 -0.0069797826 -0.0019175815
-0.003538918 0.0063051917 -0.0014341039 0.009127259 -0.0063097076 0.016994366 0.0010164246 0.008558619
8.084137e-05 -0.009077062 -0.014678906 0.001068145 -0.0006681423 0.0043336586 0.00054140063 0.0037218616
-0.0059971674 0.00072109286 0.00023850013 -0.01589151 0.01162861 -0.0010662996 0.0013495163 -0.001986604
00000000: ab0c 69ba f1cf 03bc 1a4f 28ba eb8e 083c
00000010: c25b 8d3b 8d34 033b 8ccf 4a3c 7bcf 84bc
00000020: 88f7 fcba 4a6f 103b 89a4 9b38 9528 463c
00000030: a2ee 8f36 4541 89bb e776 513a 99f4 be3a
00000040: a493 603a 9815 a43b 8644 9339 76f3 8d3b
00000050: 58ea c7b9 051d 553b 1765 7c3c a0f0 883a
00000060: 2982 273a ce8f 22bb 6c08 29bb ca23 2c3b
00000070: 2310 88bb fa33 c139 268c 423b df42 03bc
00000080: dd4d ecb9 e251 1cba 0a9b 043a cce9 cdb9
00000090: e864 01bb 48cc dc39 d8cc a33a 2c2f c53b
000000a0: b5f5 3abb a986 b2bb 3f9d feba cbcf d5bb
000000b0: ab0d 4c3b c2da 4cbb 361b 133c 0ceb ecba
000000c0: f1f2 73bb 0343 d53a 7bca ba3a 6029 2739
000000d0: 9013 093c 1080 0fb9 e25f 16bb b864 e63b
000000e0: 4f94 48bb 369e 483c 3ae2 813c f2ab 9f3b
000000f0: 0c7b 7eba c217 083a 215f 84bc d8a1 b2bb
00000100: ab77 b83b 6ed5 2b3c 69c3 28ba 670e 2e3c
00000110: 9819 57ba b2c6 b0b9 58cc 39bc 75bd ca3b
00000120: 34fa d7ba 7eca 483b 2104 053c 3c02 023c
00000130: dfad 513c 5d08 c93a a9b6 e4bb 5c57 fbba
00000140: 31ed 67bb c89b ce3b 8bf8 bbba 808a 153c
00000150: aac1 cebb c537 8b3c 8d39 853a 7339 0c3c
00000160: 6189 a938 f5b7 14bc cb7f 70bc 0001 8c3a
00000170: 4526 2fba 5d01 8e3b c8ec 0d3a 7aea 733b
00000180: e383 c4bb b907 3d3a e415 7a39 e92e 82bc
00000190: ed85 3e3c 14c3 8bba 41e2 b03a af31 02bb

exp_avg_sq f4 [104]
9.779998e-06 1.3257987e-05 4.4477074e-06 1.6405249e-05 9.826735e-06 6.07359e-06 2.1747404e-05 3.5396104e-05
1.1892318e-05 9.53081e-06 3.283986e-06 2.176835e-05 4.142725e-06 1.21655885e-05 1.0364217e-05 7.38072e-06
1.0675439e-05 1.2440396e-05 4.631434e-06 7.771474e-06 8.1688095e-06 7.704273e-06 3.0169387e-05 8.315165e-06
1.0616989e-05 8.799712e-06 1.8917493e-05 9.157667e-06 7.705774e-06 1.3643525e-05 9.707646e-06 1.5166737e-05
7.0108786e-06 7.75342e-06 1.0167389e-05 6.357663e-06 9.170677e-06 6.587404e-06 5.0698154e-06 1.7818387e-05
8.112656e-06 1.00784655e-05 6.0404045e-06 6.929723e-06 1.0202615e-05 1.0134224e-05 1.8187468e-05 1.8267041e-05
8.745636e-06 1.221962e-05 6.3804778e-06 1.0712606e-05 2.2218977e-05 3.859142e-06 8.702611e-06 1.7475002e-05
1.1687269e-05 2.1100066e-05 3.412365e-05 9.97035e-06 8.4384255e-06 5.7643233e-06 3.3433324e-05 1.09429075e-05
1.6238497e-05 2.0619955e-05 5.2048185e-06 2.2265578e-05 1.29679765e-05 1.1682703e-05 2.5923207e-05 1.1103792e-05
8.233165e-06 9.017643e-06 1.3213789e-05 1.2218393e-05 3.1872365e-05 1.2880237e-05 1.5057383e-05 6.5910763e-06
9.449459e-06 1.4339698e-05 9.532046e-06 1.3886176e-05 1.7256081e-05 3.899665e-05 8.62214e-06 1.5369647e-05
8.878071e-06 1.4507779e-05 3.3346867e-05 6.432743e-06 6.6628522e-06 1.6619944e-05 6.595942e-06 1.0285206e-05
1.1636235e-05 7.7136365e-06 8.016261e-06 3.1676038e-05 2.304645e-05 1.0728487e-05 9.994809e-06 1.5980802e-05
00000000: c614 2437 9f6e 5e37 843d 9536 019e 8937
00000010: 81dd 2437 becb cb36 326e b637 4776 1438
00000020: 1e85 4737 84e6 1f37 7362 5c36 2d9b b637
00000030: bd01 8b36 ce1a 4c37 f9e1 2d37 e7a7 f736
00000040: a91a 3337 18b7 5037 b767 9b36 3a62 0237
00000050: c50c 0937 9a41 0137 4414 fd37 5d81 0b37
00000060: 9f1f 3237 7aa2 1337 02b1 9e37 e1a3 1937
00000070: 0c48 0137 7ee6 6437 06de 2237 a474 7e37
00000080: fd3e eb36 af14 0237 9a94 2a37 e953 d536
00000090: c2db 1937 5f09 dd36 621d aa36 b278 9537
000000a0: 981b 0837 ae16 2937 aeae ca36 de85 e836
000000b0: e62b 2b37 2906 2a37 4a91 9837 2c3c 9937
000000c0: 38ba 1237 de02 4d37 e317 d636 4bba 3337
000000d0: e462 ba37 c77d 8136 6e01 1237 4897 9237
000000e0: 7014 4437 0c00 b137 fd1f 0f38 5446 2737
000000f0: c392 0d37 296b c136 c23a 0c38 6e97 3737
00000100: e837 8837 04f9 ac37 0da5 ae36 f7c6 ba37
00000110: 0991 5937 d400 4437 aa75 d937 6c4a 3a37
00000120: 2d21 0a37 7b4a 1737 cbb0 5d37 99fd 4c37
00000130: b1ae 0538 3218 5837 f89e 7c37 ea28 dd36
00000140: 1e89 1e37 8994 7037 d3eb 1f37 acf8 6837
00000150: 27c1 9037 5690 2338 cfa7 1037 11ee 8037
00000160: 06f3 1437 7066 7337 eddd 0b38 d7d8 d736
00000170: 7791 df36 0f6b 8b37 b652 dd36 a08e 2c37
00000180: 4039 4337 d169 0137 947d 0637 e3db 0438
00000190: e053 c137 80fe 3337 61af 2737 830e 8637

exp_avg f4 [104, 104]
-2.5432542e-05 0.00049117487 -3.7451224e-05 0.0013721341 0.00051227014 0.0007281619 5.1206538e-05 0.00034102405
0.0008189397 0.001539303 -3.2902106e-05 0.0002696285 -1.5203291e-05 0.00044382885 -1.3493215e-05 0.00030189357
-8.261364e-06 0.0003897421 0.00086859934 0.0012203119 -5.5247023e-05 0.0010708448 0.0009256796 -3.4183475e-05
-1.8845945e-05 0.0004193125 0.000999164 0.00019802315 0.00061378337 -5.3211177e-05 0.00012891946 0.00088901527
-2.2851613e-05 -9.1630745e-06 6.992187e-05 -1.855651e-05 0.00088374416 -4.213106e-07 3.6646023e-05 0.00079855794
0.00038603222 7.500892e-05 0.0009880548 0.0005223618 0.0014764073 0.00049363106 0.00078570074 0.0020367063
0.0003670375 0.0014034086 0.00028987584 -1.4460128e-05 0.00096204114 0.00043966327 9.905235e-05 0.0010436979
0.0006880539 0.00027699873 0.0011828352 0.00067631976 9.944089e-06 0.0010165964 0.0007939892 0.00082326273
0.0006944691 0.00065548916 -1.8697092e-05 0.00070096814 -2.7879116e-05 -3.63534e-05 0.0005100641 0.0012522968
0.0005397607 8.09827e-05 0.0014719184 0.00021363156 -4.0249775e-05 0.0004655656 0.0003076874 0.0011468928
0.00096835307 0.0003241071 -5.7292338e-05 0.00076333515 0.00022448295 0.00080548413 0.000630117 0.0006529916
0.000230841 0.00017355828 0.00027807677 -2.7115833e-05 -1.9509836e-05 0.00034308733 -9.705786e-06 0.0002692707
0.0008956395 3.8049898e-06 -1.537708e-05 0.00040726727 0.00092525466 2.0974612e-06 -5.5355613e-05 0.00036080388
-9.978661e-06 0.0006078193 -1.0738244e-05 0.0016813771 0.0006611603 0.0009706683 8.056838e-05 0.00040130084
0.0010184151 0.0018380072 -2.8825358e-05 0.00040334105 3.9899332e-06 0.00058208645 5.481198e-06 0.00035496277
1.8892519e-05 0.0004766435 0.0010652783 0.0014506825 -5.54808e-05 0.00125601 0.0011464778 -3.528616e-05
-1.0376268e-05 0.000516661 0.0011985317 0.00026312607 0.0007508635 -2.7230037e-05 0.00011450493 0.001147433
3.416013e-05 1.2959379e-05 0.00010314535 -1.5442154e-05 0.0010884872 5.924551e-05 5.1302657e-05 0.0009467299
0.00048986 8.474625e-05 0.0012357298 0.0006944223 0.0017569445 0.0006769475 0.00091723463 0.0024579675
0.0004337041 0.0016512845 0.00033273656 8.98078e-05 0.0011863735 0.0005633796 0.00018466049 0.0013028239
0.0008475288 0.0003851626 0.001450583 0.00081961707 -2.2593762e-05 0.0012464267 0.0009805093 0.0009907795
0.0008071462 0.0007972005 -4.0213367e-06 0.0008970605 6.0750426e-06 1.1283148e-05 0.000630796 0.0015159242
0.0007812363 0.00012189514 0.001785149 0.00029307217 -3.599823e-05 0.00051321083 0.00043184668 0.0013436752
0.0011542307 0.00044316248 -8.094458e-05 0.000980756 0.00029460227 0.0010017008 0.00078337 0.0008069746
0.00032794685 0.00026058036 0.00035672885 3.64229e-05 1.1687289e-05 0.00047439671 -1.371707e-05 0.00038146856
0.001064593 2.409163e-05 2.079845e-05 0.0005012182 0.0011208476 1.8940502e-05 -8.8802035e-06 0.00039865568
-4.0706942e-05 -0.00015247548 -2.1250398e-05 -0.00029945283 -0.00015903432 -0.00018459791 -4.192835e-05 -9.5604235e-05
-0.00024337217 -0.0003634086 -1.3505425e-05 -9.5555835e-05 -4.9691327e-05 -0.00012849177 5.628482e-06 -9.069423e-05
-2.377692e-05 -0.00011265093 -0.00020453912 -0.0002613449 -7.496988e-05 -0.00024646454 -0.00021875178 -6.0851024e-05
-3.725618e-05 -0.00014404795 -0.00024107889 -5.5735403e-05 -0.00016517914 -1.9922027e-05 -5.1957908e-05 -0.00022537068
-3.9990973e-05 -1.2479797e-05 -5.04668e-05 -3.1790885e-05 -0.00026077632 -3.4025117e-05 -3.5147368e-05 -0.00017841796
-0.0001225249 -4.1424253e-05 -0.00024094136 -0.00017466949 -0.00032502157 -0.00010485421 -0.00018605392 -0.00048847066
00000000: f857 d5b7 30c2 003a f214 1db8 2ed9 b33a
00000010: de49 063a 1ee2 3e3a 9ac6 5638 79cb b239
00000020: 1dae 563a 70c2 c93a 5e00 0ab8 ed5c 8d39
00000030: a311 7fb7 b3b1 e839 eb60 62b7 7847 9e39
00000040: 4a9a 0ab7 4d56 cc39 b7b2 633a dff2 9f3a
00000050: 0ab9 67b8 975b 8c3a 4ea9 723a 3a60 0fb8
00000060: 5c17 9eb7 2cd7 db39 61f6 823a 6fa4 4f39
00000070: 4ee6 203a 112f 5fb8 8e2e 0739 ce0c 693a
00000080: 77b1 bfb7 1bbb 19b7 05a3 9238 cda9 9bb7
00000090: 11ab 673a 7d30 e2b4 5eb4 1938 5156 513a
000000a0: 5e64 ca39 1b4e 9d38 9e81 813a 1bef 083a
000000b0: 0284 c13a 0567 013a 7cf7 4d3a 437a 053b
000000c0: f06e c039 94f2 b73a 7afa 9739 c799 72b7
000000d0: 7d31 7c3a 9b82 e639 53ba cf38 b1cc 883a
000000e0: 845e 343a 243a 9139 5d09 9b3a 0d4b 313a
000000f0: 89d5 2637 513f 853a b723 503a 3ad0 573a
00000100: 080d 363a 22d5 2b3a b3d7 9cb7 2dc1 373a
00000110: f2dd e9b7 2b7a 18b8 d3b5 053a 1c24 a43a
00000120: ba7e 0d3a 42d5 a938 63ed c03a 4902 6039
00000130: ded1 28b8 2817 f439 1b51 a139 5653 963a
00000140: 13d9 7d3a ebec a939 2e4d 70b8 8e1a 483a
00000150: 2f63 6b39 2027 533a 702e 253a 862d 2b3a
00000160: e90d 7239 32fd 3539 d5ca 9139 cf76 e3b7
00000170: 0ea9 a3b7 67e0 b339 09d6 22b7 e72c 8d39
00000180: 59c9 6a3a 3a59 7f36 07fe 80b7 7d86 d539
00000190: ca8c 723a 1cc2 0c36 a32d 68b8 472a bd39
000001a0: 066a 27b7 1056 1f3a 6828 34b7 a761 dc3a
000001b0: b751 2d3a 7274 7e3a d2f6 a838 b065 d239
000001c0: 577c 853a 4ae9 f03a fccd f1b7 8577 d339
000001d0: 44e1 8536 2997 183a 22eb b736 4c1a ba39
000001e0: 607b 9e37 02e6 f939 cfa0 8b3a d424 be3a
000001f0: 0eb4 68b8 b4a0 a43a 6945 963a 3a00 14b8
00000200: bb15 2eb7 8870 073a 0d18 9d3a 2ff4 8939
00000210: 99d5 443a 0f6c e4b7 5e22 f038 7665 963a
00000220: 2947 0f38 1c6c 5937 bd4f d838 c689 81b7
00000230: 92ab 8e3a 627e 7838 cf2d 5738 f82d 783a
00000240: f369 003a ccb9 b138 36f8 a13a e409 363a
00000250: 4649 e63a 2d75 313a 9372 703a da15 213b
00000260: c762 e339 ea6f d83a 2573 ae39 3257 bc38
00000270: 1780 9b3a c4af 133a 6ca1 4139 84c3 aa3a
00000280: b22c 5e3a a6ef c939 7d21 be3a 92db 563a
00000290: bc87 bdb7 245f a33a 6f84 803a 0bdd 813a
000002a0: aa96 533a 38fb 503a 05ef 86b6 b628 6b3a
000002b0: 38d8 cb36 c04c 3d37 015c 253a fab1 c63a
000002c0: e1cb 4c3a f4a1 ff38 a9fb e93a 7ba7 9939
000002d0: cefc 16b8 ff88 063a 7b69 e239 421e b03a
000002e0: 8e49 973a 4358 e839 cac0 a9b8 b68c 803a
000002f0: d974 9a39 804b 833a 125b 4d3a 268b 533a
00000300: 48f0 ab39 819e 8839 5607 bb39 cbc4 1838
00000310: 8614 4437 73b8 f839 5e22 66b7 d8ff c739
00000320: d089 8b3a 6218 ca37 5578 ae37 2f64 033a
00000330: 68e9 923a 6be2 9e37 2ffc 14b7 a902 d139
00000340: bfbc 2ab8 d3e1 1fb9 e242 b2b7 e1ff 9cb9
00000350: 73c2 26b9 a090 41b9 39dc 2fb8 227f c8b8
00000360: b831 7fb9 e087 beb9 5c95 62b7 2665 c8b8
00000370: a86b 50b8 bfbb 06b9 4bdc bc36 1833 beb8
00000380: 8c74 c7b7 023f ecb8 8d79 56b9 1e05 89b9
00000390: 2639 9db8 e937 81b9 bc60 65b9 4a3a 7fb8
000003a0: 8543 1cb8 940b 17b9 1fca 7cb9 6fc5 69b8
000003b0: f033 2db9 3a1e a7b7 61ed 59b8 7b51 6cb9
000003c0: fbbb 27b8 5260 51b7 50ac 53b8 3457 05b8
000003d0: ceb8 88b9 31b6 0eb8 336b 13b8 b515 3bb9
000003e0: 077a 00b9 f4be 2db8 34a5 7cb9 7c27 37b9
000003f0: a867 aab9 2de5 dbb8 7817 43b9 b60c 00ba
