models/best_AudioNet2.pth (torch, 630831 bytes, 18 tensors)

fc1.weight f4 [128, 256]
0.032215707 0.04044347 0.012160537 0.043531135 0.08220231 0.0005326033 0.0058159493 -0.03353719
-0.018403094 -0.06836445 0.12690738 -0.021062788 0.12602356 0.032872774 -0.030298159 0.18519165
-0.122793 -0.0005419363 0.061945766 -0.19781107 0.07539816 0.042869817 0.083832614 0.07760153
0.036278598 -0.087187976 0.0114606125 0.07605541 0.11229881 0.37056568 -0.08872795 0.040613897
0.15524447 -0.102892965 0.07559719 0.087828204 -0.06254177 -0.061320037 0.23319443 0.11337656
-0.045277897 0.09638645 0.055180646 0.23911777 0.05375957 0.09193188 -0.0818742 0.013085178
-0.1305399 -0.23360467 -0.042588044 0.025002856 -0.066212006 0.07610128 0.10448412 0.0427727
-0.12884903 -0.022226166 -0.09775005 -0.26270148 -0.031830642 -0.019395353 0.14200123 -0.063031465
-0.0034903686 -0.010342117 0.00207674 0.1061804 -0.008946707 0.036929265 0.06986424 0.0066619855
-0.12520562 0.033547856 0.083091184 0.017361356 -0.0434795 -0.13888024 0.11978601 0.065967984
0.053266935 -0.031461194 -0.022396717 0.01835281 0.11288663 0.039102785 -0.084839076 0.13370049
0.0933523 -0.048145764 0.0029236185 0.25428358 -0.0333307 -0.124510065 0.185898 -0.10832938
-0.027074344 -0.16668618 -0.17413677 0.018666044 -0.295441 0.032070924 -0.089483626 0.016337916
-0.28274623 -0.029366272 -0.11799788 0.021596463 0.021308823 0.076355025 0.011696766 0.0948488
0.085441284 -0.1643546 -0.058794092 0.043973353 -0.14207913 0.18434466 -0.13215467 -0.070387624
-0.15250327 0.13569148 0.009023868 0.010491585 0.09394935 -0.0019183067 0.11625338 -0.101790704
-0.012185211 -0.035836656 -0.06381853 -0.013390347 0.07213506 0.0077401013 -0.06562709 0.05971289
-0.059785485 -0.0698784 0.22905275 -0.12014205 0.023125062 0.063897 0.07770477 0.23303019
-0.14089465 -0.0069498536 0.053442013 -0.18832064 0.13159028 0.028357562 -0.014701252 0.04962022
0.15688431 -0.101150185 0.03298525 0.14698397 0.09780642 0.28156817 -0.06032286 -0.011667
0.10675309 -0.10701459 0.11862644 0.0066291085 -0.0050162366 -0.0202975 0.14092162 0.04800212
-0.039152827 0.1745763 0.015774224 0.13744144 0.09104717 0.07803822 -0.05859782 -0.018674647
-0.11749967 -0.16226165 -0.043303933 0.046489857 0.04079178 0.12828568 0.14246604 0.0004028233
-0.07297692 0.07666797 -0.063761406 -0.25381443 -0.02354974 -0.13208814 0.19209133 0.046110213
-0.036972873 -0.025862226 -0.082503825 0.023548696 -0.07388382 -0.06084688 0.07502115 0.018617226
-0.098443665 0.0458061 0.12082487 0.05183885 -0.05800433 -0.160707 0.13190779 0.033376105
-0.044295065 0.08649932 0.033833988 0.049780503 0.08455047 0.012352032 -0.05241923 0.13959983
-0.10584605 -0.025018558 -0.16145727 0.05298548 0.0062147384 -0.11849228 0.15568472 -0.035387106
-0.06570771 -0.2126879 -0.31556952 0.04789354 -0.1834538 0.015653454 -0.017899744 -0.045372646
-0.33725962 -0.08919008 -0.055370685 -0.021698633 0.03588885 0.054125242 0.11034243 0.09677565
0.08902738 -0.025484316 0.023188865 0.050264373 -0.11767234 0.11525673 -0.12051231 -0.09206992
-0.155043 0.055746846 0.0659203 0.048531752 0.10395995 -0.061716843 0.15865614 -0.04874964
00000000: 9ef4 033d 0da8 253d fd3c 473c b44d 323d
00000010: af59 a83d 679e 0b3a b893 be3b 4b5e 09bd
00000020: 16c2 96bc a902 8cbd 02f4 013e de8b acbc
00000030: 520c 013e 9aa5 063d d833 f8bc e1a2 3d3e
00000040: e57a fbbd bb10 0eba d8ba 7d3d fc8e 4abe
00000050: 5a6a 9a3d 4398 2f3d 6fb0 ab3d 8ded 9e3d
00000060: de98 143d 9c8f b2bd 4bc5 3b3c f0c2 9b3d
00000070: ebfc e53d c9ba bd3e 00b7 b5bd c25a 263d
00000080: 68f8 1e3e 8cb9 d2bd b3d2 9a3d 46df b33d
00000090: e615 80bd b82a 7bbd 85ca 6e3e f831 e83d
000000a0: 5175 39bd 4266 c53d 1a05 623d 4adb 743e
000000b0: ff32 5c3d c846 bc3d a9ad a7bd 3763 563c
000000c0: 40ac 05be 1036 6fbe cd70 2ebd cad2 cc3c
000000d0: 299a 87bd fdda 9b3d c5fb d53d 6d32 2f3d
000000e0: 00f1 03be a613 b6bc 2e31 c8bd cf80 86be
000000f0: d960 02bd 01e3 9ebc c568 113e a416 81bd
00000100: abbe 64bb fc71 29bc ea19 083b 1c75 d93d
00000110: 3595 12bc 2443 173d fc14 8f3d c94c da3b
00000120: e735 00be 7a69 093d b62b aa3d 6739 8e3c
00000130: 8f17 32bd 9f36 0ebe 5e52 f53d 391a 873d
00000140: 6e2e 5a3d 74dd 00bd 5279 b7bc a258 963c
00000150: 1b31 e73d 3e2a 203d 1cc0 adbd c8e8 083e
00000160: 7e2f bf3d 7e34 45bd 2e9a 3f3b 7531 823e
00000170: c685 08bd 22ff febd 0c5c 3e3e cbdb ddbd
00000180: 04cb ddbc c8af 2abe e950 32be 88e9 983c
00000190: 0b44 97be cd5c 033d 3143 b7bd 18d7 853c
000001a0: 1dc4 90be 8991 f0bc dfa8 f1bd 11eb b03c
000001b0: d78f ae3c 0660 9c3d cba3 3f3c 1640 c23d
000001c0: d7fb ae3d 924c 28be 13d2 70bd 671d 343d
000001d0: 317d 11be d9c4 3c3e 8e53 07be 6327 90bd
000001e0: d129 1cbe b5f2 0a3e d8d8 133c e6e4 2b3c
000001f0: 8468 c03d b16f fbba 4116 ee3d a577 d0bd
00000200: 7ba4 47bc 75c9 12bd 4ab3 82bd 3063 5bbc
00000210: 8cbb 933d ada0 fd3b 7f67 86bd 8195 743d
00000220: a0e1 74bd 681c 8fbd ce8c 6a3e 090d f6bd
00000230: c570 bd3c 6edc 823d ae23 9f3d 779f 6e3e
00000240: b046 10be 99bb e3bb 03e6 5a3d 20d7 40be
00000250: 9abf 063e 1e4e e83c 85dd 70bc 923e 4b3d
00000260: 48a6 203e d427 cfbd 8b1b 073d f782 163e
00000270: bb4e c83d b429 903e 1a15 77bd f226 3fbc
00000280: 5da1 da3d 772a dbbd 6bf2 f23d fe38 d93b
00000290: 3e5f a4bb f146 a6bc c24d 103e df9d 443d
000002a0: b75e 20bd 21c4 323e f238 813c 73bd 0c3e
000002b0: f076 ba3d 81d2 9f3d 4504 70bd 93fb 98bc
000002c0: aba3 f0bd eb27 26be 775f 31bd 266c 3e3d
000002d0: 4815 273d 525d 033e 9ee2 113e 0732 d339
000002e0: ec74 95bd 1904 9d3d 5795 82bd f7f3 81be
000002f0: 62eb c0bc 1d42 07be 97b3 443e 10de 3c3d
00000300: de70 17bd 05dd d3bc c4f7 a8bd 32e9 c03c
00000310: 6650 97bd 943a 79bd b0a4 993d 2783 983c
00000320: d59c c9bd 2d9f 3b3d 0873 f73d f954 543d
00000330: f395 6dbd 6090 24be d612 073e 62b5 083d
00000340: be6e 35bd 8e26 b13d 8295 0a3d a4e6 4b3d
00000350: cc28 ad3d 2d60 4a3c 8cb5 56bd 42f3 0e3e
00000360: d0c5 d8bd b8f3 ccbc 0e55 25be 4d07 593d
00000370: 01a5 cb3b 15ac f2bd d16b 1f3e 12f2 10bd
00000380: c491 86bd dbca 59be 5492 a1be 042c 443d
00000390: 50db 3bbe ac3b 803c 7ca2 92bc abd8 39bd
000003a0: 4bad acbe 4aa9 b6bd 5fcc 62bd 55c1 b1bc
000003b0: 3000 133d 6eb2 5d3d 36fb e13d 5032 c63d
000003c0: fd53 b63d 7cc4 d0bc 93f6 bd3c 04e2 4d3d
000003d0: 32fe f0bd b80b ec3d 28cf f6bd 278f bcbd
000003e0: 98c3 1ebe ce56 643d 3901 873d 3bc9 463d
000003f0: f4e8 d43d cdca 7cbd c176 223e b4ad 47bd

fc1.bias f4 [128]
0.058445383 0.047081053 -0.031739444 0.09133266 0.06841269 -0.014024243 0.055141907 0.10584925
0.112503484 -0.03115245 0.035155844 0.013676973 0.14522038 -0.06514018 0.030459758 0.084016085
0.042638764 -0.037406713 -0.034362495 0.04871415 0.072601125 -0.010234718 0.0014386545 -0.045672547
0.0046959044 0.024370316 0.013085878 0.020087752 0.096749015 0.13490203 0.055140257 0.006092204
-0.023155332 0.09221235 -0.012881977 0.035864584 0.10659073 -0.015901782 -0.061832402 0.12954044
-0.03877997 -0.06421338 -0.011691228 -0.01204654 -0.030418525 0.010139054 -0.018908268 0.07205795
0.0817734 -0.00043708837 0.13190173 -0.05923755 -0.018843055 -0.03036601 0.018337728 0.017867368
-0.033952326 0.027793895 0.049925137 0.080788694 -0.001559528 0.059534222 0.13189419 0.09727885
0.1026915 0.056152858 0.076477356 -0.09244257 0.033918492 0.08649821 0.0028109432 -0.045846265
0.05452815 -0.076648265 0.09046958 -0.03809474 0.0915874 0.07260705 -0.030297102 -0.0010395901
0.02538999 -0.040800408 0.1449764 0.04321173 -0.02935624 0.05444103 -0.038511865 -0.002007262
-0.022671307 0.02229885 0.06326286 -0.027858585 0.09249901 0.025626186 0.08957165 -0.042958118
-0.018573519 0.040761262 0.036459208 0.06207139 0.030821698 -0.007498693 -0.06921283 -0.018877754
0.012823042 0.030137775 0.1139779 0.09207467 -0.008886074 -0.040498532 -0.012876188 0.047300763
-0.0046636695 0.030010859 -0.0154374065 -0.017560871 0.13558218 0.010581732 0.09046069 -0.042331006
0.04094673 -0.093472876 0.041230813 0.09542014 -0.008431589 0.17724572 0.11529476 0.022048807
00000000: 6d64 6f3d 10d8 403d 3801 02bd 9e0c bb3d
00000010: f41b 8c3d f0c5 65bc 7bdc 613d 7ec7 d83d
00000020: 3a68 e63d 6c33 ffbc 93ff 0f3d 6215 603c
00000030: a7b4 143e 3768 85bd be86 f93c a010 ac3d
00000040: fca5 2e3d c837 19bd b0bf 0cbd 7d88 473d
00000050: e6af 943d 85af 27bc 3c91 bc3a 2313 3bbd
00000060: 1ae0 993b 42a4 c73c 2766 563c 128f a43c
00000070: 5924 c63d c223 0a3e c0da 613d 1ca1 c73b
00000080: 40b0 bdbc d4d9 bc3d ed0e 53bc bee6 123d
00000090: 3e4c da3d 7444 82bc f943 7dbd 40a6 043e
000000a0: bfd7 1ebd 4e82 83bd 908c 3fbc da5e 45bc
000000b0: 4530 f9bc 461e 263c 83e5 9abc 1e93 933d
000000c0: d078 a73d 0229 e5b9 3f11 073e 13a3 72bd
000000d0: c05c 9abc 23c2 f8bc 0139 963c 965e 923c
000000e0: 9811 0bbd 06b0 e33c 4d7e 4c3d 8b74 a53d
000000f0: 1469 ccba 28da 733d 450f 073e 223a c73d
00000100: ec4f d23d 8a00 663d 29a0 9c3d 8852 bdbd
00000110: 1eee 0a3d f925 b13d cd37 383b 4bc9 3bbd
00000120: e958 5f3d c4f9 9cbd 1d48 b93d 3b09 1cbd
00000130: 2d92 bb3d 01b3 943d a131 f8bc db42 88ba
00000140: abfe cf3c 541e 27bd b274 143e c8fe 303d
00000150: 7f7c f0bc 8ffd 5e3d 9ebe 1dbd 458c 03bb
00000160: 2db9 b9bc 14ac b63c f58f 813d b037 e4bc
00000170: 1f70 bd3d 02ee d13c 5771 b73d daf4 2fbd
00000180: 7e27 98bc 48f5 263d 4056 153d 923e 7e3d
00000190: c97d fc3c 99b7 f5bb 75bf 8dbd 85a5 9abc
000001a0: bd17 523c 7fe3 f63c 3f6d e93d a591 bc3d
000001b0: e596 11bc cae1 25bd a6f6 52bc 72be 413d
000001c0: b2d1 98bb 55d9 f53c 2ded 7cbc d1db 8fbc
000001d0: 0ed6 0a3e 005f 2d3c 7443 b93d 4763 2dbd
000001e0: c2b7 273d b56e bfbd a4e1 283d a26b c33d
000001f0: a624 0abc e77f 353e a91f ec3d b39f b43c

fc2.weight f4 [128, 128]
0.15454873 0.13667919 0.038982 0.12043714 0.0050498364 -0.117531285 0.042265255 0.06298615
0.20639941 -0.0018409329 -0.11781504 -0.113557264 0.005196447 0.06755884 -0.12264244 0.14382002
-0.06614567 -0.08243941 0.06694102 0.07584729 0.05685756 -0.1376807 -0.043766838 -0.07380087
0.041164048 0.116785385 0.12375973 -0.10034757 0.057186026 0.10944053 0.014001819 0.038214106
-0.11159857 0.043945633 -0.16343267 -0.056295503 0.17356205 0.075069115 -0.11186913 0.18615167
0.020494772 0.011515557 -0.06424432 0.039291408 -0.10914218 0.1614597 -0.07148635 -0.058814917
0.24452002 -0.20224862 0.008375379 -0.14424227 -0.005474532 0.08814694 0.06112142 -0.052288182
0.01686757 -0.031442158 -0.027496459 -0.031740878 0.0049861223 -0.08568551 0.07331582 0.077528976
0.15149586 -0.030049335 0.1473541 0.07766041 0.07459731 0.053086493 -0.041791774 -0.11939363
0.03842138 -0.22539124 -0.1012118 -0.0887613 0.11364801 -0.043346103 -0.16067167 -0.2497958
0.15590839 -0.13574004 0.24105352 -0.15271124 -0.009014171 0.14312093 -0.07090198 -0.0050118896
-0.05397641 -0.05016155 0.011726246 0.07159075 0.0706253 0.074999385 0.023120001 -0.0040293825
-0.094700865 -0.02830469 -0.124751374 0.12113303 0.031191846 0.09302976 0.015565851 0.06243573
0.030224025 0.13800322 0.0102570895 -0.088231884 0.048832748 0.01668072 0.020792468 -0.16506417
-0.026329884 0.21307468 -0.035116997 -0.12485607 -0.058391962 -0.12917325 -0.15051025 0.054268267
-0.013125703 -0.09288589 -0.08055617 0.2639898 -0.038497202 -0.057840392 0.049753863 -0.08742976
-0.03343687 -0.07137031 -0.015917148 0.01214406 -0.01566617 0.06671082 -0.04658831 0.005460463
-0.047097355 -0.003256393 -0.06722351 -0.078904346 -0.06922587 -0.07874261 0.04578205 -0.06557892
-0.06981944 -0.023896782 -0.019653201 -0.012945619 0.037366834 0.003514167 -0.012257786 -0.08617246
-0.071267605 0.05051377 -0.046376802 0.04658263 0.02611757 -0.0039689783 0.06474368 -0.045282718
-0.07326547 0.044227995 0.029838925 -0.032103144 0.059146922 -0.045466 0.07268629 -0.056899726
0.010460656 -0.051715754 0.0101672625 0.053064182 -0.05926755 0.06670243 0.042824306 -0.035269607
0.005197408 0.0204301 -0.101163544 -0.08723824 0.043237403 -0.001653536 -0.05508986 0.07524847
0.08374569 -0.083421506 0.07246411 -0.079636775 -0.022577025 0.03891164 0.008820599 -0.06215219
-0.049492944 -0.044332378 0.028237754 -0.030165648 -0.08789908 0.024015155 -0.021010274 0.0670407
-0.064345695 -0.041130815 -0.058806792 -0.06894525 0.029918795 -0.07429871 0.05046799 -0.05024787
-0.077177785 0.009855035 0.018207883 -0.035201885 -0.026767919 -0.033377152 -0.043398947 0.018550526
0.021268794 -0.0156154 0.025378691 -0.07742305 0.049350556 0.032791678 -0.094806604 -0.02636398
-0.0960199 0.015369367 -0.0659207 -0.029850138 -0.03711303 0.07053372 0.06817835 -0.06511254
0.0047624963 0.073088214 0.077194184 0.061050724 -0.018116906 -0.012880876 0.046361428 -0.07845592
-0.0908425 -0.034913845 -0.0752025 0.027773378 -0.0054570297 -0.041394718 0.044197895 0.02484673
0.032158006 -0.055355225 -0.06797273 0.015471761 0.060620613 -0.004548803 -0.0679981 -0.07261832
00000000: 0642 1e3e a1f5 0b3e 97ab 1f3d bfa7 f63d
00000010: 1979 a53b 3eb4 f0bd 551e 2d3d e2fe 803d
00000020: 5e5a 533e 754b f1ba 0349 f1bd b690 e8bd
00000030: f546 aa3b 4a5c 8a3d f62b fbbd 8e45 133e
00000040: 6277 87bd fed5 a8bd 6018 893d d355 9b3d
00000050: 79e3 683d 2bfc 0cbe db44 33bd e924 97bd
00000060: a29b 283d 2d2d ef3d be75 fd3d 0783 cdbd
00000070: e53b 6a3d 5b22 e03d e367 653c 6586 1c3d
00000080: cb8d e4bd 5600 343d e55a 27be 1d96 66bd
00000090: 40ba 313e d6bd 993d a41b e5bd 8b9e 3e3e
000000a0: a7e4 a73c bfab 3c3c 8792 83bd 07f0 203d
000000b0: ef85 dfbd b155 253e 6f67 92bd e9e7 70bd
000000c0: 7563 7a3e 431a 4fbe e338 093c 3fb4 13be
000000d0: b463 b3bb 6286 b43d 745a 7a3d 222c 56bd
000000e0: dc2d 8a3c 7ec9 00bd 4140 e1bc b902 02bd
000000f0: a062 a33b e27b afbd 9b26 963d 83c7 9e3d
00000100: bb21 1b3e 062a f6bc fee3 163e 6c0c 9f3d
00000110: 79c6 983d 3971 593d da2d 2bbd a684 f4bd
00000120: bd5f 1d3d f6cc 66be 2248 cfbd 7cc8 b5bd
00000130: 4ac0 e83d af8b 31bd 1d87 24be 78ca 7fbe
00000140: 73a6 1f3e 70ff 0abe bcd6 763e 5660 1cbe
00000150: 2cb0 13bc 4b8e 123e 0f35 91bd c73a a4bb
00000160: 5e16 5dbd 3376 4dbd 711f 403c 2c9e 923d
00000170: ffa3 903d 4799 993d 2866 bd3c e908 84bb
00000180: 87f2 c1bd 3ddf e7bc a67d ffbd 9814 f83d
00000190: 0b86 ff3c 6386 be3d e907 7f3c 9cbc 7f3d
000001a0: 6098 f73c b750 0d3e 5a0d 283c ebb2 b4bd
000001b0: d904 483d 01a6 883c f754 aa3c 9506 29be
000001c0: c5b1 d7bc 4030 5a3e d7d6 0fbd 8ab4 ffbd
000001d0: 692c 6fbd fe45 04be 5c1f 1abe 6748 5e3d
000001e0: 300d 57bc f53a bebd a2fa a4bd ac29 873e
000001f0: 3eaf 1dbd 0cea 6cbd b5ca 4b3d 600e b3bd
00000200: 19f5 08bd 992a 92bd ae64 82bc e1f7 463c
00000210: 5756 80bc af9f 883d 62d3 3ebd afed b23b
00000220: 28e9 40bd 3569 55bb 7bac 89bd 9a98 a1bd
00000230: 4bc6 8dbd ce43 a1bd f585 3b3d 3e4e 86bd
00000240: 7ffd 8ebd 2fc3 c3bc c0ff a0bc dd19 54bc
00000250: f70d 193d f04d 663b e1d4 48bc 307b b0bd
00000260: c0f4 91bd 87e7 4e3d 9af5 3dbd 6ecd 3e3d
00000270: 84f4 d53c 340e 82bb 5698 843d 5f7a 39bd
00000280: 350c 96bd 6a28 353d c370 f43c 967e 03bd
00000290: 0b44 723d 8e3a 3abd 8ddc 943d b00f 69bd
000002a0: 2c63 2b3c e6d3 53bd 9794 263c d459 593d
000002b0: 88c2 72bd 499b 883d 8a68 2f3d dd76 10bd
000002c0: 054f aa3b 065d a73c d52e cfbd f6a9 b2bd
000002d0: b419 313d 76bb d8ba e8a5 61bd df1b 9a3d
000002e0: dc82 ab3d e5d8 aabd 1068 943d 9b18 a3bd
000002f0: 74f3 b8bc d061 1f3d 4684 103c 4b93 7ebd
00000300: 1db9 4abd de95 35bd dd52 e73c f31d f7bc
00000310: 6f04 b4bd 6ebb c43c bd1d acbc a24c 893d
00000320: adc7 83bd c978 28bd 64df 70bd 2b33 8dbd
00000330: 4318 f53c ec29 98bd 86b7 4e3d b6d0 4dbd
00000340: 630f 9ebd 0377 213c b328 953c da2f 10bd
00000350: 6548 dbbc 7bb6 08bd 18c3 31bd 46f7 973c
00000360: e53b ae3c bcd7 7fbc f9e6 cf3c fa8f 9ebd
00000370: cf23 4a3d 9150 063d f729 c2bd 46f9 d7bc
00000380: 15a6 c4bd cccf 7b3c 6f01 87bd 4788 f4bc
00000390: d503 18bd fc73 903d 17a1 8b3d b959 85bd
000003a0: b70e 9c3b 46af 953d fc17 9e3d 5310 7a3d
000003b0: e869 94bc 4f0a 53bc 7be5 3d3d 7fad a0bd
000003c0: a20b babd d201 0fbd c503 9abd ff84 e33c
000003d0: e2d0 b2bb 828d 29bd da08 353d 5f8b cb3c
000003e0: 1db8 033d 29bc 62bd 4935 8bbd 457d 7d3c
000003f0: 524d 783d 200e 95bb 9642 8bbd eab8 94bd

fc2.bias f4 [128]
0.09424426 -0.05802456 0.06454809 0.019035406 -0.005072707 -0.026483001 -0.07123477 0.019842632
0.030752163 0.05275462 -0.064039 0.13290535 -0.050111037 -0.025986051 -0.07555308 0.010021453
-0.036776677 -0.024617694 0.028545665 0.029920228 0.11397496 0.00785809 -0.004545549 -0.09299617
-0.04197742 -0.014178594 0.019661099 -0.020471862 0.097143695 0.092335664 0.045138482 -0.0023273735
-0.048952967 0.04938076 -0.060089454 0.11584179 0.020758519 0.000684028 -0.01375658 0.09813814
0.04762279 0.06322833 0.018584596 -0.03683132 -0.018497799 -0.021974163 0.028796524 -0.036227256
0.0015232932 0.02535838 0.037375864 0.030169798 0.009670293 0.04497389 0.011018009 -0.022018699
0.029379068 0.08683216 0.06940951 0.0372769 -0.0826153 0.09137395 0.10996229 -0.077407
0.005124438 -0.0138910245 0.07614666 0.047676973 0.08547238 -0.048229463 -0.052100528 0.15365693
0.045784574 0.0022582454 0.03191044 0.09253354 0.016771728 -0.023494607 -0.040590774 0.0024977122
-0.028501384 0.10241024 -0.0501868 -0.05673933 0.009567458 0.10039742 -0.053951446 0.060452156
-0.046354182 0.0109144645 0.049372755 -0.044608627 -0.018371325 0.1111826 -0.000953786 0.069979765
-0.02770025 0.027740961 0.08277457 0.12733631 0.07836015 -0.062446404 0.091579676 0.008068635
-0.0631362 0.06541459 0.022888213 -0.0142955715 0.059476618 0.086167224 0.10333957 0.09760463
0.031669643 0.048041064 -0.06341118 -0.035803195 -0.046161078 -0.07824534 0.036834452 -0.030896239
0.09953364 -0.014208148 0.104255185 -0.018978197 -0.05537869 0.095172875 0.059487913 0.07131831
00000000: 2203 c13d 29ab 6dbd ca31 843d 24f0 9b3c
00000010: f338 a6bb e1f2 d8bc 89e3 91bd 048d a23c
00000020: f6eb fb3c 3a15 583d e126 83bd 5718 083e
00000030: 3b41 4dbd b3e0 d4bc 93bb 9abd 0531 243c
00000040: 24a3 16bd 0cab c9bc 99d8 e93c 441b f53c
00000050: b46b e93d 38bf 003c d4f2 94bb c774 bebd
00000060: 84f0 2bbd 554d 68bc 5010 a13c 9bb4 a7bc
00000070: 46f3 c63d 7b1a bd3d 21e3 383d d986 18bb
00000080: e882 48bd 7b43 4a3d 5c20 76bd 763e ed3d
00000090: c50d aa3c 5850 333a 4763 61bc a6fc c83d
000000a0: 1d10 433d db7d 813d b93e 983c 70dc 16bd
000000b0: b288 97bc 2903 b4bc b0e6 eb3c 0863 14bd
000000c0: 3da9 c73a 61bc cf3c 6f17 193d a726 f73c
000000d0: 2670 1e3c 8b36 383d e184 343c 8f60 b4bc
000000e0: 5fac f03c 0fd5 b13d 9326 8e3d aaaf 183d
000000f0: 3632 a9bd 4422 bb3d e933 e13d 9087 9ebd
00000100: e7ea a73b 2e97 63bc c8f2 9b3d ee48 433d
00000110: 250c af3d 428c 45bd 5d67 55bd 3e58 1d3e
00000120: 9b88 3b3d 12ff 133b 86b4 023d 3a82 bd3d
00000130: dd64 893c c377 c0bc 8342 26bd a8b0 233b
00000140: bc7b e9bc 76bc d13d ad90 4dbd 8067 68bd
00000150: d4c0 1c3c 2a9d cd3d 31fc 5cbd ae9c 773d
00000160: e2dd 3dbd 95d2 323c 163b 4a3d 89b7 36bd
00000170: 767f 96bc b4b3 e33d 7f07 7aba 8d51 8f3d
00000180: a2eb e2bc 0341 e33c b785 a93d 7364 023e
00000190: 497b a03d cdc7 7fbd 208e bb3d 4f32 043c
000001a0: 8d4d 81bd 16f8 853d 1080 bb3c f937 6abc
000001b0: c19d 733d 7178 b03d b2a3 d33d f0e4 c73d
000001c0: 07b8 013d b5c6 443d b9dd 81bd 5fa6 12bd
000001d0: 6613 3dbd 183f a0bd b9df 163d 1c1a fdbc
000001e0: 4bd8 cb3d 4bc9 68bc be83 d53d 2a78 9bbc
000001f0: c4d4 62bd ffe9 c23d 99a9 733d 560f 923d

fc3.weight f4 [21, 128]
-0.2287002 0.0143074775 -0.08718256 0.035484128 -0.016613377 -0.037199304 -0.02845873 -0.18928708
-0.023140851 -0.09865128 0.00068853574 -0.035255697 -0.06465357 0.12288653 -0.081551 0.014183149
-0.16178082 -0.07393713 -0.030226694 -0.11783078 -0.10412916 0.04787998 -0.16147688 -0.031462785
-0.110499814 0.021351667 0.0028167116 -0.018075714 -0.11409715 -0.0924045 -0.15613055 -0.06830259
-0.13762142 0.009713945 0.038726278 -0.070502646 -0.022905711 0.006089582 -0.06083868 -0.24690184
-0.16409916 -0.07219801 -0.06081114 0.074917294 -0.09019201 -0.07611004 -0.12466878 0.002483671
0.011299409 -0.0073493654 0.06559497 -0.08490523 -0.14054309 -0.19247702 -0.032944746 0.012373304
-0.1480314 -0.07582191 -0.14264175 -0.08143426 -0.20804185 -0.08096228 -0.054615155 -0.044494458
0.008476705 -0.05785495 -0.20247802 -0.10255235 -0.15850072 0.043288797 -0.09830076 -0.055856936
-0.058358848 -0.03738081 -0.08057802 -0.089873224 -0.11681445 0.05406358 0.023987701 -0.23209783
-0.04549808 -0.15786694 0.11794727 0.09106235 -0.120293744 -0.060182337 0.011873279 -0.060388014
-0.37403542 0.0002851563 -0.24495783 -0.12138683 -0.1293032 -0.11936089 -0.10521992 -0.1531916
-0.09575388 -0.045143336 -0.01921297 -0.26667047 -0.20879233 0.019795265 0.09771817 -0.11033876
-0.13030416 -0.049632773 -0.0068737343 -0.2625475 -0.03323679 -0.071370944 -0.09432288 -0.2875613
0.01968681 0.0127312895 -0.07697916 0.027891155 -0.20084484 0.08226117 -0.098409794 -0.13198347
-0.044604253 -0.027675813 -0.25957745 -0.17935602 0.012741089 -0.019235615 -0.09046903 -0.2235364
-0.05726346 -0.084679656 -0.09120125 0.0026832167 -0.055846777 -0.10680431 -0.045230318 -0.13706903
-0.03557146 0.049289886 -0.119729966 -0.036941916 -0.033171758 -0.06000206 0.06886907 -0.3051573
-0.20077771 0.03324406 -0.15288016 -0.24667229 0.023267569 -0.19925097 -0.059628014 -0.03539102
-0.2677092 0.05265516 -0.21196574 -0.21327582 0.1122415 -0.08464738 0.01421056 0.073165074
-0.12495105 0.026027843 0.0006394785 -0.050154462 -0.15230358 -0.018512208 -0.048475314 0.104890674
-0.25474456 -0.15518491 -0.15700264 -0.009842749 -0.03318083 -0.1288927 0.023135114 0.036390506
-0.058054995 -0.003206075 -0.118538156 -0.01934767 -0.17454478 -0.0410143 0.070242286 0.032339282
0.048790935 -0.03137574 -0.1521141 0.016531177 0.01856555 -0.2689021 -0.1084927 -0.115750276
0.01685182 -0.12930313 -0.064124614 0.028084116 -0.10039914 -0.08415329 -0.040290844 -0.04749292
0.044660706 -0.00038129548 0.007635842 -0.0066413726 0.045886666 0.01247035 -0.13755967 -0.20686825
-0.1848187 -0.23958072 -0.13176702 -0.22232829 -0.032410126 -0.21821697 -0.119378544 0.031209353
-0.025294079 -0.14532936 -0.08003672 0.010238156 0.0067550116 -0.15857781 -0.2040974 0.07355581
-0.008406175 -0.072680555 0.085183315 -0.05085541 -0.11779021 -0.268081 -0.0440847 0.034044486
-0.11973106 0.0057504415 -0.02973127 -0.058474094 0.041220203 0.029179731 -0.009936142 -0.17383331
-0.06021771 -0.18099703 -0.10817176 -0.0952456 -0.12783939 -0.034401417 -0.036409922 -0.016097514
-0.15046714 -0.12688902 -0.16855176 -0.28524497 -0.030101242 0.02380143 -0.16711415 -0.14508629
00000000: 6330 6abe e969 6a3c c58c b2bd ce57 113d
00000010: c718 88bc 4c5e 18bd 4822 e9bc 79d4 41be
00000020: e291 bdbc af09 cabd da7e 343a 4768 10bd
00000030: 1769 84bd efab fb3d 3604 a7bd 7060 683c
00000040: dfa9 25be 5a6c 97bd f99d f7bc 4451 f1bd
00000050: ab41 d5bd cc1d 443d 325a 25be 1fdf 00bd
00000060: ba4d e2bd b1e9 ae3c 9498 383b 8513 94bc
00000070: c4ab e9bd 923e bdbd b0e0 1fbe 3ae2 8bbd
00000080: a1ec 0cbe 3d27 1f3c 729f 1e3d b163 90bd
00000090: c2a4 bbbc 1e8b c73b fb31 79bd d6d3 7cbe
000000a0: 9c09 28be 8ddc 93bd 1a15 79bd 3d6e 993d
000000b0: 97b6 b8bd 95df 9bbd 5852 ffbd 16c5 223b
000000c0: 2821 393c f2d2 f0bb a856 863d cbe2 adbd
000000d0: 87ea 0fbe b218 45be 12f1 06bd 66b9 4a3c
000000e0: 8b95 17be 8448 9bbd ae10 12be 01c7 a6bd
000000f0: ec08 55be 8dcf a5bd 24b4 5fbd d23f 36bd
00000100: e1e1 0a3c 50f9 6cbd 6656 4fbe f706 d2bd
00000110: 034e 22be 984f 313d e951 c9bd 3eca 64bd
00000120: b009 6fbd 9f1c 19bd 1706 a5bd 740f b8bd
00000130: 6a3c efbd c671 5d3d db81 c43c 0eab 6dbe
00000140: 325c 3abd dfa7 21be 578e f13d e67e ba3d
00000150: 915c f6bd c181 76bd 2488 423c 6c59 77bd
00000160: 9281 bfbe 0881 9539 3ad6 7abe a999 f8bd
00000170: 0f68 04be 7b73 f4bd 8b7d d7bd 42de 1cbe
00000180: 9c1a c4bd 38e8 38bd 8564 9dbc 0889 88be
00000190: a8cd 55be ae29 a23c 7720 c83d 4af9 e1bd
000001a0: 746e 05be bc4b 4bbd 103d e1bb a06c 86be
000001b0: 4d23 08bd ee2a 92bd 5b2c c1bd 3c3b 93be
000001c0: 3c46 a13c e696 503c 40a7 9dbd fe7b e43c
000001d0: 45aa 4dbe 8b78 a83d 138b c9bd ad26 07be
000001e0: f3b2 36bd 63b8 e2bc 56e7 84be 1ba9 37be
000001f0: 00c0 503c 0294 9dbc d447 b9bd bae6 64be
00000200: 178d 6abd 876c adbd b9c7 babd e8d8 2f3b
00000210: 97bf 64bd 38bc dabd 6d43 39bd d35b 0cbe
00000220: 61b3 11bd 31e4 493d fc34 f5bd 6850 17bd
00000230: 1cdf 07bd b8c4 75bd 3a0b 8d3d 943d 9cbe
00000240: ac98 4dbe ec2a 083d 9e8c 1cbe a997 7cbe
00000250: a19b be3c 7208 4cbe 813c 74bd 2df6 10bd
00000260: 2e11 89be f0ac 573d 8c0d 59be fa64 5abe
00000270: dfde e53d 9b5b adbd 69d3 683c 92d7 953d
00000280: 56e6 ffbd 5838 d53c ada2 273a c46e 4dbd
00000290: 78f5 1bbe eaa6 97bc 0d8e 46bd ecd0 d63d
000002a0: e16d 82be cbe8 1ebe 4dc5 20be 7b43 21bc
000002b0: 9fe8 07bd 73fc 03be da85 bd3c 360e 153d
000002c0: 13cb 6dbd 031d 52bb 22c4 f2bd 017f 9ebc
000002d0: debb 32be 9cfe 27bd 30db 8f3d 3276 043d
000002e0: 01d9 473d d983 00bd ccc3 1bbe 646c 873c
000002f0: c816 983c 89ad 89be 6c31 debd 7b0e edbd
00000300: d40c 8a3c 0a68 04be c453 83bd a910 e63c
00000310: 109e cdbd 8f58 acbd 0308 25bd f087 42bd
00000320: 25ee 363d 9de8 c7b9 1636 fa3b df9f d9bb
00000330: a8f3 3b3d 7050 4c3c 71dc 0cbe 45d5 53be
00000340: 1d41 3dbe a654 75be efed 06be 07aa 63be
00000350: 7bc0 04bd 4574 5fbe bd7c f4bd c2aa ff3c
00000360: 8735 cfbc 38d1 14be 4bea a3bd f0bd 273c
00000370: 2559 dd3b 3962 22be e9fe 50be 6ea4 963d
00000380: 0eba 09bc 8bd9 94bd 9774 ae3d c34d 50bd
00000390: fe3b f1bd ea41 89be 2992 34bd 3b72 0b3d
000003a0: 8f35 f5bd 336e bc3b fe8e f3bc 8882 6fbd
000003b0: 84d6 283d 550a ef3c 33cb 22bc 5c01 32be
000003c0: d8a6 76bd 4957 39be 2889 ddbd 2010 c3bd
000003d0: 54e8 02be 80e8 0cbd 9222 15bd efde 83bc
000003e0: 0f14 1abe 32ef 01be d598 2cbe a10b 92be
000003f0: e196 f6bc 37fb c23c f91f 2bbe 8091 14be

fc3.bias f4 [21]
-0.16447672 -0.12553732 -0.19044986 -0.15298425 -0.06291412 -0.020659398 -0.2208094 -0.019859422
-0.12393993 -0.054383747 -0.11301923 -0.13117193 -0.11818592 -0.15943319 -0.009431627 0.0329603
0.008400539 -0.09876632 -0.11792196 -0.12924762 -0.17472175
00000000: 966c 28be db8c 00be 4a05 43be e7a7 1cbe
00000010: 1ed9 80bd e63d a9bc dc1b 62be 3ab0 a2bc
00000020: 38d4 fdbd 7ec1 5ebd a076 e7bd ef51 06be
00000030: 760b f2bd 7442 23be 1c87 1abc 6101 073d
00000040: 6aa2 093c ff45 cabd 1281 f1bd 7d59 04be
00000050: 42ea 32be

exp_avg f4 [128, 256]
-2.5109985e-05 -5.362186e-05 4.4646273e-05 0.0001484323 -7.7206365e-05 -0.00010685785 -1.7167954e-06 0.0002989247
0.000112356436 0.00011333291 -9.618701e-05 0.00010534223 -0.00016974415 -4.8904873e-05 -7.0940325e-05 -2.2262579e-05
-5.3191132e-05 -0.000106057836 0.00018201396 -0.00010278632 1.3063005e-05 6.1587525e-05 7.6665354e-05 1.0078626e-05
0.00011592731 -1.8827857e-05 -3.7274727e-05 2.8717797e-05 3.5735182e-05 -0.00013920497 -6.302522e-05 0.00013162548
-7.552234e-06 -8.1437165e-06 0.00014517682 -6.6060566e-05 -0.00016686154 -8.3528066e-05 -1.7460563e-06 -3.5436344e-05
2.3542643e-05 -3.277513e-05 -5.306701e-05 -4.7095655e-05 -5.1888102e-05 -1.966894e-05 -6.445616e-05 -0.00013897722
-5.464155e-05 -2.7669568e-05 -4.7453952e-05 2.9816361e-05 8.34897e-05 1.2696215e-05 4.3959342e-05 -7.507041e-06
0.00013832147 -6.5768865e-05 -4.068462e-05 -6.139237e-05 -2.4458028e-05 3.5277346e-05 -2.8193588e-05 -3.529146e-05
-0.00013552954 0.00023473367 -1.5154234e-05 -5.068827e-05 1.2847055e-05 8.938285e-06 -8.535202e-05 -4.813097e-05
7.6784505e-05 4.6977348e-05 -5.5907298e-05 -7.2882634e-05 -4.976294e-06 -3.7098263e-05 6.114857e-06 -1.8191271e-05
-4.5386292e-05 0.00026272607 -7.159185e-05 -6.223228e-05 -3.462845e-05 -1.440426e-05 -0.00012787427 -1.4941389e-05
-3.1806663e-05 -0.0001420512 -7.794569e-05 -8.2695224e-05 0.00017835188 -1.5588936e-05 4.7111862e-05 -3.0421097e-06
-5.2395928e-09 -9.593829e-06 -1.6721717e-05 -0.000119448036 0.00010726828 -3.3693373e-06 -2.089931e-05 0.00011838059
4.9148937e-05 2.7343115e-06 1.9513553e-05 -0.00012014108 0.00014577461 -4.5255234e-05 6.5050655e-05 -1.22461515e-05
1.8857145e-06 -2.187666e-05 -5.0739083e-05 -5.9695474e-05 -7.713972e-05 7.5456475e-05 9.366539e-05 3.837578e-06
-8.310933e-05 -4.746698e-06 -2.3534029e-05 0.00025013712 -7.96506e-05 3.9052925e-06 7.5498574e-05 -7.5456795e-05
-1.861833e-05 -6.791455e-05 5.322164e-05 0.00013749962 -0.00010884964 -0.00010556115 6.81772e-07 0.00031553276
0.00012101124 0.00012402536 -0.000106418534 0.00010255044 -0.00016029527 -3.8542956e-05 -8.429215e-05 -2.5652935e-05
-6.767945e-05 -0.0001014694 0.00016174247 -8.931679e-05 2.6325584e-05 4.852926e-05 6.909528e-05 3.4705965e-05
0.000116421426 -1.5601374e-05 -3.7612557e-05 5.8841757e-05 3.2539025e-05 -0.00013461689 -5.6380104e-05 0.00013179373
1.1259443e-06 -1.7414099e-05 0.00013565514 -8.7655484e-05 -0.00016287832 -8.924464e-05 7.3427736e-07 -3.8743066e-05
1.7189594e-05 -4.052195e-05 -5.1670475e-05 -5.6375167e-05 -6.383248e-05 -1.7388322e-05 -8.314767e-05 -0.00014597978
-5.262406e-05 -5.29821e-05 -5.496404e-05 3.0346608e-05 8.267276e-05 4.0546947e-05 5.6833487e-05 -1.2548119e-05
0.00012235361 -9.642406e-05 -2.427281e-05 -6.094663e-05 -5.611131e-05 2.3022798e-05 -2.6723787e-05 -4.0717e-05
-0.00012942913 0.00024720916 -3.12164e-05 -3.3683635e-05 3.7229613e-06 -4.3961873e-06 -8.344199e-05 -3.7934533e-05
5.8652895e-05 4.449202e-05 -7.176041e-05 -6.354606e-05 5.3098165e-06 -4.782598e-05 -3.2998952e-07 -2.5679772e-05
-4.9213748e-05 0.00029014 -6.7001805e-05 -8.509448e-05 -3.7228827e-05 1.4259713e-05 -0.00013536571 2.521961e-06
-4.1093408e-05 -0.00015663532 -7.0720904e-05 -9.769301e-05 0.00020853325 -2.2565166e-05 6.141356e-05 -3.2377388e-06
-5.2395928e-09 -4.1423147e-05 -1.3233913e-05 -0.00014862412 0.000114502494 1.0442357e-05 -1.8292665e-05 0.00013338472
3.80258e-05 -2.1747674e-06 3.0386644e-05 -0.00012683628 0.00015821037 -3.5197332e-05 5.6591805e-05 3.5788369e-06
1.0521234e-05 -5.3670723e-05 -4.7886428e-05 -4.4612476e-05 -7.785106e-05 9.31718e-05 0.00010295424 1.9449542e-05
-8.5030646e-05 -1.3121692e-05 -6.417396e-05 0.00027117901 -9.172497e-05 -8.0405225e-06 9.283293e-05 -9.4754025e-05
00000000: 48a3 d2b7 09e8 60b8 9242 3b38 7ea4 1b39
00000010: dae9 a1b8 df18 e0b8 a46c e6b5 feb8 9c39
00000020: e7a0 eb38 25ad ed38 02b8 c9b8 2eeb dc38
00000030: 59fd 31b9 351f 4db8 ccc5 94b8 86c0 bab7
00000040: 8b19 5fb8 5e6b deb8 00db 3e39 fc8e d7b8
00000050: 2e29 5b37 8d28 8138 66c7 a038 5e17 2937
00000060: 001e f338 84f0 9db7 6f57 1cb8 00e7 f037
00000070: 5ce2 1538 8df7 11b9 682c 84b8 f204 0a39
00000080: 3269 fdb6 ffa0 08b7 9b3a 1839 ff89 8ab8
00000090: 8ef7 2eb9 ca2b afb8 0a5a eab5 7ca1 14b8
000000a0: 717d c537 0778 09b8 4594 5eb8 9388 45b8
000000b0: 6da2 59b8 bafe a4b7 a32c 87b8 6aba 11b9
000000c0: eb2e 65b8 f21b e8b7 4b09 47b8 261e fa37
000000d0: 3117 af38 d401 5537 fc60 3838 fee4 fbb6
000000e0: 630a 1139 64ed 89b8 c7a4 2ab8 c7bf 80b8
000000f0: 372b cdb7 c3f6 1338 4581 ecb7 eb05 14b8
00000100: ef1c 0eb9 d722 7639 f03e 7eb7 1e9a 54b8
00000110: ae89 5737 a4f5 1537 04ff b2b8 3ce0 49b8
00000120: 5e07 a138 8b09 4538 017e 6ab8 91d8 98b8
00000130: 0afa a6b6 f599 1bb8 392e cd36 7599 98b7
00000140: 295d 3eb8 7fbe 8939 9523 96b8 b382 82b8
00000150: 043e 11b8 d3a9 71b7 fd15 06b9 c7ac 7ab7
00000160: 2568 05b8 94f3 14b9 c676 a3b8 a96c adb8
00000170: f803 3b39 fcc4 82b7 fa99 4538 0c27 4cb6
00000180: f207 b4b1 2ff5 20b7 9d45 8cb7 2d80 fab8
00000190: 38f5 e038 c61c 62b6 ed50 afb7 1843 f838
000001a0: 4525 4e38 1d7f 3736 09b1 a337 40f4 fbb8
000001b0: 13db 1839 70d0 3db8 ce6b 8838 d274 4db7
000001c0: a818 fd35 c583 b7b7 add0 54b8 8761 7ab8
000001d0: 12c6 a1b8 633e 9e38 396e c438 8bc4 8036
000001e0: fb4a aeb8 d345 9fb6 f16a c5b7 d624 8339
000001f0: 170a a7b8 350a 8336 fd54 9e38 8f3e 9eb8
00000200: 8f2e 9cb7 596d 8eb8 4d3a 5f38 c62d 1039
00000210: 3546 e4b8 b660 ddb8 0403 3735 176e a539
00000220: 6ac7 fd38 ce0c 0239 042d dfb8 5910 d738
00000230: ef14 28b9 2fa9 21b8 01c6 b0b8 4231 d7b7
00000240: 21ef 8db8 f8cb d4b8 6a99 2939 964f bbb8
00000250: c3d5 dc37 e58b 4b38 3fe7 9038 3f91 1138
00000260: 4727 f438 b2df 82b7 2dc2 1db8 dbcc 7638
00000270: 837a 0838 f227 0db9 ad79 6cb8 1c32 0a39
00000280: 271f 9735 7e14 92b7 a63e 0e39 aed3 b7b8
00000290: 51ca 2ab9 da28 bbb8 281b 4535 0d80 22b8
000002a0: 5f32 9037 1df6 29b8 c0b8 58b8 6074 6cb8
000002b0: cddd 85b8 23dd 91b7 915f aeb8 2612 19b9
000002c0: a7b8 5cb8 1939 5eb8 3089 66b8 d890 fe37
000002d0: 9a60 ad38 f410 2a38 7e60 6e38 c385 52b7
000002e0: 0c4c 0039 4637 cab8 769d cbb7 f2a0 7fb8
000002f0: 0f59 6bb8 1521 c137 e52c e0b7 8cc7 2ab8
00000300: 5eb7 07b9 da9b 8139 5bee 02b8 8747 0db8
00000310: fdd7 7936 f682 93b6 94fd aeb8 e51b 1fb8
00000320: 1102 7638 f19c 3a38 147e 96b8 0844 85b8
00000330: fa2a b236 c198 48b8 6a29 b1b4 e46a d7b7
00000340: dc6a 4eb8 ee1d 9839 5283 8cb8 c074 b2b8
00000350: 2626 1cb8 003d 6f37 f5f0 0db9 f63e 2936
00000360: b65b 2cb8 793e 24b9 ff4f 94b8 89e0 ccb8
00000370: b8a9 5a39 534a bdb7 27cb 8038 ee47 59b6
00000380: f207 b4b1 c4bd 2db8 3907 5eb7 fcd7 1bb9
00000390: 0f21 f038 9531 2f37 3373 99b7 30dd 0b39
000003a0: e47d 1f38 38f2 11b6 d2e6 fe37 5bff 04b9
000003b0: 46e5 2539 d9a0 13b8 fd5c 6d38 f32b 7036
000003c0: 5b84 3037 801c 61b8 a9d9 48b8 481e 3bb8
000003d0: f843 a3b8 3b65 c338 23e9 d738 9327 a337
000003e0: 7b52 b2b8 3d25 5cb7 2295 86b8 082d 8e39
000003f0: 785c c0b8 c8e5 06b7 4daf c238 aeb6 c6b8

exp_avg_sq f4 [128, 256]
7.067402e-08 9.4818674e-08 1.255413e-07 2.1610629e-07 1.1362943e-07 8.7846544e-08 1.0696394e-07 1.1673924e-06
1.2153315e-07 2.408843e-07 3.7658037e-08 3.5346048e-07 1.5163327e-07 1.479872e-07 8.58564e-08 6.0955e-08
1.7307174e-07 1.4369404e-07 1.9802768e-07 6.0282076e-08 8.277718e-08 7.734957e-08 1.2382823e-07 1.11072666e-07
2.2388807e-07 7.04059e-09 2.1596868e-08 8.485204e-08 4.372214e-08 8.871554e-08 7.678095e-08 2.0463612e-07
7.906486e-09 6.0685444e-08 3.5711346e-07 1.2745178e-07 3.1630682e-07 9.875002e-08 8.314665e-08 9.150803e-08
5.086251e-08 1.13342196e-07 6.323447e-08 2.6471653e-08 7.392038e-08 7.267233e-08 1.5173428e-07 1.2680177e-07
4.6569244e-08 5.1944813e-08 5.386106e-08 5.2899043e-08 3.671853e-07 3.9528604e-08 8.084559e-08 1.2402694e-07
7.4195384e-08 1.7179059e-07 3.2199456e-08 2.9950105e-08 1.1868825e-07 7.554987e-08 1.3917756e-08 1.6833148e-08
1.9169715e-07 1.2246576e-06 5.039403e-08 8.5317005e-08 6.99131e-08 1.0633895e-07 5.2020717e-08 8.895927e-08
4.6979274e-08 3.761096e-08 9.887358e-08 5.1803205e-08 1.6037758e-07 1.0597351e-07 3.162474e-08 1.3064277e-07
7.389487e-08 5.8264624e-07 5.5958886e-08 5.8968478e-08 1.1170012e-08 2.2184854e-07 1.3481556e-07 6.528004e-08
6.485551e-08 1.851706e-07 7.072057e-08 5.4302728e-08 4.7331866e-07 4.834744e-08 8.55658e-08 7.557364e-09
3.416233e-16 4.6080974e-08 7.924842e-08 2.374086e-07 7.36167e-08 1.13325676e-07 1.4676318e-07 3.330149e-07
4.2688498e-08 1.04574056e-07 4.831524e-08 8.898952e-08 2.8034805e-07 9.327499e-08 3.077546e-07 8.141483e-08
2.01038e-08 1.290488e-07 4.9731177e-08 5.216205e-08 3.08258e-08 4.0537506e-07 9.608481e-08 7.9357974e-08
3.7294853e-08 2.98388e-08 1.5678877e-07 7.256306e-07 6.582749e-08 9.214916e-08 3.2813892e-07 1.7586149e-07
8.534137e-08 1.2003119e-07 1.5061491e-07 2.1360196e-07 1.3140594e-07 9.392091e-08 1.0621311e-07 1.2585299e-06
1.1086267e-07 2.5133644e-07 5.040768e-08 3.875064e-07 1.4318123e-07 1.6950185e-07 9.7463506e-08 5.7192064e-08
1.8529897e-07 1.5006415e-07 1.4653227e-07 6.112436e-08 9.565898e-08 8.336355e-08 1.3165685e-07 1.3419731e-07
2.4838408e-07 7.2122326e-09 2.1625695e-08 1.04430704e-07 4.9414293e-08 9.594031e-08 7.549771e-08 2.3486456e-07
9.253174e-09 6.9790865e-08 3.2238725e-07 1.8748e-07 2.9657537e-07 1.0505295e-07 8.048412e-08 1.05288436e-07
5.71166e-08 1.3097373e-07 6.3312875e-08 2.6633801e-08 7.8182936e-08 4.405473e-08 1.6143491e-07 1.2213928e-07
4.64952e-08 6.616237e-08 5.7582263e-08 5.6993336e-08 3.9697022e-07 4.620519e-08 9.613934e-08 1.4268993e-07
7.0051875e-08 2.2385143e-07 3.411641e-08 3.255651e-08 1.280104e-07 9.4171156e-08 1.6116989e-08 1.8316998e-08
2.1924888e-07 1.3957522e-06 6.5462835e-08 1.04821346e-07 8.3179216e-08 1.0569225e-07 5.549884e-08 8.7431296e-08
5.134368e-08 4.2379185e-08 1.1442358e-07 5.314198e-08 1.0605147e-07 1.13186935e-07 3.222068e-08 1.2731748e-07
7.5744595e-08 6.897242e-07 5.558262e-08 9.5192945e-08 1.2093261e-08 2.5409108e-07 1.4732717e-07 6.9789685e-08
2.8243313e-08 2.2983824e-07 8.51597e-08 5.7727355e-08 5.449421e-07 5.1984706e-08 1.0338343e-07 8.583245e-09
3.416233e-16 4.810842e-08 6.678901e-08 2.8716033e-07 7.888215e-08 1.3162528e-07 1.6329804e-07 3.7643986e-07
4.331314e-08 1.09743986e-07 5.4897672e-08 9.7808815e-08 3.21118e-07 8.418359e-08 3.2328614e-07 7.397731e-08
2.177892e-08 1.7025815e-07 4.9504536e-08 5.43399e-08 3.1707696e-08 5.0039307e-07 1.1161309e-07 9.812275e-08
3.7555953e-08 3.469807e-08 1.8384526e-07 8.592918e-07 8.306162e-08 1.11831824e-07 3.8243115e-07 1.8760095e-07
00000000: 74c5 9733 1e9f cb33 88cc 0634 d80a 6834
00000010: 7104 f433 26a6 bc33 0cb4 e533 4caf 9c35
00000020: c77e 0234 e352 8134 73bd 2133 3dc3 bd34
00000030: a3d0 2234 69e6 1e34 0e60 b833 5ee6 8233
00000040: 99d5 3934 514a 1a34 6fa1 5434 6c74 8133
00000050: 3cc3 b133 601b a633 a5f5 0434 d886 ee33
00000060: e265 7034 afe9 f131 0484 b932 e737 b633
00000070: 00c9 3b33 e283 be33 c6e2 a433 f3b9 5b34
00000080: 18d5 0732 2d52 8233 4db9 bf34 aed9 0834
00000090: e1d0 a934 6610 d433 5b8e b233 1283 c433
000000a0: ec73 5a33 8866 f333 84cb 8733 c863 e332
000000b0: 29be 9e33 0910 9c33 67ec 2234 0127 0834
000000c0: 6d03 4833 ed19 5f33 dd54 6733 1d33 6333
000000d0: 9021 c534 29c6 2933 559d ad33 442c 0534
000000e0: 5855 9f33 7075 3834 ad4b 0a33 7da2 0033
000000f0: 8ee1 fe33 fb3d a233 f01a 6f32 7c98 9032
00000100: 50d5 4d34 ea5e a435 d270 5833 8537 b733
00000110: 2223 9633 755c e433 626d 5f33 e009 bf33
00000120: 42c6 4933 b089 2133 5354 d433 3a7e 5e33
00000130: 4134 2c34 8e93 e333 c5d3 0733 d046 0c34
00000140: 22b0 9e33 2567 1c35 7257 7033 8744 7d33
00000150: 3be6 3f32 4335 6e34 d2c1 1034 1530 8c33
00000160: b246 8b33 4fd3 4634 0bdf 9733 7b3a 6933
00000170: 6c1c fe34 93a6 4f33 4cc0 b733 a3d5 0132
00000180: b3ee c425 91ea 4533 482f aa33 61ea 7e34
00000190: 3517 9e33 735d f333 f595 1d34 38c9 b234
000001a0: 8058 3733 3292 e033 2b83 4f33 821a bf33
000001b0: be82 9634 784e c833 7839 a534 47d6 ae33
000001c0: b9b0 ac32 aa90 0a34 0298 5533 c808 6033
000001d0: 5365 0433 53a2 d934 2f57 ce33 826b aa33
000001e0: 202e 2033 1c28 0033 c559 2834 f5c8 4235
000001f0: 0c5d 8d33 89e3 c533 122b b034 70d4 3c34
00000200: ea44 b733 ece1 0034 b6b8 2134 765a 6534
00000210: 9718 0d34 91b1 c933 4617 e433 c2ea a835
00000220: 6613 ee33 6bef 8634 d57f 5833 790a d034
00000230: 5bbd 1934 5000 3634 214d d133 57a3 7533
00000240: 98f6 4634 5221 2134 7c56 1d34 7943 8333
00000250: 156d cd33 9905 b333 8f5d 0d34 e017 1034
00000260: a659 8534 78cf f731 68c3 b932 6343 e033
00000270: 973b 5433 be07 ce33 4e21 a233 142f 7c34
00000280: e4f7 1e32 efdf 9533 9114 ad34 1c4e 4934
00000290: 0239 9f34 7899 e133 9dd6 ac33 ee1a e233
000002a0: 5e50 7533 c9a1 0c34 9ff6 8733 59c8 e432
000002b0: 86e5 a733 b036 3d33 e456 2d34 6425 0334
000002c0: 03b2 4733 2615 8e33 5e50 7733 d6c8 7433
000002d0: 2c1f d534 2573 4633 2975 ce33 4f36 1934
000002e0: 6d6f 9633 d05b 7034 6487 1233 43d4 0b33
000002f0: 3b73 0934 243b ca33 a271 8a32 8157 9d32
00000300: ac6a 6b34 ae55 bb35 9394 8c33 251a e133
00000310: 42a0 b233 eef8 e233 9f5d 6e33 ddc1 bb33
00000320: f984 5c33 6804 3633 07b9 f533 3a3e 6433
00000330: 6abe e333 2d11 f333 0363 0a33 c3b4 0834
00000340: 08a9 a233 7c25 3935 bdb9 6e33 e06c cc33
00000350: b9c2 4f32 036a 8834 fc30 1e34 49df 9533
00000360: b49b f232 74c9 7634 0ae1 b633 e6ef 7733
00000370: 2348 1235 ca45 5f33 a403 de33 8375 1332
00000380: b3ee c425 c49f 4e33 a66d 8f33 042b 9a34
00000390: ec65 a933 e254 0d34 0657 2f34 8019 ca34
000003a0: 4d07 3a33 65ac eb33 a1c8 6b33 f70a d233
000003b0: 1f66 ac34 6bc8 b433 1c90 ad34 75dd 9e33
000003c0: 5a14 bb32 34d0 3634 d09e 5433 5a63 6933
000003d0: fb2e 0833 c052 0635 f2af ef33 8db7 d233
000003e0: 354d 2133 ee06 1533 0067 4534 15aa 6635
000003f0: 9c5f b233 3228 f033 f050 cd34 5b6f 4934

exp_avg f4 [128]
0.00026756985 -0.00010779319 -0.00032831734 0.00016513611 0.00034938427 -0.0002154207 -0.00013600531 -0.00020426158
-2.8054845e-05 -0.00020702716 -3.66363e-05 -0.00012779211 -0.00025578673 -0.00022301263 0.000110210916 -2.8262319e-05
-0.0001961941 -7.337331e-05 -6.0703256e-05 0.00018906553 -4.9624978e-05 0.0001634723 1.0704784e-05 8.591474e-05
-0.00025107455 0.00021651216 -6.583089e-05 -0.00014090368 0.00018324744 7.36511e-05 -0.00010465215 -0.00012654511
0.00012104839 -4.4053006e-05 -0.00015542743 9.2398914e-05 1.3939935e-05 6.343934e-05 -0.00013663535 0.00019281068
-0.00013298426 4.129155e-05 -0.00012603017 6.4841435e-05 -0.00013548345 -1.9106195e-05 -0.000106932464 -6.457803e-05
-0.00018988072 9.409737e-05 -0.00029725267 6.520301e-05 0.00041630134 -0.00018675416 -2.1782736e-05 -0.00043039126
6.8865025e-05 5.731458e-05 -5.349229e-05 -0.00017421064 6.9564885e-05 -0.00021171363 -9.3281276e-05 -0.00020412539
-0.000524393 7.086012e-05 2.0339174e-05 0.00022605648 0.00017556112 -6.4214684e-05 0.00016136703 0.00020487396
0.00016645662 0.00017928712 9.64649e-05 0.00013911181 0.00016949596 7.1824084e-05 -7.154218e-05 -0.00036538282
-1.573797e-05 9.390739e-05 0.00023845996 0.00027145012 6.9744005e-05 -6.308767e-05 0.00012911967 -2.0248644e-06
-1.0479714e-05 -0.00019249179 0.0001499245 -0.00021990814 0.000101850186 -3.7373276e-05 -0.00013295408 -0.00023228081
6.872034e-05 -5.7018726e-05 0.000161142 -0.0003080019 0.00011345321 -0.00022122393 0.00016666176 0.0003609561
-0.0001513459 0.00012688158 2.5112968e-05 0.00018260242 -1.638979e-05 3.928455e-05 -0.00015669285 8.030716e-05
-1.0244303e-05 -9.476533e-05 -0.0002898052 0.00014146468 -0.00031089672 -0.00021032347 -2.6162432e-05 -9.7040436e-05
8.09501e-05 -0.00027612562 -6.153318e-05 9.76585e-05 -4.45811e-05 -8.49068e-05 0.00017422232 -0.00019433904
00000000: 9e48 8c39 070f e2b8 0222 acb9 6328 2d39
00000010: 902d b739 8ee2 61b9 a69c 0eb9 0d2f 56b9
00000020: 5257 ebb7 6e15 59b9 eda9 19b8 efff 05b9
00000030: 1d1b 86b9 7fd8 69b9 0921 e738 de14 edb7
00000040: 74b9 4db9 ffdf 99b8 a09b 7eb8 e43f 4639
00000050: 6a24 50b8 c369 2b39 b298 3337 202d b438
00000060: a8a2 83b9 8a07 6339 b10e 8ab8 8bbf 13b9
00000070: 1c26 4039 2275 9a38 b278 dbb8 32b1 04b9
00000080: 5cdb fd38 8ec5 38b8 3cfa 22b9 4ac6 c138
00000090: 91df 6937 bc0a 8538 c645 0fb9 392d 4a39
000000a0: b171 0bb9 7730 2d38 f726 04b9 7bfb 8738
000000b0: 9010 0eb9 3e46 a0b7 ee40 e0b8 116e 87b8
000000c0: b81a 47b9 2456 c538 94d8 9bb9 99bd 8838
000000d0: 0543 da39 70d3 43b9 12ba b6b7 23a6 e1b9
000000e0: a16b 9038 1065 7038 e95c 60b8 50ac 36b9
000000f0: 5de3 9138 72ff 5db9 01a0 c3b8 7e0a 56b9
00000100: 6b77 09ba bd9a 9438 0b9e aa37 9309 6d39
00000110: d416 3839 ffaa 86b8 a234 2939 6fd3 5639
00000120: dc8a 2e39 05ff 3b39 334d ca38 8bde 1139
00000130: baba 3139 43a0 9638 ea08 96b8 da90 bfb9
00000140: 0905 84b7 25f0 c438 1c0b 7a39 6b51 8e39
00000150: 8743 9238 ef4d 84b8 4c64 0739 e8e2 07b6
00000160: 07d2 2fb7 9fd7 49b9 0d35 1d39 2497 66b9
00000170: 6798 d538 40c1 1cb8 9769 0bb9 6890 73b9
00000180: f41d 9038 6427 6fb8 3af8 2839 517b a1b9
00000190: baed ed38 59f8 67b9 edc1 2e39 b53e bd39
000001a0: 9bb2 1eb9 840b 0539 b0a9 d237 f778 3f39
000001b0: ce7c 89b7 77c5 2438 eb4d 24b9 946a a838
000001c0: f2de 2bb7 c0bc c6b8 fff0 97b9 2356 1439
000001d0: daff a2b9 478a 5cb9 6577 dbb7 3082 cbb8
000001e0: c1c3 a938 f4c4 90b9 600b 81b8 02ce cc38
000001f0: 97fc 3ab8 fe0f b2b8 73af 3639 7dc7 4bb9

exp_avg_sq f4 [128]
8.9089656e-07 1.5669989e-06 1.2625217e-06 1.0920655e-06 9.275906e-07 1.0948762e-06 1.1940904e-06 1.241813e-06
1.5304755e-06 7.680407e-07 1.0092485e-06 2.3202645e-06 2.380691e-06 1.1077365e-06 9.02861e-07 1.316607e-06
8.9574223e-07 8.380736e-07 8.7756285e-07 1.3130816e-06 1.4161865e-06 1.1139517e-06 1.0656042e-06 1.3645977e-06
1.4099991e-06 2.9300686e-06 9.296839e-07 1.638466e-06 1.6403112e-06 1.2825157e-06 1.4343251e-06 1.1683492e-06
1.1664972e-06 2.2368458e-06 9.771062e-07 7.0755635e-07 2.4668022e-06 9.967323e-07 1.5392613e-06 1.1235093e-06
9.673242e-07 6.03437e-07 9.835713e-07 8.677792e-07 1.5350917e-06 8.231624e-07 1.1664685e-06 1.309321e-06
1.9500326e-06 1.3234026e-06 2.1064286e-06 1.5402949e-06 2.437489e-06 1.4900123e-06 1.1986511e-06 2.83899e-06
9.704556e-07 9.951087e-07 7.984583e-07 1.2632023e-06 6.995468e-07 5.4086644e-07 8.670721e-07 8.190001e-07
2.914173e-06 1.5580924e-06 1.1117074e-06 1.9807756e-06 7.9497806e-07 1.8186339e-06 1.0644458e-06 1.5051893e-06
1.3740794e-06 1.417343e-06 1.1197338e-06 6.388944e-07 1.5257369e-06 1.1306142e-06 1.1111487e-06 1.2136925e-06
1.2473528e-06 8.3503704e-07 1.43923e-06 1.8874931e-06 8.5183035e-07 1.4275327e-06 1.0098993e-06 6.3361557e-07
7.60353e-07 7.6711996e-07 9.645216e-07 1.3686963e-06 1.1721145e-06 2.2121185e-06 1.4311671e-06 6.4072316e-07
1.0871202e-06 1.1433988e-06 6.422723e-07 2.2425638e-06 1.0706325e-06 1.7943581e-06 1.7981852e-06 1.4969105e-06
1.3705627e-06 1.8883028e-06 1.0252267e-06 1.2149105e-06 7.479377e-07 2.264547e-06 1.1907088e-06 1.5500302e-06
9.815146e-07 1.5149677e-06 1.3541044e-06 1.0596468e-06 1.7431851e-06 1.9338497e-06 1.7603115e-06 9.995138e-07
8.9372685e-07 2.408257e-06 1.5619365e-06 1.5715102e-06 1.1448977e-06 1.4747033e-06 1.453492e-06 9.445102e-07
00000000: f225 6f35 ac51 d235 ea73 a935 1693 9235
00000010: 8aff 7835 a9f3 9235 a244 a035 5fac a635
00000020: bd6a cd35 5b2b 4e35 8475 8735 d7b5 1b36
00000030: f6c3 1f36 89ad 9435 235c 7235 46b6 b035
00000040: f072 7035 fbf7 6035 a991 6b35 243d b035
00000050: cc13 be35 1783 9535 e205 8f35 3827 b735
00000060: 333f bd35 32a2 4436 648f 7935 43e9 db35
00000070: aa28 dc35 e722 ac35 0983 c035 2cd0 9c35
00000080: 8a90 9c35 b81c 1636 1d25 8335 e7ee 3d35
00000090: 578b 2536 76c7 8535 9e98 ce35 7ccb 9635
000000a0: 02d5 8135 e0fb 2135 4103 8435 55f1 6835
000000b0: 5909 ce35 4af7 5c35 8d8f 9c35 edbb af35
000000c0: 4edd 0236 c49f b135 2b5c 0d36 21bc ce35
000000d0: be93 2336 6ffc c735 57e1 a035 7a85 3e36
000000e0: 9a40 8235 ad8f 8535 a355 5635 4d8b a935
000000f0: 7dc8 3b35 0f30 1135 bec0 6835 42d9 5b35
00000100: 1c91 4336 a61f d135 fa35 9535 77ed 0436
00000110: 7a66 5535 c917 f435 14de 8e35 e905 ca35
00000120: 026d b835 893b be35 c349 9635 7d80 2b35
00000130: ecc7 cc35 9cbf 9735 c722 9535 28e6 a235
00000140: b76a a735 4f27 6035 912b c135 c555 fd35
00000150: 56a9 6435 a699 bf35 e08b 8735 bb15 2a35
00000160: 0f1b 4c35 15ec 4d35 b674 8135 0cb4 b735
00000170: 8c51 9d35 e873 1436 8716 c035 29fe 2b35
00000180: 2ae9 9135 e276 9935 9e68 2c35 f47e 1636
00000190: a7b2 8f35 add5 f035 2c59 f135 74e9 c835
000001a0: 2df4 b735 9771 fd35 859a 8935 0210 a335
000001b0: e3c5 4835 9ff8 1736 71d0 9f35 a20a d035
000001c0: 96bc 8335 e555 cb35 acbe b535 3039 8e35
000001d0: 62f7 e935 49c7 0136 d843 ec35 0827 8635
000001e0: 71e8 6f35 8a9d 2136 bba3 d135 aeec d235
000001f0: 63aa 9935 6bee c535 9b15 c335 3f8a 7d35
